{"modelTopology":{"node":[{"input":[],"attr":{"value":{"tensor":{"floatVal":[],"doubleVal":[],"intVal":[],"stringVal":[],"scomplexVal":[],"int64Val":[],"boolVal":[],"uint32Val":[],"uint64Val":[],"dtype":1,"tensorShape":{"dim":[{"size":"3"},{"size":"3"},{"size":"576"},{"size":"15"}]}}},"dtype":{"type":1}},"name":"BoxPredictor_0/ClassPredictor/weights","op":"Const"},{"input":[],"attr":{"value":{"tensor":{"floatVal":[],"doubleVal":[],"intVal":[],"stringVal":[],"scomplexVal":[],"int64Val":[],"boolVal":[],"uint32Val":[],"uint64Val":[],"dtype":1,"tensorShape":{"dim":[{"size":"15"}]}}},"dtype":{"type":1}},"name":"BoxPredictor_0/ClassPredictor/biases","op":"Const"},{"input":[],"attr":{"value":{"tensor":{"floatVal":[],"doubleVal":[],"intVal":[],"stringVal":[],"scomplexVal":[],"int64Val":[],"boolVal":[],"uint32Val":[],"uint64Val":[],"dtype":1,"tensorShape":{"dim":[{"size":"3"},{"size":"3"},{"size":"1024"},{"size":"30"}]}}},"dtype":{"type":1}},"name":"BoxPredictor_1/ClassPredictor/weights","op":"Const"},{"input":[],"attr":{"value":{"tensor":{"floatVal":[],"doubleVal":[],"intVal":[],"stringVal":[],"scomplexVal":[],"int64Val":[],"boolVal":[],"uint32Val":[],"uint64Val":[],"dtype":1,"tensorShape":{"dim":[{"size":"30"}]}}},"dtype":{"type":1}},"name":"BoxPredictor_1/ClassPredictor/biases","op":"Const"},{"input":[],"attr":{"value":{"tensor":{"floatVal":[],"doubleVal":[],"intVal":[],"stringVal":[],"scomplexVal":[],"int64Val":[],"boolVal":[],"uint32Val":[],"uint64Val":[],"dtype":1,"tensorShape":{"dim":[{"size":"3"},{"size":"3"},{"size":"512"},{"size":"30"}]}}},"dtype":{"type":1}},"name":"BoxPredictor_2/ClassPredictor/weights","op":"Const"},{"input":[],"attr":{"dtype":{"type":1},"value":{"tensor":{"floatVal":[],"doubleVal":[],"intVal":[],"stringVal":[],"scomplexVal":[],"int64Val":[],"boolVal":[],"uint32Val":[],"uint64Val":[],"dtype":1,"tensorShape":{"dim":[{"size":"30"}]}}}},"name":"BoxPredictor_2/ClassPredictor/biases","op":"Const"},{"input":[],"attr":{"value":{"tensor":{"floatVal":[],"doubleVal":[],"intVal":[],"stringVal":[],"scomplexVal":[],"int64Val":[],"boolVal":[],"uint32Val":[],"uint64Val":[],"dtype":1,"tensorShape":{"dim":[{"size":"3"},{"size":"3"},{"size":"256"},{"size":"30"}]}}},"dtype":{"type":1}},"name":"BoxPredictor_3/ClassPredictor/weights","op":"Const"},{"input":[],"attr":{"value":{"tensor":{"floatVal":[],"doubleVal":[],"intVal":[],"stringVal":[],"scomplexVal":[],"int64Val":[],"boolVal":[],"uint32Val":[],"uint64Val":[],"dtype":1,"tensorShape":{"dim":[{"size":"30"}]}}},"dtype":{"type":1}},"name":"BoxPredictor_3/ClassPredictor/biases","op":"Const"},{"input":[],"attr":{"value":{"tensor":{"floatVal":[],"doubleVal":[],"intVal":[],"stringVal":[],"scomplexVal":[],"int64Val":[],"boolVal":[],"uint32Val":[],"uint64Val":[],"dtype":1,"tensorShape":{"dim":[{"size":"3"},{"size":"3"},{"size":"256"},{"size":"30"}]}}},"dtype":{"type":1}},"name":"BoxPredictor_4/ClassPredictor/weights","op":"Const"},{"input":[],"attr":{"value":{"tensor":{"floatVal":[],"doubleVal":[],"intVal":[],"stringVal":[],"scomplexVal":[],"int64Val":[],"boolVal":[],"uint32Val":[],"uint64Val":[],"dtype":1,"tensorShape":{"dim":[{"size":"30"}]}}},"dtype":{"type":1}},"name":"BoxPredictor_4/ClassPredictor/biases","op":"Const"},{"input":[],"attr":{"value":{"tensor":{"floatVal":[],"doubleVal":[],"intVal":[],"stringVal":[],"scomplexVal":[],"int64Val":[],"boolVal":[],"uint32Val":[],"uint64Val":[],"dtype":1,"tensorShape":{"dim":[{"size":"3"},{"size":"3"},{"size":"128"},{"size":"30"}]}}},"dtype":{"type":1}},"name":"BoxPredictor_5/ClassPredictor/weights","op":"Const"},{"input":[],"attr":{"value":{"tensor":{"floatVal":[],"doubleVal":[],"intVal":[],"stringVal":[],"scomplexVal":[],"int64Val":[],"boolVal":[],"uint32Val":[],"uint64Val":[],"dtype":1,"tensorShape":{"dim":[{"size":"30"}]}}},"dtype":{"type":1}},"name":"BoxPredictor_5/ClassPredictor/biases","op":"Const"},{"input":[],"attr":{"value":{"tensor":{"floatVal":[],"doubleVal":[],"intVal":[],"stringVal":[],"scomplexVal":[],"int64Val":[],"boolVal":[],"uint32Val":[],"uint64Val":[],"dtype":3,"tensorShape":{"dim":[]}}},"dtype":{"type":3}},"name":"BoxPredictor_0/Reshape_1/shape/2","op":"Const"},{"input":[],"attr":{"value":{"tensor":{"floatVal":[],"doubleVal":[],"intVal":[],"stringVal":[],"scomplexVal":[],"int64Val":[],"boolVal":[],"uint32Val":[],"uint64Val":[],"dtype":3,"tensorShape":{"dim":[{"size":"3"}]}}},"dtype":{"type":3}},"name":"Postprocessor/Slice/begin","op":"Const"},{"input":[],"attr":{"dtype":{"type":3},"value":{"tensor":{"floatVal":[],"doubleVal":[],"intVal":[],"stringVal":[],"scomplexVal":[],"int64Val":[],"boolVal":[],"uint32Val":[],"uint64Val":[],"dtype":3,"tensorShape":{"dim":[{"size":"3"}]}}}},"name":"Postprocessor/Slice/size","op":"Const"},{"input":[],"attr":{"value":{"tensor":{"floatVal":[],"doubleVal":[],"intVal":[],"stringVal":[],"scomplexVal":[],"int64Val":[],"boolVal":[],"uint32Val":[],"uint64Val":[],"dtype":1,"tensorShape":{"dim":[]}}},"dtype":{"type":1}},"name":"ConstantFolding/Postprocessor/truediv_recip","op":"Const"},{"input":[],"attr":{"dtype":{"type":1},"value":{"tensor":{"floatVal":[],"doubleVal":[],"intVal":[],"stringVal":[],"scomplexVal":[],"int64Val":[],"boolVal":[],"uint32Val":[],"uint64Val":[],"dtype":1,"tensorShape":{"dim":[]}}}},"name":"ConstantFolding/Postprocessor/truediv_1_recip","op":"Const"},{"input":[],"attr":{"value":{"tensor":{"floatVal":[],"doubleVal":[],"intVal":[],"stringVal":[],"scomplexVal":[],"int64Val":[],"boolVal":[],"uint32Val":[],"uint64Val":[],"dtype":1,"tensorShape":{"dim":[]}}},"dtype":{"type":1}},"name":"ConstantFolding/Postprocessor/Decode/truediv_recip","op":"Const"},{"input":[],"attr":{"value":{"tensor":{"floatVal":[],"doubleVal":[],"intVal":[],"stringVal":[],"scomplexVal":[],"int64Val":[],"boolVal":[],"uint32Val":[],"uint64Val":[],"dtype":1,"tensorShape":{"dim":[{"size":"1"},{"size":"9636"},{"size":"4"}]}}},"dtype":{"type":1}},"name":"Postprocessor/ExpandDims","op":"Const"},{"input":[],"attr":{"value":{"tensor":{"floatVal":[],"doubleVal":[],"intVal":[],"stringVal":[],"scomplexVal":[],"int64Val":[],"boolVal":[],"uint32Val":[],"uint64Val":[],"dtype":1,"tensorShape":{"dim":[]}}},"dtype":{"type":1}},"name":"ConstantFolding/Postprocessor/Decode/truediv_4_recip","op":"Const"},{"input":[],"attr":{"dtype":{"type":3},"value":{"tensor":{"floatVal":[],"doubleVal":[],"intVal":[],"stringVal":[],"scomplexVal":[],"int64Val":[],"boolVal":[],"uint32Val":[],"uint64Val":[],"dtype":3,"tensorShape":{"dim":[{"size":"2"}]}}}},"name":"Postprocessor/Reshape_1/shape","op":"Const"},{"input":[],"attr":{"value":{"tensor":{"floatVal":[],"doubleVal":[],"intVal":[],"stringVal":[],"scomplexVal":[],"int64Val":[],"boolVal":[],"uint32Val":[],"uint64Val":[],"dtype":1,"tensorShape":{"dim":[]}}},"dtype":{"type":1}},"name":"ConstantFolding/Postprocessor/Decode/truediv_2_recip","op":"Const"},{"input":[],"attr":{"dtype":{"type":1},"value":{"tensor":{"floatVal":[],"doubleVal":[],"intVal":[],"stringVal":[],"scomplexVal":[],"int64Val":[],"boolVal":[],"uint32Val":[],"uint64Val":[],"dtype":1,"tensorShape":{"dim":[{"size":"3"},{"size":"3"},{"size":"576"},{"size":"12"}]}}}},"name":"BoxPredictor_0/BoxEncodingPredictor/weights","op":"Const"},{"input":[],"attr":{"value":{"tensor":{"floatVal":[],"doubleVal":[],"intVal":[],"stringVal":[],"scomplexVal":[],"int64Val":[],"boolVal":[],"uint32Val":[],"uint64Val":[],"dtype":1,"tensorShape":{"dim":[{"size":"12"}]}}},"dtype":{"type":1}},"name":"BoxPredictor_0/BoxEncodingPredictor/biases","op":"Const"},{"input":[],"attr":{"value":{"tensor":{"floatVal":[],"doubleVal":[],"intVal":[],"stringVal":[],"scomplexVal":[],"int64Val":[],"boolVal":[],"uint32Val":[],"uint64Val":[],"dtype":1,"tensorShape":{"dim":[{"size":"3"},{"size":"3"},{"size":"1024"},{"size":"24"}]}}},"dtype":{"type":1}},"name":"BoxPredictor_1/BoxEncodingPredictor/weights","op":"Const"},{"input":[],"attr":{"value":{"tensor":{"floatVal":[],"doubleVal":[],"intVal":[],"stringVal":[],"scomplexVal":[],"int64Val":[],"boolVal":[],"uint32Val":[],"uint64Val":[],"dtype":1,"tensorShape":{"dim":[{"size":"24"}]}}},"dtype":{"type":1}},"name":"BoxPredictor_1/BoxEncodingPredictor/biases","op":"Const"},{"input":[],"attr":{"value":{"tensor":{"floatVal":[],"doubleVal":[],"intVal":[],"stringVal":[],"scomplexVal":[],"int64Val":[],"boolVal":[],"uint32Val":[],"uint64Val":[],"dtype":1,"tensorShape":{"dim":[{"size":"3"},{"size":"3"},{"size":"512"},{"size":"24"}]}}},"dtype":{"type":1}},"name":"BoxPredictor_2/BoxEncodingPredictor/weights","op":"Const"},{"input":[],"attr":{"value":{"tensor":{"floatVal":[],"doubleVal":[],"intVal":[],"stringVal":[],"scomplexVal":[],"int64Val":[],"boolVal":[],"uint32Val":[],"uint64Val":[],"dtype":1,"tensorShape":{"dim":[{"size":"24"}]}}},"dtype":{"type":1}},"name":"BoxPredictor_2/BoxEncodingPredictor/biases","op":"Const"},{"input":[],"attr":{"value":{"tensor":{"floatVal":[],"doubleVal":[],"intVal":[],"stringVal":[],"scomplexVal":[],"int64Val":[],"boolVal":[],"uint32Val":[],"uint64Val":[],"dtype":1,"tensorShape":{"dim":[{"size":"3"},{"size":"3"},{"size":"256"},{"size":"24"}]}}},"dtype":{"type":1}},"name":"BoxPredictor_3/BoxEncodingPredictor/weights","op":"Const"},{"input":[],"attr":{"value":{"tensor":{"floatVal":[],"doubleVal":[],"intVal":[],"stringVal":[],"scomplexVal":[],"int64Val":[],"boolVal":[],"uint32Val":[],"uint64Val":[],"dtype":1,"tensorShape":{"dim":[{"size":"24"}]}}},"dtype":{"type":1}},"name":"BoxPredictor_3/BoxEncodingPredictor/biases","op":"Const"},{"input":[],"attr":{"value":{"tensor":{"floatVal":[],"doubleVal":[],"intVal":[],"stringVal":[],"scomplexVal":[],"int64Val":[],"boolVal":[],"uint32Val":[],"uint64Val":[],"dtype":1,"tensorShape":{"dim":[{"size":"3"},{"size":"3"},{"size":"256"},{"size":"24"}]}}},"dtype":{"type":1}},"name":"BoxPredictor_4/BoxEncodingPredictor/weights","op":"Const"},{"input":[],"attr":{"dtype":{"type":1},"value":{"tensor":{"floatVal":[],"doubleVal":[],"intVal":[],"stringVal":[],"scomplexVal":[],"int64Val":[],"boolVal":[],"uint32Val":[],"uint64Val":[],"dtype":1,"tensorShape":{"dim":[{"size":"24"}]}}}},"name":"BoxPredictor_4/BoxEncodingPredictor/biases","op":"Const"},{"input":[],"attr":{"value":{"tensor":{"floatVal":[],"doubleVal":[],"intVal":[],"stringVal":[],"scomplexVal":[],"int64Val":[],"boolVal":[],"uint32Val":[],"uint64Val":[],"dtype":1,"tensorShape":{"dim":[{"size":"3"},{"size":"3"},{"size":"128"},{"size":"24"}]}}},"dtype":{"type":1}},"name":"BoxPredictor_5/BoxEncodingPredictor/weights","op":"Const"},{"input":[],"attr":{"value":{"tensor":{"floatVal":[],"doubleVal":[],"intVal":[],"stringVal":[],"scomplexVal":[],"int64Val":[],"boolVal":[],"uint32Val":[],"uint64Val":[],"dtype":1,"tensorShape":{"dim":[{"size":"24"}]}}},"dtype":{"type":1}},"name":"BoxPredictor_5/BoxEncodingPredictor/biases","op":"Const"},{"input":[],"attr":{"value":{"tensor":{"floatVal":[],"doubleVal":[],"intVal":[],"stringVal":[],"scomplexVal":[],"int64Val":[],"boolVal":[],"uint32Val":[],"uint64Val":[],"dtype":1,"tensorShape":{"dim":[{"size":"1"},{"size":"1"},{"size":"1024"},{"size":"352"}]}}},"dtype":{"type":1}},"name":"FeatureExtractor/InceptionV2/InceptionV2/Mixed_5c/Branch_0/Conv2d_0a_1x1/Conv2D/merged_input","op":"Const"},{"input":[],"attr":{"value":{"tensor":{"floatVal":[],"doubleVal":[],"intVal":[],"stringVal":[],"scomplexVal":[],"int64Val":[],"boolVal":[],"uint32Val":[],"uint64Val":[],"dtype":1,"tensorShape":{"dim":[{"size":"352"}]}}},"dtype":{"type":1}},"name":"FeatureExtractor/InceptionV2/InceptionV2/Mixed_5c/Branch_0/Conv2d_0a_1x1/BatchNorm/FusedBatchNorm/Offset","op":"Const"},{"input":[],"attr":{"value":{"tensor":{"floatVal":[],"doubleVal":[],"intVal":[],"stringVal":[],"scomplexVal":[],"int64Val":[],"boolVal":[],"uint32Val":[],"uint64Val":[],"dtype":1,"tensorShape":{"dim":[{"size":"1"},{"size":"1"},{"size":"1024"},{"size":"192"}]}}},"dtype":{"type":1}},"name":"FeatureExtractor/InceptionV2/InceptionV2/Mixed_5c/Branch_1/Conv2d_0a_1x1/Conv2D/merged_input","op":"Const"},{"input":[],"attr":{"value":{"tensor":{"floatVal":[],"doubleVal":[],"intVal":[],"stringVal":[],"scomplexVal":[],"int64Val":[],"boolVal":[],"uint32Val":[],"uint64Val":[],"dtype":1,"tensorShape":{"dim":[{"size":"192"}]}}},"dtype":{"type":1}},"name":"FeatureExtractor/InceptionV2/InceptionV2/Mixed_5c/Branch_1/Conv2d_0a_1x1/BatchNorm/FusedBatchNorm/Offset","op":"Const"},{"input":[],"attr":{"value":{"tensor":{"floatVal":[],"doubleVal":[],"intVal":[],"stringVal":[],"scomplexVal":[],"int64Val":[],"boolVal":[],"uint32Val":[],"uint64Val":[],"dtype":1,"tensorShape":{"dim":[{"size":"3"},{"size":"3"},{"size":"192"},{"size":"320"}]}}},"dtype":{"type":1}},"name":"FeatureExtractor/InceptionV2/InceptionV2/Mixed_5c/Branch_1/Conv2d_0b_3x3/Conv2D/merged_input","op":"Const"},{"input":[],"attr":{"value":{"tensor":{"floatVal":[],"doubleVal":[],"intVal":[],"stringVal":[],"scomplexVal":[],"int64Val":[],"boolVal":[],"uint32Val":[],"uint64Val":[],"dtype":1,"tensorShape":{"dim":[{"size":"320"}]}}},"dtype":{"type":1}},"name":"FeatureExtractor/InceptionV2/InceptionV2/Mixed_5c/Branch_1/Conv2d_0b_3x3/BatchNorm/FusedBatchNorm/Offset","op":"Const"},{"input":[],"attr":{"dtype":{"type":1},"value":{"tensor":{"floatVal":[],"doubleVal":[],"intVal":[],"stringVal":[],"scomplexVal":[],"int64Val":[],"boolVal":[],"uint32Val":[],"uint64Val":[],"dtype":1,"tensorShape":{"dim":[{"size":"1"},{"size":"1"},{"size":"1024"},{"size":"192"}]}}}},"name":"FeatureExtractor/InceptionV2/InceptionV2/Mixed_5c/Branch_2/Conv2d_0a_1x1/Conv2D/merged_input","op":"Const"},{"input":[],"attr":{"value":{"tensor":{"floatVal":[],"doubleVal":[],"intVal":[],"stringVal":[],"scomplexVal":[],"int64Val":[],"boolVal":[],"uint32Val":[],"uint64Val":[],"dtype":1,"tensorShape":{"dim":[{"size":"192"}]}}},"dtype":{"type":1}},"name":"FeatureExtractor/InceptionV2/InceptionV2/Mixed_5c/Branch_2/Conv2d_0a_1x1/BatchNorm/FusedBatchNorm/Offset","op":"Const"},{"input":[],"attr":{"value":{"tensor":{"floatVal":[],"doubleVal":[],"intVal":[],"stringVal":[],"scomplexVal":[],"int64Val":[],"boolVal":[],"uint32Val":[],"uint64Val":[],"dtype":1,"tensorShape":{"dim":[{"size":"3"},{"size":"3"},{"size":"192"},{"size":"224"}]}}},"dtype":{"type":1}},"name":"FeatureExtractor/InceptionV2/InceptionV2/Mixed_5c/Branch_2/Conv2d_0b_3x3/Conv2D/merged_input","op":"Const"},{"input":[],"attr":{"value":{"tensor":{"floatVal":[],"doubleVal":[],"intVal":[],"stringVal":[],"scomplexVal":[],"int64Val":[],"boolVal":[],"uint32Val":[],"uint64Val":[],"dtype":1,"tensorShape":{"dim":[{"size":"224"}]}}},"dtype":{"type":1}},"name":"FeatureExtractor/InceptionV2/InceptionV2/Mixed_5c/Branch_2/Conv2d_0b_3x3/BatchNorm/FusedBatchNorm/Offset","op":"Const"},{"input":[],"attr":{"value":{"tensor":{"floatVal":[],"doubleVal":[],"intVal":[],"stringVal":[],"scomplexVal":[],"int64Val":[],"boolVal":[],"uint32Val":[],"uint64Val":[],"dtype":1,"tensorShape":{"dim":[{"size":"3"},{"size":"3"},{"size":"224"},{"size":"224"}]}}},"dtype":{"type":1}},"name":"FeatureExtractor/InceptionV2/InceptionV2/Mixed_5c/Branch_2/Conv2d_0c_3x3/Conv2D/merged_input","op":"Const"},{"input":[],"attr":{"value":{"tensor":{"floatVal":[],"doubleVal":[],"intVal":[],"stringVal":[],"scomplexVal":[],"int64Val":[],"boolVal":[],"uint32Val":[],"uint64Val":[],"dtype":1,"tensorShape":{"dim":[{"size":"224"}]}}},"dtype":{"type":1}},"name":"FeatureExtractor/InceptionV2/InceptionV2/Mixed_5c/Branch_2/Conv2d_0c_3x3/BatchNorm/FusedBatchNorm/Offset","op":"Const"},{"input":[],"attr":{"value":{"tensor":{"floatVal":[],"doubleVal":[],"intVal":[],"stringVal":[],"scomplexVal":[],"int64Val":[],"boolVal":[],"uint32Val":[],"uint64Val":[],"dtype":1,"tensorShape":{"dim":[{"size":"1"},{"size":"1"},{"size":"1024"},{"size":"352"}]}}},"dtype":{"type":1}},"name":"FeatureExtractor/InceptionV2/InceptionV2/Mixed_5b/Branch_0/Conv2d_0a_1x1/Conv2D/merged_input","op":"Const"},{"input":[],"attr":{"dtype":{"type":1},"value":{"tensor":{"floatVal":[],"doubleVal":[],"intVal":[],"stringVal":[],"scomplexVal":[],"int64Val":[],"boolVal":[],"uint32Val":[],"uint64Val":[],"dtype":1,"tensorShape":{"dim":[{"size":"352"}]}}}},"name":"FeatureExtractor/InceptionV2/InceptionV2/Mixed_5b/Branch_0/Conv2d_0a_1x1/BatchNorm/FusedBatchNorm/Offset","op":"Const"},{"input":[],"attr":{"value":{"tensor":{"floatVal":[],"doubleVal":[],"intVal":[],"stringVal":[],"scomplexVal":[],"int64Val":[],"boolVal":[],"uint32Val":[],"uint64Val":[],"dtype":1,"tensorShape":{"dim":[{"size":"1"},{"size":"1"},{"size":"1024"},{"size":"192"}]}}},"dtype":{"type":1}},"name":"FeatureExtractor/InceptionV2/InceptionV2/Mixed_5b/Branch_1/Conv2d_0a_1x1/Conv2D/merged_input","op":"Const"},{"input":[],"attr":{"value":{"tensor":{"floatVal":[],"doubleVal":[],"intVal":[],"stringVal":[],"scomplexVal":[],"int64Val":[],"boolVal":[],"uint32Val":[],"uint64Val":[],"dtype":1,"tensorShape":{"dim":[{"size":"192"}]}}},"dtype":{"type":1}},"name":"FeatureExtractor/InceptionV2/InceptionV2/Mixed_5b/Branch_1/Conv2d_0a_1x1/BatchNorm/FusedBatchNorm/Offset","op":"Const"},{"input":[],"attr":{"value":{"tensor":{"floatVal":[],"doubleVal":[],"intVal":[],"stringVal":[],"scomplexVal":[],"int64Val":[],"boolVal":[],"uint32Val":[],"uint64Val":[],"dtype":1,"tensorShape":{"dim":[{"size":"3"},{"size":"3"},{"size":"192"},{"size":"320"}]}}},"dtype":{"type":1}},"name":"FeatureExtractor/InceptionV2/InceptionV2/Mixed_5b/Branch_1/Conv2d_0b_3x3/Conv2D/merged_input","op":"Const"},{"input":[],"attr":{"value":{"tensor":{"floatVal":[],"doubleVal":[],"intVal":[],"stringVal":[],"scomplexVal":[],"int64Val":[],"boolVal":[],"uint32Val":[],"uint64Val":[],"dtype":1,"tensorShape":{"dim":[{"size":"320"}]}}},"dtype":{"type":1}},"name":"FeatureExtractor/InceptionV2/InceptionV2/Mixed_5b/Branch_1/Conv2d_0b_3x3/BatchNorm/FusedBatchNorm/Offset","op":"Const"},{"input":[],"attr":{"value":{"tensor":{"floatVal":[],"doubleVal":[],"intVal":[],"stringVal":[],"scomplexVal":[],"int64Val":[],"boolVal":[],"uint32Val":[],"uint64Val":[],"dtype":1,"tensorShape":{"dim":[{"size":"1"},{"size":"1"},{"size":"1024"},{"size":"160"}]}}},"dtype":{"type":1}},"name":"FeatureExtractor/InceptionV2/InceptionV2/Mixed_5b/Branch_2/Conv2d_0a_1x1/Conv2D/merged_input","op":"Const"},{"input":[],"attr":{"dtype":{"type":1},"value":{"tensor":{"floatVal":[],"doubleVal":[],"intVal":[],"stringVal":[],"scomplexVal":[],"int64Val":[],"boolVal":[],"uint32Val":[],"uint64Val":[],"dtype":1,"tensorShape":{"dim":[{"size":"160"}]}}}},"name":"FeatureExtractor/InceptionV2/InceptionV2/Mixed_5b/Branch_2/Conv2d_0a_1x1/BatchNorm/FusedBatchNorm/Offset","op":"Const"},{"input":[],"attr":{"value":{"tensor":{"floatVal":[],"doubleVal":[],"intVal":[],"stringVal":[],"scomplexVal":[],"int64Val":[],"boolVal":[],"uint32Val":[],"uint64Val":[],"dtype":1,"tensorShape":{"dim":[{"size":"3"},{"size":"3"},{"size":"160"},{"size":"224"}]}}},"dtype":{"type":1}},"name":"FeatureExtractor/InceptionV2/InceptionV2/Mixed_5b/Branch_2/Conv2d_0b_3x3/Conv2D/merged_input","op":"Const"},{"input":[],"attr":{"value":{"tensor":{"floatVal":[],"doubleVal":[],"intVal":[],"stringVal":[],"scomplexVal":[],"int64Val":[],"boolVal":[],"uint32Val":[],"uint64Val":[],"dtype":1,"tensorShape":{"dim":[{"size":"224"}]}}},"dtype":{"type":1}},"name":"FeatureExtractor/InceptionV2/InceptionV2/Mixed_5b/Branch_2/Conv2d_0b_3x3/BatchNorm/FusedBatchNorm/Offset","op":"Const"},{"input":[],"attr":{"value":{"tensor":{"floatVal":[],"doubleVal":[],"intVal":[],"stringVal":[],"scomplexVal":[],"int64Val":[],"boolVal":[],"uint32Val":[],"uint64Val":[],"dtype":1,"tensorShape":{"dim":[{"size":"3"},{"size":"3"},{"size":"224"},{"size":"224"}]}}},"dtype":{"type":1}},"name":"FeatureExtractor/InceptionV2/InceptionV2/Mixed_5b/Branch_2/Conv2d_0c_3x3/Conv2D/merged_input","op":"Const"},{"input":[],"attr":{"value":{"tensor":{"floatVal":[],"doubleVal":[],"intVal":[],"stringVal":[],"scomplexVal":[],"int64Val":[],"boolVal":[],"uint32Val":[],"uint64Val":[],"dtype":1,"tensorShape":{"dim":[{"size":"224"}]}}},"dtype":{"type":1}},"name":"FeatureExtractor/InceptionV2/InceptionV2/Mixed_5b/Branch_2/Conv2d_0c_3x3/BatchNorm/FusedBatchNorm/Offset","op":"Const"},{"input":[],"attr":{"value":{"tensor":{"floatVal":[],"doubleVal":[],"intVal":[],"stringVal":[],"scomplexVal":[],"int64Val":[],"boolVal":[],"uint32Val":[],"uint64Val":[],"dtype":1,"tensorShape":{"dim":[{"size":"1"},{"size":"1"},{"size":"576"},{"size":"128"}]}}},"dtype":{"type":1}},"name":"FeatureExtractor/InceptionV2/InceptionV2/Mixed_5a/Branch_0/Conv2d_0a_1x1/Conv2D/merged_input","op":"Const"},{"input":[],"attr":{"value":{"tensor":{"floatVal":[],"doubleVal":[],"intVal":[],"stringVal":[],"scomplexVal":[],"int64Val":[],"boolVal":[],"uint32Val":[],"uint64Val":[],"dtype":1,"tensorShape":{"dim":[{"size":"128"}]}}},"dtype":{"type":1}},"name":"FeatureExtractor/InceptionV2/InceptionV2/Mixed_5a/Branch_0/Conv2d_0a_1x1/BatchNorm/FusedBatchNorm/Offset","op":"Const"},{"input":[],"attr":{"value":{"tensor":{"floatVal":[],"doubleVal":[],"intVal":[],"stringVal":[],"scomplexVal":[],"int64Val":[],"boolVal":[],"uint32Val":[],"uint64Val":[],"dtype":1,"tensorShape":{"dim":[{"size":"3"},{"size":"3"},{"size":"128"},{"size":"192"}]}}},"dtype":{"type":1}},"name":"FeatureExtractor/InceptionV2/InceptionV2/Mixed_5a/Branch_0/Conv2d_1a_3x3/Conv2D/merged_input","op":"Const"},{"input":[],"attr":{"value":{"tensor":{"floatVal":[],"doubleVal":[],"intVal":[],"stringVal":[],"scomplexVal":[],"int64Val":[],"boolVal":[],"uint32Val":[],"uint64Val":[],"dtype":1,"tensorShape":{"dim":[{"size":"192"}]}}},"dtype":{"type":1}},"name":"FeatureExtractor/InceptionV2/InceptionV2/Mixed_5a/Branch_0/Conv2d_1a_3x3/BatchNorm/FusedBatchNorm/Offset","op":"Const"},{"input":[],"attr":{"value":{"tensor":{"floatVal":[],"doubleVal":[],"intVal":[],"stringVal":[],"scomplexVal":[],"int64Val":[],"boolVal":[],"uint32Val":[],"uint64Val":[],"dtype":1,"tensorShape":{"dim":[{"size":"1"},{"size":"1"},{"size":"576"},{"size":"192"}]}}},"dtype":{"type":1}},"name":"FeatureExtractor/InceptionV2/InceptionV2/Mixed_5a/Branch_1/Conv2d_0a_1x1/Conv2D/merged_input","op":"Const"},{"input":[],"attr":{"value":{"tensor":{"floatVal":[],"doubleVal":[],"intVal":[],"stringVal":[],"scomplexVal":[],"int64Val":[],"boolVal":[],"uint32Val":[],"uint64Val":[],"dtype":1,"tensorShape":{"dim":[{"size":"192"}]}}},"dtype":{"type":1}},"name":"FeatureExtractor/InceptionV2/InceptionV2/Mixed_5a/Branch_1/Conv2d_0a_1x1/BatchNorm/FusedBatchNorm/Offset","op":"Const"},{"input":[],"attr":{"value":{"tensor":{"floatVal":[],"doubleVal":[],"intVal":[],"stringVal":[],"scomplexVal":[],"int64Val":[],"boolVal":[],"uint32Val":[],"uint64Val":[],"dtype":1,"tensorShape":{"dim":[{"size":"3"},{"size":"3"},{"size":"192"},{"size":"256"}]}}},"dtype":{"type":1}},"name":"FeatureExtractor/InceptionV2/InceptionV2/Mixed_5a/Branch_1/Conv2d_0b_3x3/Conv2D/merged_input","op":"Const"},{"input":[],"attr":{"value":{"tensor":{"floatVal":[],"doubleVal":[],"intVal":[],"stringVal":[],"scomplexVal":[],"int64Val":[],"boolVal":[],"uint32Val":[],"uint64Val":[],"dtype":1,"tensorShape":{"dim":[{"size":"256"}]}}},"dtype":{"type":1}},"name":"FeatureExtractor/InceptionV2/InceptionV2/Mixed_5a/Branch_1/Conv2d_0b_3x3/BatchNorm/FusedBatchNorm/Offset","op":"Const"},{"input":[],"attr":{"value":{"tensor":{"floatVal":[],"doubleVal":[],"intVal":[],"stringVal":[],"scomplexVal":[],"int64Val":[],"boolVal":[],"uint32Val":[],"uint64Val":[],"dtype":1,"tensorShape":{"dim":[{"size":"3"},{"size":"3"},{"size":"256"},{"size":"256"}]}}},"dtype":{"type":1}},"name":"FeatureExtractor/InceptionV2/InceptionV2/Mixed_5a/Branch_1/Conv2d_1a_3x3/Conv2D/merged_input","op":"Const"},{"input":[],"attr":{"dtype":{"type":1},"value":{"tensor":{"floatVal":[],"doubleVal":[],"intVal":[],"stringVal":[],"scomplexVal":[],"int64Val":[],"boolVal":[],"uint32Val":[],"uint64Val":[],"dtype":1,"tensorShape":{"dim":[{"size":"256"}]}}}},"name":"FeatureExtractor/InceptionV2/InceptionV2/Mixed_5a/Branch_1/Conv2d_1a_3x3/BatchNorm/FusedBatchNorm/Offset","op":"Const"},{"input":[],"attr":{"value":{"tensor":{"floatVal":[],"doubleVal":[],"intVal":[],"stringVal":[],"scomplexVal":[],"int64Val":[],"boolVal":[],"uint32Val":[],"uint64Val":[],"dtype":1,"tensorShape":{"dim":[{"size":"1"},{"size":"1"},{"size":"576"},{"size":"96"}]}}},"dtype":{"type":1}},"name":"FeatureExtractor/InceptionV2/InceptionV2/Mixed_4e/Branch_0/Conv2d_0a_1x1/Conv2D/merged_input","op":"Const"},{"input":[],"attr":{"value":{"tensor":{"floatVal":[],"doubleVal":[],"intVal":[],"stringVal":[],"scomplexVal":[],"int64Val":[],"boolVal":[],"uint32Val":[],"uint64Val":[],"dtype":1,"tensorShape":{"dim":[{"size":"96"}]}}},"dtype":{"type":1}},"name":"FeatureExtractor/InceptionV2/InceptionV2/Mixed_4e/Branch_0/Conv2d_0a_1x1/BatchNorm/FusedBatchNorm/Offset","op":"Const"},{"input":[],"attr":{"value":{"tensor":{"floatVal":[],"doubleVal":[],"intVal":[],"stringVal":[],"scomplexVal":[],"int64Val":[],"boolVal":[],"uint32Val":[],"uint64Val":[],"dtype":1,"tensorShape":{"dim":[{"size":"1"},{"size":"1"},{"size":"576"},{"size":"128"}]}}},"dtype":{"type":1}},"name":"FeatureExtractor/InceptionV2/InceptionV2/Mixed_4e/Branch_1/Conv2d_0a_1x1/Conv2D/merged_input","op":"Const"},{"input":[],"attr":{"value":{"tensor":{"floatVal":[],"doubleVal":[],"intVal":[],"stringVal":[],"scomplexVal":[],"int64Val":[],"boolVal":[],"uint32Val":[],"uint64Val":[],"dtype":1,"tensorShape":{"dim":[{"size":"128"}]}}},"dtype":{"type":1}},"name":"FeatureExtractor/InceptionV2/InceptionV2/Mixed_4e/Branch_1/Conv2d_0a_1x1/BatchNorm/FusedBatchNorm/Offset","op":"Const"},{"input":[],"attr":{"value":{"tensor":{"floatVal":[],"doubleVal":[],"intVal":[],"stringVal":[],"scomplexVal":[],"int64Val":[],"boolVal":[],"uint32Val":[],"uint64Val":[],"dtype":1,"tensorShape":{"dim":[{"size":"3"},{"size":"3"},{"size":"128"},{"size":"192"}]}}},"dtype":{"type":1}},"name":"FeatureExtractor/InceptionV2/InceptionV2/Mixed_4e/Branch_1/Conv2d_0b_3x3/Conv2D/merged_input","op":"Const"},{"input":[],"attr":{"value":{"tensor":{"floatVal":[],"doubleVal":[],"intVal":[],"stringVal":[],"scomplexVal":[],"int64Val":[],"boolVal":[],"uint32Val":[],"uint64Val":[],"dtype":1,"tensorShape":{"dim":[{"size":"192"}]}}},"dtype":{"type":1}},"name":"FeatureExtractor/InceptionV2/InceptionV2/Mixed_4e/Branch_1/Conv2d_0b_3x3/BatchNorm/FusedBatchNorm/Offset","op":"Const"},{"input":[],"attr":{"value":{"tensor":{"floatVal":[],"doubleVal":[],"intVal":[],"stringVal":[],"scomplexVal":[],"int64Val":[],"boolVal":[],"uint32Val":[],"uint64Val":[],"dtype":1,"tensorShape":{"dim":[{"size":"1"},{"size":"1"},{"size":"576"},{"size":"160"}]}}},"dtype":{"type":1}},"name":"FeatureExtractor/InceptionV2/InceptionV2/Mixed_4e/Branch_2/Conv2d_0a_1x1/Conv2D/merged_input","op":"Const"},{"input":[],"attr":{"dtype":{"type":1},"value":{"tensor":{"floatVal":[],"doubleVal":[],"intVal":[],"stringVal":[],"scomplexVal":[],"int64Val":[],"boolVal":[],"uint32Val":[],"uint64Val":[],"dtype":1,"tensorShape":{"dim":[{"size":"160"}]}}}},"name":"FeatureExtractor/InceptionV2/InceptionV2/Mixed_4e/Branch_2/Conv2d_0a_1x1/BatchNorm/FusedBatchNorm/Offset","op":"Const"},{"input":[],"attr":{"value":{"tensor":{"floatVal":[],"doubleVal":[],"intVal":[],"stringVal":[],"scomplexVal":[],"int64Val":[],"boolVal":[],"uint32Val":[],"uint64Val":[],"dtype":1,"tensorShape":{"dim":[{"size":"3"},{"size":"3"},{"size":"160"},{"size":"192"}]}}},"dtype":{"type":1}},"name":"FeatureExtractor/InceptionV2/InceptionV2/Mixed_4e/Branch_2/Conv2d_0b_3x3/Conv2D/merged_input","op":"Const"},{"input":[],"attr":{"value":{"tensor":{"floatVal":[],"doubleVal":[],"intVal":[],"stringVal":[],"scomplexVal":[],"int64Val":[],"boolVal":[],"uint32Val":[],"uint64Val":[],"dtype":1,"tensorShape":{"dim":[{"size":"192"}]}}},"dtype":{"type":1}},"name":"FeatureExtractor/InceptionV2/InceptionV2/Mixed_4e/Branch_2/Conv2d_0b_3x3/BatchNorm/FusedBatchNorm/Offset","op":"Const"},{"input":[],"attr":{"value":{"tensor":{"floatVal":[],"doubleVal":[],"intVal":[],"stringVal":[],"scomplexVal":[],"int64Val":[],"boolVal":[],"uint32Val":[],"uint64Val":[],"dtype":1,"tensorShape":{"dim":[{"size":"3"},{"size":"3"},{"size":"192"},{"size":"192"}]}}},"dtype":{"type":1}},"name":"FeatureExtractor/InceptionV2/InceptionV2/Mixed_4e/Branch_2/Conv2d_0c_3x3/Conv2D/merged_input","op":"Const"},{"input":[],"attr":{"value":{"tensor":{"floatVal":[],"doubleVal":[],"intVal":[],"stringVal":[],"scomplexVal":[],"int64Val":[],"boolVal":[],"uint32Val":[],"uint64Val":[],"dtype":1,"tensorShape":{"dim":[{"size":"192"}]}}},"dtype":{"type":1}},"name":"FeatureExtractor/InceptionV2/InceptionV2/Mixed_4e/Branch_2/Conv2d_0c_3x3/BatchNorm/FusedBatchNorm/Offset","op":"Const"},{"input":[],"attr":{"value":{"tensor":{"floatVal":[],"doubleVal":[],"intVal":[],"stringVal":[],"scomplexVal":[],"int64Val":[],"boolVal":[],"uint32Val":[],"uint64Val":[],"dtype":1,"tensorShape":{"dim":[{"size":"1"},{"size":"1"},{"size":"576"},{"size":"160"}]}}},"dtype":{"type":1}},"name":"FeatureExtractor/InceptionV2/InceptionV2/Mixed_4d/Branch_0/Conv2d_0a_1x1/Conv2D/merged_input","op":"Const"},{"input":[],"attr":{"value":{"tensor":{"floatVal":[],"doubleVal":[],"intVal":[],"stringVal":[],"scomplexVal":[],"int64Val":[],"boolVal":[],"uint32Val":[],"uint64Val":[],"dtype":1,"tensorShape":{"dim":[{"size":"160"}]}}},"dtype":{"type":1}},"name":"FeatureExtractor/InceptionV2/InceptionV2/Mixed_4d/Branch_0/Conv2d_0a_1x1/BatchNorm/FusedBatchNorm/Offset","op":"Const"},{"input":[],"attr":{"value":{"tensor":{"floatVal":[],"doubleVal":[],"intVal":[],"stringVal":[],"scomplexVal":[],"int64Val":[],"boolVal":[],"uint32Val":[],"uint64Val":[],"dtype":1,"tensorShape":{"dim":[{"size":"1"},{"size":"1"},{"size":"576"},{"size":"128"}]}}},"dtype":{"type":1}},"name":"FeatureExtractor/InceptionV2/InceptionV2/Mixed_4d/Branch_1/Conv2d_0a_1x1/Conv2D/merged_input","op":"Const"},{"input":[],"attr":{"dtype":{"type":1},"value":{"tensor":{"floatVal":[],"doubleVal":[],"intVal":[],"stringVal":[],"scomplexVal":[],"int64Val":[],"boolVal":[],"uint32Val":[],"uint64Val":[],"dtype":1,"tensorShape":{"dim":[{"size":"128"}]}}}},"name":"FeatureExtractor/InceptionV2/InceptionV2/Mixed_4d/Branch_1/Conv2d_0a_1x1/BatchNorm/FusedBatchNorm/Offset","op":"Const"},{"input":[],"attr":{"value":{"tensor":{"floatVal":[],"doubleVal":[],"intVal":[],"stringVal":[],"scomplexVal":[],"int64Val":[],"boolVal":[],"uint32Val":[],"uint64Val":[],"dtype":1,"tensorShape":{"dim":[{"size":"3"},{"size":"3"},{"size":"128"},{"size":"160"}]}}},"dtype":{"type":1}},"name":"FeatureExtractor/InceptionV2/InceptionV2/Mixed_4d/Branch_1/Conv2d_0b_3x3/Conv2D/merged_input","op":"Const"},{"input":[],"attr":{"value":{"tensor":{"floatVal":[],"doubleVal":[],"intVal":[],"stringVal":[],"scomplexVal":[],"int64Val":[],"boolVal":[],"uint32Val":[],"uint64Val":[],"dtype":1,"tensorShape":{"dim":[{"size":"160"}]}}},"dtype":{"type":1}},"name":"FeatureExtractor/InceptionV2/InceptionV2/Mixed_4d/Branch_1/Conv2d_0b_3x3/BatchNorm/FusedBatchNorm/Offset","op":"Const"},{"input":[],"attr":{"value":{"tensor":{"floatVal":[],"doubleVal":[],"intVal":[],"stringVal":[],"scomplexVal":[],"int64Val":[],"boolVal":[],"uint32Val":[],"uint64Val":[],"dtype":1,"tensorShape":{"dim":[{"size":"1"},{"size":"1"},{"size":"576"},{"size":"128"}]}}},"dtype":{"type":1}},"name":"FeatureExtractor/InceptionV2/InceptionV2/Mixed_4d/Branch_2/Conv2d_0a_1x1/Conv2D/merged_input","op":"Const"},{"input":[],"attr":{"dtype":{"type":1},"value":{"tensor":{"floatVal":[],"doubleVal":[],"intVal":[],"stringVal":[],"scomplexVal":[],"int64Val":[],"boolVal":[],"uint32Val":[],"uint64Val":[],"dtype":1,"tensorShape":{"dim":[{"size":"128"}]}}}},"name":"FeatureExtractor/InceptionV2/InceptionV2/Mixed_4d/Branch_2/Conv2d_0a_1x1/BatchNorm/FusedBatchNorm/Offset","op":"Const"},{"input":[],"attr":{"value":{"tensor":{"floatVal":[],"doubleVal":[],"intVal":[],"stringVal":[],"scomplexVal":[],"int64Val":[],"boolVal":[],"uint32Val":[],"uint64Val":[],"dtype":1,"tensorShape":{"dim":[{"size":"3"},{"size":"3"},{"size":"128"},{"size":"160"}]}}},"dtype":{"type":1}},"name":"FeatureExtractor/InceptionV2/InceptionV2/Mixed_4d/Branch_2/Conv2d_0b_3x3/Conv2D/merged_input","op":"Const"},{"input":[],"attr":{"value":{"tensor":{"floatVal":[],"doubleVal":[],"intVal":[],"stringVal":[],"scomplexVal":[],"int64Val":[],"boolVal":[],"uint32Val":[],"uint64Val":[],"dtype":1,"tensorShape":{"dim":[{"size":"160"}]}}},"dtype":{"type":1}},"name":"FeatureExtractor/InceptionV2/InceptionV2/Mixed_4d/Branch_2/Conv2d_0b_3x3/BatchNorm/FusedBatchNorm/Offset","op":"Const"},{"input":[],"attr":{"value":{"tensor":{"floatVal":[],"doubleVal":[],"intVal":[],"stringVal":[],"scomplexVal":[],"int64Val":[],"boolVal":[],"uint32Val":[],"uint64Val":[],"dtype":1,"tensorShape":{"dim":[{"size":"3"},{"size":"3"},{"size":"160"},{"size":"160"}]}}},"dtype":{"type":1}},"name":"FeatureExtractor/InceptionV2/InceptionV2/Mixed_4d/Branch_2/Conv2d_0c_3x3/Conv2D/merged_input","op":"Const"},{"input":[],"attr":{"dtype":{"type":1},"value":{"tensor":{"floatVal":[],"doubleVal":[],"intVal":[],"stringVal":[],"scomplexVal":[],"int64Val":[],"boolVal":[],"uint32Val":[],"uint64Val":[],"dtype":1,"tensorShape":{"dim":[{"size":"160"}]}}}},"name":"FeatureExtractor/InceptionV2/InceptionV2/Mixed_4d/Branch_2/Conv2d_0c_3x3/BatchNorm/FusedBatchNorm/Offset","op":"Const"},{"input":[],"attr":{"value":{"tensor":{"floatVal":[],"doubleVal":[],"intVal":[],"stringVal":[],"scomplexVal":[],"int64Val":[],"boolVal":[],"uint32Val":[],"uint64Val":[],"dtype":1,"tensorShape":{"dim":[{"size":"1"},{"size":"1"},{"size":"576"},{"size":"192"}]}}},"dtype":{"type":1}},"name":"FeatureExtractor/InceptionV2/InceptionV2/Mixed_4c/Branch_0/Conv2d_0a_1x1/Conv2D/merged_input","op":"Const"},{"input":[],"attr":{"value":{"tensor":{"floatVal":[],"doubleVal":[],"intVal":[],"stringVal":[],"scomplexVal":[],"int64Val":[],"boolVal":[],"uint32Val":[],"uint64Val":[],"dtype":1,"tensorShape":{"dim":[{"size":"192"}]}}},"dtype":{"type":1}},"name":"FeatureExtractor/InceptionV2/InceptionV2/Mixed_4c/Branch_0/Conv2d_0a_1x1/BatchNorm/FusedBatchNorm/Offset","op":"Const"},{"input":[],"attr":{"value":{"tensor":{"floatVal":[],"doubleVal":[],"intVal":[],"stringVal":[],"scomplexVal":[],"int64Val":[],"boolVal":[],"uint32Val":[],"uint64Val":[],"dtype":1,"tensorShape":{"dim":[{"size":"1"},{"size":"1"},{"size":"576"},{"size":"96"}]}}},"dtype":{"type":1}},"name":"FeatureExtractor/InceptionV2/InceptionV2/Mixed_4c/Branch_1/Conv2d_0a_1x1/Conv2D/merged_input","op":"Const"},{"input":[],"attr":{"value":{"tensor":{"floatVal":[],"doubleVal":[],"intVal":[],"stringVal":[],"scomplexVal":[],"int64Val":[],"boolVal":[],"uint32Val":[],"uint64Val":[],"dtype":1,"tensorShape":{"dim":[{"size":"96"}]}}},"dtype":{"type":1}},"name":"FeatureExtractor/InceptionV2/InceptionV2/Mixed_4c/Branch_1/Conv2d_0a_1x1/BatchNorm/FusedBatchNorm/Offset","op":"Const"},{"input":[],"attr":{"value":{"tensor":{"floatVal":[],"doubleVal":[],"intVal":[],"stringVal":[],"scomplexVal":[],"int64Val":[],"boolVal":[],"uint32Val":[],"uint64Val":[],"dtype":1,"tensorShape":{"dim":[{"size":"3"},{"size":"3"},{"size":"96"},{"size":"128"}]}}},"dtype":{"type":1}},"name":"FeatureExtractor/InceptionV2/InceptionV2/Mixed_4c/Branch_1/Conv2d_0b_3x3/Conv2D/merged_input","op":"Const"},{"input":[],"attr":{"value":{"tensor":{"floatVal":[],"doubleVal":[],"intVal":[],"stringVal":[],"scomplexVal":[],"int64Val":[],"boolVal":[],"uint32Val":[],"uint64Val":[],"dtype":1,"tensorShape":{"dim":[{"size":"128"}]}}},"dtype":{"type":1}},"name":"FeatureExtractor/InceptionV2/InceptionV2/Mixed_4c/Branch_1/Conv2d_0b_3x3/BatchNorm/FusedBatchNorm/Offset","op":"Const"},{"input":[],"attr":{"value":{"tensor":{"floatVal":[],"doubleVal":[],"intVal":[],"stringVal":[],"scomplexVal":[],"int64Val":[],"boolVal":[],"uint32Val":[],"uint64Val":[],"dtype":1,"tensorShape":{"dim":[{"size":"1"},{"size":"1"},{"size":"576"},{"size":"96"}]}}},"dtype":{"type":1}},"name":"FeatureExtractor/InceptionV2/InceptionV2/Mixed_4c/Branch_2/Conv2d_0a_1x1/Conv2D/merged_input","op":"Const"},{"input":[],"attr":{"value":{"tensor":{"floatVal":[],"doubleVal":[],"intVal":[],"stringVal":[],"scomplexVal":[],"int64Val":[],"boolVal":[],"uint32Val":[],"uint64Val":[],"dtype":1,"tensorShape":{"dim":[{"size":"96"}]}}},"dtype":{"type":1}},"name":"FeatureExtractor/InceptionV2/InceptionV2/Mixed_4c/Branch_2/Conv2d_0a_1x1/BatchNorm/FusedBatchNorm/Offset","op":"Const"},{"input":[],"attr":{"value":{"tensor":{"floatVal":[],"doubleVal":[],"intVal":[],"stringVal":[],"scomplexVal":[],"int64Val":[],"boolVal":[],"uint32Val":[],"uint64Val":[],"dtype":1,"tensorShape":{"dim":[{"size":"3"},{"size":"3"},{"size":"96"},{"size":"128"}]}}},"dtype":{"type":1}},"name":"FeatureExtractor/InceptionV2/InceptionV2/Mixed_4c/Branch_2/Conv2d_0b_3x3/Conv2D/merged_input","op":"Const"},{"input":[],"attr":{"value":{"tensor":{"floatVal":[],"doubleVal":[],"intVal":[],"stringVal":[],"scomplexVal":[],"int64Val":[],"boolVal":[],"uint32Val":[],"uint64Val":[],"dtype":1,"tensorShape":{"dim":[{"size":"128"}]}}},"dtype":{"type":1}},"name":"FeatureExtractor/InceptionV2/InceptionV2/Mixed_4c/Branch_2/Conv2d_0b_3x3/BatchNorm/FusedBatchNorm/Offset","op":"Const"},{"input":[],"attr":{"value":{"tensor":{"floatVal":[],"doubleVal":[],"intVal":[],"stringVal":[],"scomplexVal":[],"int64Val":[],"boolVal":[],"uint32Val":[],"uint64Val":[],"dtype":1,"tensorShape":{"dim":[{"size":"3"},{"size":"3"},{"size":"128"},{"size":"128"}]}}},"dtype":{"type":1}},"name":"FeatureExtractor/InceptionV2/InceptionV2/Mixed_4c/Branch_2/Conv2d_0c_3x3/Conv2D/merged_input","op":"Const"},{"input":[],"attr":{"value":{"tensor":{"floatVal":[],"doubleVal":[],"intVal":[],"stringVal":[],"scomplexVal":[],"int64Val":[],"boolVal":[],"uint32Val":[],"uint64Val":[],"dtype":1,"tensorShape":{"dim":[{"size":"128"}]}}},"dtype":{"type":1}},"name":"FeatureExtractor/InceptionV2/InceptionV2/Mixed_4c/Branch_2/Conv2d_0c_3x3/BatchNorm/FusedBatchNorm/Offset","op":"Const"},{"input":[],"attr":{"value":{"tensor":{"floatVal":[],"doubleVal":[],"intVal":[],"stringVal":[],"scomplexVal":[],"int64Val":[],"boolVal":[],"uint32Val":[],"uint64Val":[],"dtype":1,"tensorShape":{"dim":[{"size":"1"},{"size":"1"},{"size":"576"},{"size":"224"}]}}},"dtype":{"type":1}},"name":"FeatureExtractor/InceptionV2/InceptionV2/Mixed_4b/Branch_0/Conv2d_0a_1x1/Conv2D/merged_input","op":"Const"},{"input":[],"attr":{"value":{"tensor":{"floatVal":[],"doubleVal":[],"intVal":[],"stringVal":[],"scomplexVal":[],"int64Val":[],"boolVal":[],"uint32Val":[],"uint64Val":[],"dtype":1,"tensorShape":{"dim":[{"size":"224"}]}}},"dtype":{"type":1}},"name":"FeatureExtractor/InceptionV2/InceptionV2/Mixed_4b/Branch_0/Conv2d_0a_1x1/BatchNorm/FusedBatchNorm/Offset","op":"Const"},{"input":[],"attr":{"dtype":{"type":1},"value":{"tensor":{"floatVal":[],"doubleVal":[],"intVal":[],"stringVal":[],"scomplexVal":[],"int64Val":[],"boolVal":[],"uint32Val":[],"uint64Val":[],"dtype":1,"tensorShape":{"dim":[{"size":"1"},{"size":"1"},{"size":"576"},{"size":"64"}]}}}},"name":"FeatureExtractor/InceptionV2/InceptionV2/Mixed_4b/Branch_1/Conv2d_0a_1x1/Conv2D/merged_input","op":"Const"},{"input":[],"attr":{"value":{"tensor":{"floatVal":[],"doubleVal":[],"intVal":[],"stringVal":[],"scomplexVal":[],"int64Val":[],"boolVal":[],"uint32Val":[],"uint64Val":[],"dtype":1,"tensorShape":{"dim":[{"size":"64"}]}}},"dtype":{"type":1}},"name":"FeatureExtractor/InceptionV2/InceptionV2/Mixed_4b/Branch_1/Conv2d_0a_1x1/BatchNorm/FusedBatchNorm/Offset","op":"Const"},{"input":[],"attr":{"value":{"tensor":{"floatVal":[],"doubleVal":[],"intVal":[],"stringVal":[],"scomplexVal":[],"int64Val":[],"boolVal":[],"uint32Val":[],"uint64Val":[],"dtype":1,"tensorShape":{"dim":[{"size":"3"},{"size":"3"},{"size":"64"},{"size":"96"}]}}},"dtype":{"type":1}},"name":"FeatureExtractor/InceptionV2/InceptionV2/Mixed_4b/Branch_1/Conv2d_0b_3x3/Conv2D/merged_input","op":"Const"},{"input":[],"attr":{"value":{"tensor":{"floatVal":[],"doubleVal":[],"intVal":[],"stringVal":[],"scomplexVal":[],"int64Val":[],"boolVal":[],"uint32Val":[],"uint64Val":[],"dtype":1,"tensorShape":{"dim":[{"size":"96"}]}}},"dtype":{"type":1}},"name":"FeatureExtractor/InceptionV2/InceptionV2/Mixed_4b/Branch_1/Conv2d_0b_3x3/BatchNorm/FusedBatchNorm/Offset","op":"Const"},{"input":[],"attr":{"value":{"tensor":{"floatVal":[],"doubleVal":[],"intVal":[],"stringVal":[],"scomplexVal":[],"int64Val":[],"boolVal":[],"uint32Val":[],"uint64Val":[],"dtype":1,"tensorShape":{"dim":[{"size":"1"},{"size":"1"},{"size":"576"},{"size":"96"}]}}},"dtype":{"type":1}},"name":"FeatureExtractor/InceptionV2/InceptionV2/Mixed_4b/Branch_2/Conv2d_0a_1x1/Conv2D/merged_input","op":"Const"},{"input":[],"attr":{"value":{"tensor":{"floatVal":[],"doubleVal":[],"intVal":[],"stringVal":[],"scomplexVal":[],"int64Val":[],"boolVal":[],"uint32Val":[],"uint64Val":[],"dtype":1,"tensorShape":{"dim":[{"size":"96"}]}}},"dtype":{"type":1}},"name":"FeatureExtractor/InceptionV2/InceptionV2/Mixed_4b/Branch_2/Conv2d_0a_1x1/BatchNorm/FusedBatchNorm/Offset","op":"Const"},{"input":[],"attr":{"value":{"tensor":{"floatVal":[],"doubleVal":[],"intVal":[],"stringVal":[],"scomplexVal":[],"int64Val":[],"boolVal":[],"uint32Val":[],"uint64Val":[],"dtype":1,"tensorShape":{"dim":[{"size":"3"},{"size":"3"},{"size":"96"},{"size":"128"}]}}},"dtype":{"type":1}},"name":"FeatureExtractor/InceptionV2/InceptionV2/Mixed_4b/Branch_2/Conv2d_0b_3x3/Conv2D/merged_input","op":"Const"},{"input":[],"attr":{"value":{"tensor":{"floatVal":[],"doubleVal":[],"intVal":[],"stringVal":[],"scomplexVal":[],"int64Val":[],"boolVal":[],"uint32Val":[],"uint64Val":[],"dtype":1,"tensorShape":{"dim":[{"size":"128"}]}}},"dtype":{"type":1}},"name":"FeatureExtractor/InceptionV2/InceptionV2/Mixed_4b/Branch_2/Conv2d_0b_3x3/BatchNorm/FusedBatchNorm/Offset","op":"Const"},{"input":[],"attr":{"value":{"tensor":{"floatVal":[],"doubleVal":[],"intVal":[],"stringVal":[],"scomplexVal":[],"int64Val":[],"boolVal":[],"uint32Val":[],"uint64Val":[],"dtype":1,"tensorShape":{"dim":[{"size":"3"},{"size":"3"},{"size":"128"},{"size":"128"}]}}},"dtype":{"type":1}},"name":"FeatureExtractor/InceptionV2/InceptionV2/Mixed_4b/Branch_2/Conv2d_0c_3x3/Conv2D/merged_input","op":"Const"},{"input":[],"attr":{"value":{"tensor":{"floatVal":[],"doubleVal":[],"intVal":[],"stringVal":[],"scomplexVal":[],"int64Val":[],"boolVal":[],"uint32Val":[],"uint64Val":[],"dtype":1,"tensorShape":{"dim":[{"size":"128"}]}}},"dtype":{"type":1}},"name":"FeatureExtractor/InceptionV2/InceptionV2/Mixed_4b/Branch_2/Conv2d_0c_3x3/BatchNorm/FusedBatchNorm/Offset","op":"Const"},{"input":[],"attr":{"value":{"tensor":{"floatVal":[],"doubleVal":[],"intVal":[],"stringVal":[],"scomplexVal":[],"int64Val":[],"boolVal":[],"uint32Val":[],"uint64Val":[],"dtype":1,"tensorShape":{"dim":[{"size":"1"},{"size":"1"},{"size":"320"},{"size":"128"}]}}},"dtype":{"type":1}},"name":"FeatureExtractor/InceptionV2/InceptionV2/Mixed_4a/Branch_0/Conv2d_0a_1x1/Conv2D/merged_input","op":"Const"},{"input":[],"attr":{"value":{"tensor":{"floatVal":[],"doubleVal":[],"intVal":[],"stringVal":[],"scomplexVal":[],"int64Val":[],"boolVal":[],"uint32Val":[],"uint64Val":[],"dtype":1,"tensorShape":{"dim":[{"size":"128"}]}}},"dtype":{"type":1}},"name":"FeatureExtractor/InceptionV2/InceptionV2/Mixed_4a/Branch_0/Conv2d_0a_1x1/BatchNorm/FusedBatchNorm/Offset","op":"Const"},{"input":[],"attr":{"value":{"tensor":{"floatVal":[],"doubleVal":[],"intVal":[],"stringVal":[],"scomplexVal":[],"int64Val":[],"boolVal":[],"uint32Val":[],"uint64Val":[],"dtype":1,"tensorShape":{"dim":[{"size":"3"},{"size":"3"},{"size":"128"},{"size":"160"}]}}},"dtype":{"type":1}},"name":"FeatureExtractor/InceptionV2/InceptionV2/Mixed_4a/Branch_0/Conv2d_1a_3x3/Conv2D/merged_input","op":"Const"},{"input":[],"attr":{"value":{"tensor":{"floatVal":[],"doubleVal":[],"intVal":[],"stringVal":[],"scomplexVal":[],"int64Val":[],"boolVal":[],"uint32Val":[],"uint64Val":[],"dtype":1,"tensorShape":{"dim":[{"size":"160"}]}}},"dtype":{"type":1}},"name":"FeatureExtractor/InceptionV2/InceptionV2/Mixed_4a/Branch_0/Conv2d_1a_3x3/BatchNorm/FusedBatchNorm/Offset","op":"Const"},{"input":[],"attr":{"value":{"tensor":{"floatVal":[],"doubleVal":[],"intVal":[],"stringVal":[],"scomplexVal":[],"int64Val":[],"boolVal":[],"uint32Val":[],"uint64Val":[],"dtype":1,"tensorShape":{"dim":[{"size":"1"},{"size":"1"},{"size":"320"},{"size":"64"}]}}},"dtype":{"type":1}},"name":"FeatureExtractor/InceptionV2/InceptionV2/Mixed_4a/Branch_1/Conv2d_0a_1x1/Conv2D/merged_input","op":"Const"},{"input":[],"attr":{"value":{"tensor":{"floatVal":[],"doubleVal":[],"intVal":[],"stringVal":[],"scomplexVal":[],"int64Val":[],"boolVal":[],"uint32Val":[],"uint64Val":[],"dtype":1,"tensorShape":{"dim":[{"size":"64"}]}}},"dtype":{"type":1}},"name":"FeatureExtractor/InceptionV2/InceptionV2/Mixed_4a/Branch_1/Conv2d_0a_1x1/BatchNorm/FusedBatchNorm/Offset","op":"Const"},{"input":[],"attr":{"value":{"tensor":{"floatVal":[],"doubleVal":[],"intVal":[],"stringVal":[],"scomplexVal":[],"int64Val":[],"boolVal":[],"uint32Val":[],"uint64Val":[],"dtype":1,"tensorShape":{"dim":[{"size":"3"},{"size":"3"},{"size":"64"},{"size":"96"}]}}},"dtype":{"type":1}},"name":"FeatureExtractor/InceptionV2/InceptionV2/Mixed_4a/Branch_1/Conv2d_0b_3x3/Conv2D/merged_input","op":"Const"},{"input":[],"attr":{"value":{"tensor":{"floatVal":[],"doubleVal":[],"intVal":[],"stringVal":[],"scomplexVal":[],"int64Val":[],"boolVal":[],"uint32Val":[],"uint64Val":[],"dtype":1,"tensorShape":{"dim":[{"size":"96"}]}}},"dtype":{"type":1}},"name":"FeatureExtractor/InceptionV2/InceptionV2/Mixed_4a/Branch_1/Conv2d_0b_3x3/BatchNorm/FusedBatchNorm/Offset","op":"Const"},{"input":[],"attr":{"value":{"tensor":{"floatVal":[],"doubleVal":[],"intVal":[],"stringVal":[],"scomplexVal":[],"int64Val":[],"boolVal":[],"uint32Val":[],"uint64Val":[],"dtype":1,"tensorShape":{"dim":[{"size":"3"},{"size":"3"},{"size":"96"},{"size":"96"}]}}},"dtype":{"type":1}},"name":"FeatureExtractor/InceptionV2/InceptionV2/Mixed_4a/Branch_1/Conv2d_1a_3x3/Conv2D/merged_input","op":"Const"},{"input":[],"attr":{"value":{"tensor":{"floatVal":[],"doubleVal":[],"intVal":[],"stringVal":[],"scomplexVal":[],"int64Val":[],"boolVal":[],"uint32Val":[],"uint64Val":[],"dtype":1,"tensorShape":{"dim":[{"size":"96"}]}}},"dtype":{"type":1}},"name":"FeatureExtractor/InceptionV2/InceptionV2/Mixed_4a/Branch_1/Conv2d_1a_3x3/BatchNorm/FusedBatchNorm/Offset","op":"Const"},{"input":[],"attr":{"value":{"tensor":{"floatVal":[],"doubleVal":[],"intVal":[],"stringVal":[],"scomplexVal":[],"int64Val":[],"boolVal":[],"uint32Val":[],"uint64Val":[],"dtype":1,"tensorShape":{"dim":[{"size":"1"},{"size":"1"},{"size":"256"},{"size":"64"}]}}},"dtype":{"type":1}},"name":"FeatureExtractor/InceptionV2/InceptionV2/Mixed_3c/Branch_0/Conv2d_0a_1x1/Conv2D/merged_input","op":"Const"},{"input":[],"attr":{"value":{"tensor":{"floatVal":[],"doubleVal":[],"intVal":[],"stringVal":[],"scomplexVal":[],"int64Val":[],"boolVal":[],"uint32Val":[],"uint64Val":[],"dtype":1,"tensorShape":{"dim":[{"size":"64"}]}}},"dtype":{"type":1}},"name":"FeatureExtractor/InceptionV2/InceptionV2/Mixed_3c/Branch_0/Conv2d_0a_1x1/BatchNorm/FusedBatchNorm/Offset","op":"Const"},{"input":[],"attr":{"value":{"tensor":{"floatVal":[],"doubleVal":[],"intVal":[],"stringVal":[],"scomplexVal":[],"int64Val":[],"boolVal":[],"uint32Val":[],"uint64Val":[],"dtype":1,"tensorShape":{"dim":[{"size":"1"},{"size":"1"},{"size":"256"},{"size":"64"}]}}},"dtype":{"type":1}},"name":"FeatureExtractor/InceptionV2/InceptionV2/Mixed_3c/Branch_1/Conv2d_0a_1x1/Conv2D/merged_input","op":"Const"},{"input":[],"attr":{"value":{"tensor":{"floatVal":[],"doubleVal":[],"intVal":[],"stringVal":[],"scomplexVal":[],"int64Val":[],"boolVal":[],"uint32Val":[],"uint64Val":[],"dtype":1,"tensorShape":{"dim":[{"size":"64"}]}}},"dtype":{"type":1}},"name":"FeatureExtractor/InceptionV2/InceptionV2/Mixed_3c/Branch_1/Conv2d_0a_1x1/BatchNorm/FusedBatchNorm/Offset","op":"Const"},{"input":[],"attr":{"value":{"tensor":{"floatVal":[],"doubleVal":[],"intVal":[],"stringVal":[],"scomplexVal":[],"int64Val":[],"boolVal":[],"uint32Val":[],"uint64Val":[],"dtype":1,"tensorShape":{"dim":[{"size":"3"},{"size":"3"},{"size":"64"},{"size":"96"}]}}},"dtype":{"type":1}},"name":"FeatureExtractor/InceptionV2/InceptionV2/Mixed_3c/Branch_1/Conv2d_0b_3x3/Conv2D/merged_input","op":"Const"},{"input":[],"attr":{"value":{"tensor":{"floatVal":[],"doubleVal":[],"intVal":[],"stringVal":[],"scomplexVal":[],"int64Val":[],"boolVal":[],"uint32Val":[],"uint64Val":[],"dtype":1,"tensorShape":{"dim":[{"size":"96"}]}}},"dtype":{"type":1}},"name":"FeatureExtractor/InceptionV2/InceptionV2/Mixed_3c/Branch_1/Conv2d_0b_3x3/BatchNorm/FusedBatchNorm/Offset","op":"Const"},{"input":[],"attr":{"dtype":{"type":1},"value":{"tensor":{"floatVal":[],"doubleVal":[],"intVal":[],"stringVal":[],"scomplexVal":[],"int64Val":[],"boolVal":[],"uint32Val":[],"uint64Val":[],"dtype":1,"tensorShape":{"dim":[{"size":"1"},{"size":"1"},{"size":"256"},{"size":"64"}]}}}},"name":"FeatureExtractor/InceptionV2/InceptionV2/Mixed_3c/Branch_2/Conv2d_0a_1x1/Conv2D/merged_input","op":"Const"},{"input":[],"attr":{"dtype":{"type":1},"value":{"tensor":{"floatVal":[],"doubleVal":[],"intVal":[],"stringVal":[],"scomplexVal":[],"int64Val":[],"boolVal":[],"uint32Val":[],"uint64Val":[],"dtype":1,"tensorShape":{"dim":[{"size":"64"}]}}}},"name":"FeatureExtractor/InceptionV2/InceptionV2/Mixed_3c/Branch_2/Conv2d_0a_1x1/BatchNorm/FusedBatchNorm/Offset","op":"Const"},{"input":[],"attr":{"value":{"tensor":{"floatVal":[],"doubleVal":[],"intVal":[],"stringVal":[],"scomplexVal":[],"int64Val":[],"boolVal":[],"uint32Val":[],"uint64Val":[],"dtype":1,"tensorShape":{"dim":[{"size":"3"},{"size":"3"},{"size":"64"},{"size":"96"}]}}},"dtype":{"type":1}},"name":"FeatureExtractor/InceptionV2/InceptionV2/Mixed_3c/Branch_2/Conv2d_0b_3x3/Conv2D/merged_input","op":"Const"},{"input":[],"attr":{"value":{"tensor":{"floatVal":[],"doubleVal":[],"intVal":[],"stringVal":[],"scomplexVal":[],"int64Val":[],"boolVal":[],"uint32Val":[],"uint64Val":[],"dtype":1,"tensorShape":{"dim":[{"size":"96"}]}}},"dtype":{"type":1}},"name":"FeatureExtractor/InceptionV2/InceptionV2/Mixed_3c/Branch_2/Conv2d_0b_3x3/BatchNorm/FusedBatchNorm/Offset","op":"Const"},{"input":[],"attr":{"value":{"tensor":{"floatVal":[],"doubleVal":[],"intVal":[],"stringVal":[],"scomplexVal":[],"int64Val":[],"boolVal":[],"uint32Val":[],"uint64Val":[],"dtype":1,"tensorShape":{"dim":[{"size":"3"},{"size":"3"},{"size":"96"},{"size":"96"}]}}},"dtype":{"type":1}},"name":"FeatureExtractor/InceptionV2/InceptionV2/Mixed_3c/Branch_2/Conv2d_0c_3x3/Conv2D/merged_input","op":"Const"},{"input":[],"attr":{"value":{"tensor":{"floatVal":[],"doubleVal":[],"intVal":[],"stringVal":[],"scomplexVal":[],"int64Val":[],"boolVal":[],"uint32Val":[],"uint64Val":[],"dtype":1,"tensorShape":{"dim":[{"size":"96"}]}}},"dtype":{"type":1}},"name":"FeatureExtractor/InceptionV2/InceptionV2/Mixed_3c/Branch_2/Conv2d_0c_3x3/BatchNorm/FusedBatchNorm/Offset","op":"Const"},{"input":[],"attr":{"value":{"tensor":{"floatVal":[],"doubleVal":[],"intVal":[],"stringVal":[],"scomplexVal":[],"int64Val":[],"boolVal":[],"uint32Val":[],"uint64Val":[],"dtype":1,"tensorShape":{"dim":[{"size":"1"},{"size":"1"},{"size":"192"},{"size":"64"}]}}},"dtype":{"type":1}},"name":"FeatureExtractor/InceptionV2/InceptionV2/Mixed_3b/Branch_0/Conv2d_0a_1x1/Conv2D/merged_input","op":"Const"},{"input":[],"attr":{"value":{"tensor":{"floatVal":[],"doubleVal":[],"intVal":[],"stringVal":[],"scomplexVal":[],"int64Val":[],"boolVal":[],"uint32Val":[],"uint64Val":[],"dtype":1,"tensorShape":{"dim":[{"size":"64"}]}}},"dtype":{"type":1}},"name":"FeatureExtractor/InceptionV2/InceptionV2/Mixed_3b/Branch_0/Conv2d_0a_1x1/BatchNorm/FusedBatchNorm/Offset","op":"Const"},{"input":[],"attr":{"value":{"tensor":{"floatVal":[],"doubleVal":[],"intVal":[],"stringVal":[],"scomplexVal":[],"int64Val":[],"boolVal":[],"uint32Val":[],"uint64Val":[],"dtype":1,"tensorShape":{"dim":[{"size":"1"},{"size":"1"},{"size":"192"},{"size":"64"}]}}},"dtype":{"type":1}},"name":"FeatureExtractor/InceptionV2/InceptionV2/Mixed_3b/Branch_1/Conv2d_0a_1x1/Conv2D/merged_input","op":"Const"},{"input":[],"attr":{"value":{"tensor":{"floatVal":[],"doubleVal":[],"intVal":[],"stringVal":[],"scomplexVal":[],"int64Val":[],"boolVal":[],"uint32Val":[],"uint64Val":[],"dtype":1,"tensorShape":{"dim":[{"size":"64"}]}}},"dtype":{"type":1}},"name":"FeatureExtractor/InceptionV2/InceptionV2/Mixed_3b/Branch_1/Conv2d_0a_1x1/BatchNorm/FusedBatchNorm/Offset","op":"Const"},{"input":[],"attr":{"value":{"tensor":{"floatVal":[],"doubleVal":[],"intVal":[],"stringVal":[],"scomplexVal":[],"int64Val":[],"boolVal":[],"uint32Val":[],"uint64Val":[],"dtype":1,"tensorShape":{"dim":[{"size":"3"},{"size":"3"},{"size":"64"},{"size":"64"}]}}},"dtype":{"type":1}},"name":"FeatureExtractor/InceptionV2/InceptionV2/Mixed_3b/Branch_1/Conv2d_0b_3x3/Conv2D/merged_input","op":"Const"},{"input":[],"attr":{"value":{"tensor":{"floatVal":[],"doubleVal":[],"intVal":[],"stringVal":[],"scomplexVal":[],"int64Val":[],"boolVal":[],"uint32Val":[],"uint64Val":[],"dtype":1,"tensorShape":{"dim":[{"size":"64"}]}}},"dtype":{"type":1}},"name":"FeatureExtractor/InceptionV2/InceptionV2/Mixed_3b/Branch_1/Conv2d_0b_3x3/BatchNorm/FusedBatchNorm/Offset","op":"Const"},{"input":[],"attr":{"value":{"tensor":{"floatVal":[],"doubleVal":[],"intVal":[],"stringVal":[],"scomplexVal":[],"int64Val":[],"boolVal":[],"uint32Val":[],"uint64Val":[],"dtype":1,"tensorShape":{"dim":[{"size":"1"},{"size":"1"},{"size":"192"},{"size":"64"}]}}},"dtype":{"type":1}},"name":"FeatureExtractor/InceptionV2/InceptionV2/Mixed_3b/Branch_2/Conv2d_0a_1x1/Conv2D/merged_input","op":"Const"},{"input":[],"attr":{"value":{"tensor":{"floatVal":[],"doubleVal":[],"intVal":[],"stringVal":[],"scomplexVal":[],"int64Val":[],"boolVal":[],"uint32Val":[],"uint64Val":[],"dtype":1,"tensorShape":{"dim":[{"size":"64"}]}}},"dtype":{"type":1}},"name":"FeatureExtractor/InceptionV2/InceptionV2/Mixed_3b/Branch_2/Conv2d_0a_1x1/BatchNorm/FusedBatchNorm/Offset","op":"Const"},{"input":[],"attr":{"value":{"tensor":{"floatVal":[],"doubleVal":[],"intVal":[],"stringVal":[],"scomplexVal":[],"int64Val":[],"boolVal":[],"uint32Val":[],"uint64Val":[],"dtype":1,"tensorShape":{"dim":[{"size":"3"},{"size":"3"},{"size":"64"},{"size":"96"}]}}},"dtype":{"type":1}},"name":"FeatureExtractor/InceptionV2/InceptionV2/Mixed_3b/Branch_2/Conv2d_0b_3x3/Conv2D/merged_input","op":"Const"},{"input":[],"attr":{"value":{"tensor":{"floatVal":[],"doubleVal":[],"intVal":[],"stringVal":[],"scomplexVal":[],"int64Val":[],"boolVal":[],"uint32Val":[],"uint64Val":[],"dtype":1,"tensorShape":{"dim":[{"size":"96"}]}}},"dtype":{"type":1}},"name":"FeatureExtractor/InceptionV2/InceptionV2/Mixed_3b/Branch_2/Conv2d_0b_3x3/BatchNorm/FusedBatchNorm/Offset","op":"Const"},{"input":[],"attr":{"value":{"tensor":{"floatVal":[],"doubleVal":[],"intVal":[],"stringVal":[],"scomplexVal":[],"int64Val":[],"boolVal":[],"uint32Val":[],"uint64Val":[],"dtype":1,"tensorShape":{"dim":[{"size":"3"},{"size":"3"},{"size":"96"},{"size":"96"}]}}},"dtype":{"type":1}},"name":"FeatureExtractor/InceptionV2/InceptionV2/Mixed_3b/Branch_2/Conv2d_0c_3x3/Conv2D/merged_input","op":"Const"},{"input":[],"attr":{"value":{"tensor":{"floatVal":[],"doubleVal":[],"intVal":[],"stringVal":[],"scomplexVal":[],"int64Val":[],"boolVal":[],"uint32Val":[],"uint64Val":[],"dtype":1,"tensorShape":{"dim":[{"size":"96"}]}}},"dtype":{"type":1}},"name":"FeatureExtractor/InceptionV2/InceptionV2/Mixed_3b/Branch_2/Conv2d_0c_3x3/BatchNorm/FusedBatchNorm/Offset","op":"Const"},{"input":[],"attr":{"value":{"tensor":{"floatVal":[],"doubleVal":[],"intVal":[],"stringVal":[],"scomplexVal":[],"int64Val":[],"boolVal":[],"uint32Val":[],"uint64Val":[],"dtype":1,"tensorShape":{"dim":[]}}},"dtype":{"type":1}},"name":"Preprocessor/mul/x","op":"Const"},{"input":[],"attr":{"value":{"tensor":{"floatVal":[],"doubleVal":[],"intVal":[],"stringVal":[],"scomplexVal":[],"int64Val":[],"boolVal":[],"uint32Val":[],"uint64Val":[],"dtype":3,"tensorShape":{"dim":[]}}},"dtype":{"type":3}},"name":"Postprocessor/BatchMultiClassNonMaxSuppression/map/TensorArrayStack_4/range/start","op":"Const"},{"input":[],"attr":{"shape":{"shape":{"dim":[{"size":"-1"},{"size":"-1"},{"size":"-1"},{"size":"3"}]}},"dtype":{"type":4}},"name":"image_tensor","op":"Placeholder"},{"input":[],"attr":{"value":{"tensor":{"floatVal":[],"doubleVal":[],"intVal":[],"stringVal":[],"scomplexVal":[],"int64Val":[],"boolVal":[],"uint32Val":[],"uint64Val":[],"dtype":1,"tensorShape":{"dim":[]}}},"dtype":{"type":1}},"name":"Postprocessor/scale_logits/y","op":"Const"},{"input":[],"attr":{"value":{"tensor":{"floatVal":[],"doubleVal":[],"intVal":[],"stringVal":[],"scomplexVal":[],"int64Val":[],"boolVal":[],"uint32Val":[],"uint64Val":[],"dtype":1,"tensorShape":{"dim":[{"size":"7"},{"size":"7"},{"size":"3"},{"size":"8"}]}}},"dtype":{"type":1}},"name":"FeatureExtractor/InceptionV2/Conv2d_1a_7x7/depthwise_weights","op":"Const"},{"input":[],"attr":{"value":{"tensor":{"floatVal":[],"doubleVal":[],"intVal":[],"stringVal":[],"scomplexVal":[],"int64Val":[],"boolVal":[],"uint32Val":[],"uint64Val":[],"dtype":1,"tensorShape":{"dim":[{"size":"1"},{"size":"1"},{"size":"24"},{"size":"64"}]}}},"dtype":{"type":1}},"name":"FeatureExtractor/InceptionV2/InceptionV2/Conv2d_1a_7x7/separable_conv2d/merged_input","op":"Const"},{"input":[],"attr":{"value":{"tensor":{"floatVal":[],"doubleVal":[],"intVal":[],"stringVal":[],"scomplexVal":[],"int64Val":[],"boolVal":[],"uint32Val":[],"uint64Val":[],"dtype":1,"tensorShape":{"dim":[{"size":"64"}]}}},"dtype":{"type":1}},"name":"FeatureExtractor/InceptionV2/InceptionV2/Conv2d_1a_7x7/BatchNorm/FusedBatchNorm/Offset","op":"Const"},{"input":[],"attr":{"value":{"tensor":{"floatVal":[],"doubleVal":[],"intVal":[],"stringVal":[],"scomplexVal":[],"int64Val":[],"boolVal":[],"uint32Val":[],"uint64Val":[],"dtype":1,"tensorShape":{"dim":[{"size":"1"},{"size":"1"},{"size":"64"},{"size":"64"}]}}},"dtype":{"type":1}},"name":"FeatureExtractor/InceptionV2/InceptionV2/Conv2d_2b_1x1/Conv2D/merged_input","op":"Const"},{"input":[],"attr":{"value":{"tensor":{"floatVal":[],"doubleVal":[],"intVal":[],"stringVal":[],"scomplexVal":[],"int64Val":[],"boolVal":[],"uint32Val":[],"uint64Val":[],"dtype":1,"tensorShape":{"dim":[{"size":"64"}]}}},"dtype":{"type":1}},"name":"FeatureExtractor/InceptionV2/InceptionV2/Conv2d_2b_1x1/BatchNorm/FusedBatchNorm/Offset","op":"Const"},{"input":[],"attr":{"value":{"tensor":{"floatVal":[],"doubleVal":[],"intVal":[],"stringVal":[],"scomplexVal":[],"int64Val":[],"boolVal":[],"uint32Val":[],"uint64Val":[],"dtype":1,"tensorShape":{"dim":[{"size":"3"},{"size":"3"},{"size":"64"},{"size":"192"}]}}},"dtype":{"type":1}},"name":"FeatureExtractor/InceptionV2/InceptionV2/Conv2d_2c_3x3/Conv2D/merged_input","op":"Const"},{"input":[],"attr":{"value":{"tensor":{"floatVal":[],"doubleVal":[],"intVal":[],"stringVal":[],"scomplexVal":[],"int64Val":[],"boolVal":[],"uint32Val":[],"uint64Val":[],"dtype":1,"tensorShape":{"dim":[{"size":"192"}]}}},"dtype":{"type":1}},"name":"FeatureExtractor/InceptionV2/InceptionV2/Conv2d_2c_3x3/BatchNorm/FusedBatchNorm/Offset","op":"Const"},{"input":[],"attr":{"value":{"tensor":{"floatVal":[],"doubleVal":[],"intVal":[],"stringVal":[],"scomplexVal":[],"int64Val":[],"boolVal":[],"uint32Val":[],"uint64Val":[],"dtype":1,"tensorShape":{"dim":[{"size":"1"},{"size":"1"},{"size":"192"},{"size":"32"}]}}},"dtype":{"type":1}},"name":"FeatureExtractor/InceptionV2/InceptionV2/Mixed_3b/Branch_3/Conv2d_0b_1x1/Conv2D/merged_input","op":"Const"},{"input":[],"attr":{"value":{"tensor":{"floatVal":[],"doubleVal":[],"intVal":[],"stringVal":[],"scomplexVal":[],"int64Val":[],"boolVal":[],"uint32Val":[],"uint64Val":[],"dtype":1,"tensorShape":{"dim":[{"size":"32"}]}}},"dtype":{"type":1}},"name":"FeatureExtractor/InceptionV2/InceptionV2/Mixed_3b/Branch_3/Conv2d_0b_1x1/BatchNorm/FusedBatchNorm/Offset","op":"Const"},{"input":[],"attr":{"value":{"tensor":{"floatVal":[],"doubleVal":[],"intVal":[],"stringVal":[],"scomplexVal":[],"int64Val":[],"boolVal":[],"uint32Val":[],"uint64Val":[],"dtype":1,"tensorShape":{"dim":[{"size":"1"},{"size":"1"},{"size":"256"},{"size":"64"}]}}},"dtype":{"type":1}},"name":"FeatureExtractor/InceptionV2/InceptionV2/Mixed_3c/Branch_3/Conv2d_0b_1x1/Conv2D/merged_input","op":"Const"},{"input":[],"attr":{"value":{"tensor":{"floatVal":[],"doubleVal":[],"intVal":[],"stringVal":[],"scomplexVal":[],"int64Val":[],"boolVal":[],"uint32Val":[],"uint64Val":[],"dtype":1,"tensorShape":{"dim":[{"size":"64"}]}}},"dtype":{"type":1}},"name":"FeatureExtractor/InceptionV2/InceptionV2/Mixed_3c/Branch_3/Conv2d_0b_1x1/BatchNorm/FusedBatchNorm/Offset","op":"Const"},{"input":[],"attr":{"value":{"tensor":{"floatVal":[],"doubleVal":[],"intVal":[],"stringVal":[],"scomplexVal":[],"int64Val":[],"boolVal":[],"uint32Val":[],"uint64Val":[],"dtype":1,"tensorShape":{"dim":[{"size":"1"},{"size":"1"},{"size":"576"},{"size":"128"}]}}},"dtype":{"type":1}},"name":"FeatureExtractor/InceptionV2/InceptionV2/Mixed_4b/Branch_3/Conv2d_0b_1x1/Conv2D/merged_input","op":"Const"},{"input":[],"attr":{"value":{"tensor":{"floatVal":[],"doubleVal":[],"intVal":[],"stringVal":[],"scomplexVal":[],"int64Val":[],"boolVal":[],"uint32Val":[],"uint64Val":[],"dtype":1,"tensorShape":{"dim":[{"size":"128"}]}}},"dtype":{"type":1}},"name":"FeatureExtractor/InceptionV2/InceptionV2/Mixed_4b/Branch_3/Conv2d_0b_1x1/BatchNorm/FusedBatchNorm/Offset","op":"Const"},{"input":[],"attr":{"dtype":{"type":1},"value":{"tensor":{"floatVal":[],"doubleVal":[],"intVal":[],"stringVal":[],"scomplexVal":[],"int64Val":[],"boolVal":[],"uint32Val":[],"uint64Val":[],"dtype":1,"tensorShape":{"dim":[{"size":"1"},{"size":"1"},{"size":"576"},{"size":"128"}]}}}},"name":"FeatureExtractor/InceptionV2/InceptionV2/Mixed_4c/Branch_3/Conv2d_0b_1x1/Conv2D/merged_input","op":"Const"},{"input":[],"attr":{"value":{"tensor":{"floatVal":[],"doubleVal":[],"intVal":[],"stringVal":[],"scomplexVal":[],"int64Val":[],"boolVal":[],"uint32Val":[],"uint64Val":[],"dtype":1,"tensorShape":{"dim":[{"size":"128"}]}}},"dtype":{"type":1}},"name":"FeatureExtractor/InceptionV2/InceptionV2/Mixed_4c/Branch_3/Conv2d_0b_1x1/BatchNorm/FusedBatchNorm/Offset","op":"Const"},{"input":[],"attr":{"dtype":{"type":1},"value":{"tensor":{"floatVal":[],"doubleVal":[],"intVal":[],"stringVal":[],"scomplexVal":[],"int64Val":[],"boolVal":[],"uint32Val":[],"uint64Val":[],"dtype":1,"tensorShape":{"dim":[{"size":"1"},{"size":"1"},{"size":"576"},{"size":"96"}]}}}},"name":"FeatureExtractor/InceptionV2/InceptionV2/Mixed_4d/Branch_3/Conv2d_0b_1x1/Conv2D/merged_input","op":"Const"},{"input":[],"attr":{"value":{"tensor":{"floatVal":[],"doubleVal":[],"intVal":[],"stringVal":[],"scomplexVal":[],"int64Val":[],"boolVal":[],"uint32Val":[],"uint64Val":[],"dtype":1,"tensorShape":{"dim":[{"size":"96"}]}}},"dtype":{"type":1}},"name":"FeatureExtractor/InceptionV2/InceptionV2/Mixed_4d/Branch_3/Conv2d_0b_1x1/BatchNorm/FusedBatchNorm/Offset","op":"Const"},{"input":[],"attr":{"value":{"tensor":{"floatVal":[],"doubleVal":[],"intVal":[],"stringVal":[],"scomplexVal":[],"int64Val":[],"boolVal":[],"uint32Val":[],"uint64Val":[],"dtype":1,"tensorShape":{"dim":[{"size":"1"},{"size":"1"},{"size":"576"},{"size":"96"}]}}},"dtype":{"type":1}},"name":"FeatureExtractor/InceptionV2/InceptionV2/Mixed_4e/Branch_3/Conv2d_0b_1x1/Conv2D/merged_input","op":"Const"},{"input":[],"attr":{"value":{"tensor":{"floatVal":[],"doubleVal":[],"intVal":[],"stringVal":[],"scomplexVal":[],"int64Val":[],"boolVal":[],"uint32Val":[],"uint64Val":[],"dtype":1,"tensorShape":{"dim":[{"size":"96"}]}}},"dtype":{"type":1}},"name":"FeatureExtractor/InceptionV2/InceptionV2/Mixed_4e/Branch_3/Conv2d_0b_1x1/BatchNorm/FusedBatchNorm/Offset","op":"Const"},{"input":[],"attr":{"value":{"tensor":{"floatVal":[],"doubleVal":[],"intVal":[],"stringVal":[],"scomplexVal":[],"int64Val":[],"boolVal":[],"uint32Val":[],"uint64Val":[],"dtype":1,"tensorShape":{"dim":[{"size":"1"},{"size":"1"},{"size":"1024"},{"size":"128"}]}}},"dtype":{"type":1}},"name":"FeatureExtractor/InceptionV2/InceptionV2/Mixed_5b/Branch_3/Conv2d_0b_1x1/Conv2D/merged_input","op":"Const"},{"input":[],"attr":{"value":{"tensor":{"floatVal":[],"doubleVal":[],"intVal":[],"stringVal":[],"scomplexVal":[],"int64Val":[],"boolVal":[],"uint32Val":[],"uint64Val":[],"dtype":1,"tensorShape":{"dim":[{"size":"128"}]}}},"dtype":{"type":1}},"name":"FeatureExtractor/InceptionV2/InceptionV2/Mixed_5b/Branch_3/Conv2d_0b_1x1/BatchNorm/FusedBatchNorm/Offset","op":"Const"},{"input":[],"attr":{"value":{"tensor":{"floatVal":[],"doubleVal":[],"intVal":[],"stringVal":[],"scomplexVal":[],"int64Val":[],"boolVal":[],"uint32Val":[],"uint64Val":[],"dtype":1,"tensorShape":{"dim":[{"size":"1"},{"size":"1"},{"size":"1024"},{"size":"128"}]}}},"dtype":{"type":1}},"name":"FeatureExtractor/InceptionV2/InceptionV2/Mixed_5c/Branch_3/Conv2d_0b_1x1/Conv2D/merged_input","op":"Const"},{"input":[],"attr":{"value":{"tensor":{"floatVal":[],"doubleVal":[],"intVal":[],"stringVal":[],"scomplexVal":[],"int64Val":[],"boolVal":[],"uint32Val":[],"uint64Val":[],"dtype":1,"tensorShape":{"dim":[{"size":"128"}]}}},"dtype":{"type":1}},"name":"FeatureExtractor/InceptionV2/InceptionV2/Mixed_5c/Branch_3/Conv2d_0b_1x1/BatchNorm/FusedBatchNorm/Offset","op":"Const"},{"input":[],"attr":{"value":{"tensor":{"floatVal":[],"doubleVal":[],"intVal":[],"stringVal":[],"scomplexVal":[],"int64Val":[],"boolVal":[],"uint32Val":[],"uint64Val":[],"dtype":3,"tensorShape":{"dim":[]}}},"dtype":{"type":3}},"name":"FeatureExtractor/InceptionV2/InceptionV2/Mixed_3b/concat/axis","op":"Const"},{"input":[],"attr":{"dtype":{"type":1},"value":{"tensor":{"floatVal":[],"doubleVal":[],"intVal":[],"stringVal":[],"scomplexVal":[],"int64Val":[],"boolVal":[],"uint32Val":[],"uint64Val":[],"dtype":1,"tensorShape":{"dim":[{"size":"1"},{"size":"1"},{"size":"1024"},{"size":"256"}]}}}},"name":"FeatureExtractor/InceptionV2/Mixed_5c_1_Conv2d_2_1x1_256/Conv2D/merged_input","op":"Const"},{"input":[],"attr":{"value":{"tensor":{"floatVal":[],"doubleVal":[],"intVal":[],"stringVal":[],"scomplexVal":[],"int64Val":[],"boolVal":[],"uint32Val":[],"uint64Val":[],"dtype":1,"tensorShape":{"dim":[{"size":"256"}]}}},"dtype":{"type":1}},"name":"FeatureExtractor/InceptionV2/Mixed_5c_1_Conv2d_2_1x1_256/BatchNorm/FusedBatchNorm/Offset","op":"Const"},{"input":[],"attr":{"value":{"tensor":{"floatVal":[],"doubleVal":[],"intVal":[],"stringVal":[],"scomplexVal":[],"int64Val":[],"boolVal":[],"uint32Val":[],"uint64Val":[],"dtype":1,"tensorShape":{"dim":[{"size":"3"},{"size":"3"},{"size":"256"},{"size":"512"}]}}},"dtype":{"type":1}},"name":"FeatureExtractor/InceptionV2/Mixed_5c_2_Conv2d_2_3x3_s2_512/Conv2D/merged_input","op":"Const"},{"input":[],"attr":{"value":{"tensor":{"floatVal":[],"doubleVal":[],"intVal":[],"stringVal":[],"scomplexVal":[],"int64Val":[],"boolVal":[],"uint32Val":[],"uint64Val":[],"dtype":1,"tensorShape":{"dim":[{"size":"512"}]}}},"dtype":{"type":1}},"name":"FeatureExtractor/InceptionV2/Mixed_5c_2_Conv2d_2_3x3_s2_512/BatchNorm/FusedBatchNorm/Offset","op":"Const"},{"input":[],"attr":{"dtype":{"type":1},"value":{"tensor":{"floatVal":[],"doubleVal":[],"intVal":[],"stringVal":[],"scomplexVal":[],"int64Val":[],"boolVal":[],"uint32Val":[],"uint64Val":[],"dtype":1,"tensorShape":{"dim":[{"size":"1"},{"size":"1"},{"size":"512"},{"size":"128"}]}}}},"name":"FeatureExtractor/InceptionV2/Mixed_5c_1_Conv2d_3_1x1_128/Conv2D/merged_input","op":"Const"},{"input":[],"attr":{"value":{"tensor":{"floatVal":[],"doubleVal":[],"intVal":[],"stringVal":[],"scomplexVal":[],"int64Val":[],"boolVal":[],"uint32Val":[],"uint64Val":[],"dtype":1,"tensorShape":{"dim":[{"size":"128"}]}}},"dtype":{"type":1}},"name":"FeatureExtractor/InceptionV2/Mixed_5c_1_Conv2d_3_1x1_128/BatchNorm/FusedBatchNorm/Offset","op":"Const"},{"input":[],"attr":{"value":{"tensor":{"floatVal":[],"doubleVal":[],"intVal":[],"stringVal":[],"scomplexVal":[],"int64Val":[],"boolVal":[],"uint32Val":[],"uint64Val":[],"dtype":1,"tensorShape":{"dim":[{"size":"3"},{"size":"3"},{"size":"128"},{"size":"256"}]}}},"dtype":{"type":1}},"name":"FeatureExtractor/InceptionV2/Mixed_5c_2_Conv2d_3_3x3_s2_256/Conv2D/merged_input","op":"Const"},{"input":[],"attr":{"value":{"tensor":{"floatVal":[],"doubleVal":[],"intVal":[],"stringVal":[],"scomplexVal":[],"int64Val":[],"boolVal":[],"uint32Val":[],"uint64Val":[],"dtype":1,"tensorShape":{"dim":[{"size":"256"}]}}},"dtype":{"type":1}},"name":"FeatureExtractor/InceptionV2/Mixed_5c_2_Conv2d_3_3x3_s2_256/BatchNorm/FusedBatchNorm/Offset","op":"Const"},{"input":[],"attr":{"value":{"tensor":{"floatVal":[],"doubleVal":[],"intVal":[],"stringVal":[],"scomplexVal":[],"int64Val":[],"boolVal":[],"uint32Val":[],"uint64Val":[],"dtype":1,"tensorShape":{"dim":[{"size":"1"},{"size":"1"},{"size":"256"},{"size":"128"}]}}},"dtype":{"type":1}},"name":"FeatureExtractor/InceptionV2/Mixed_5c_1_Conv2d_4_1x1_128/Conv2D/merged_input","op":"Const"},{"input":[],"attr":{"value":{"tensor":{"floatVal":[],"doubleVal":[],"intVal":[],"stringVal":[],"scomplexVal":[],"int64Val":[],"boolVal":[],"uint32Val":[],"uint64Val":[],"dtype":1,"tensorShape":{"dim":[{"size":"128"}]}}},"dtype":{"type":1}},"name":"FeatureExtractor/InceptionV2/Mixed_5c_1_Conv2d_4_1x1_128/BatchNorm/FusedBatchNorm/Offset","op":"Const"},{"input":[],"attr":{"value":{"tensor":{"floatVal":[],"doubleVal":[],"intVal":[],"stringVal":[],"scomplexVal":[],"int64Val":[],"boolVal":[],"uint32Val":[],"uint64Val":[],"dtype":1,"tensorShape":{"dim":[{"size":"3"},{"size":"3"},{"size":"128"},{"size":"256"}]}}},"dtype":{"type":1}},"name":"FeatureExtractor/InceptionV2/Mixed_5c_2_Conv2d_4_3x3_s2_256/Conv2D/merged_input","op":"Const"},{"input":[],"attr":{"value":{"tensor":{"floatVal":[],"doubleVal":[],"intVal":[],"stringVal":[],"scomplexVal":[],"int64Val":[],"boolVal":[],"uint32Val":[],"uint64Val":[],"dtype":1,"tensorShape":{"dim":[{"size":"256"}]}}},"dtype":{"type":1}},"name":"FeatureExtractor/InceptionV2/Mixed_5c_2_Conv2d_4_3x3_s2_256/BatchNorm/FusedBatchNorm/Offset","op":"Const"},{"input":[],"attr":{"value":{"tensor":{"floatVal":[],"doubleVal":[],"intVal":[],"stringVal":[],"scomplexVal":[],"int64Val":[],"boolVal":[],"uint32Val":[],"uint64Val":[],"dtype":1,"tensorShape":{"dim":[{"size":"1"},{"size":"1"},{"size":"256"},{"size":"64"}]}}},"dtype":{"type":1}},"name":"FeatureExtractor/InceptionV2/Mixed_5c_1_Conv2d_5_1x1_64/Conv2D/merged_input","op":"Const"},{"input":[],"attr":{"value":{"tensor":{"floatVal":[],"doubleVal":[],"intVal":[],"stringVal":[],"scomplexVal":[],"int64Val":[],"boolVal":[],"uint32Val":[],"uint64Val":[],"dtype":1,"tensorShape":{"dim":[{"size":"64"}]}}},"dtype":{"type":1}},"name":"FeatureExtractor/InceptionV2/Mixed_5c_1_Conv2d_5_1x1_64/BatchNorm/FusedBatchNorm/Offset","op":"Const"},{"input":[],"attr":{"value":{"tensor":{"floatVal":[],"doubleVal":[],"intVal":[],"stringVal":[],"scomplexVal":[],"int64Val":[],"boolVal":[],"uint32Val":[],"uint64Val":[],"dtype":1,"tensorShape":{"dim":[{"size":"3"},{"size":"3"},{"size":"64"},{"size":"128"}]}}},"dtype":{"type":1}},"name":"FeatureExtractor/InceptionV2/Mixed_5c_2_Conv2d_5_3x3_s2_128/Conv2D/merged_input","op":"Const"},{"input":[],"attr":{"value":{"tensor":{"floatVal":[],"doubleVal":[],"intVal":[],"stringVal":[],"scomplexVal":[],"int64Val":[],"boolVal":[],"uint32Val":[],"uint64Val":[],"dtype":1,"tensorShape":{"dim":[{"size":"128"}]}}},"dtype":{"type":1}},"name":"FeatureExtractor/InceptionV2/Mixed_5c_2_Conv2d_5_3x3_s2_128/BatchNorm/FusedBatchNorm/Offset","op":"Const"},{"input":[],"attr":{"value":{"tensor":{"floatVal":[],"doubleVal":[],"intVal":[],"stringVal":[],"scomplexVal":[],"int64Val":[],"boolVal":[],"uint32Val":[],"uint64Val":[],"dtype":3,"tensorShape":{"dim":[]}}},"dtype":{"type":3}},"name":"BoxPredictor_0/Reshape_1/shape/1","op":"Const"},{"input":[],"attr":{"dtype":{"type":3},"value":{"tensor":{"floatVal":[],"doubleVal":[],"intVal":[],"stringVal":[],"scomplexVal":[],"int64Val":[],"boolVal":[],"uint32Val":[],"uint64Val":[],"dtype":3,"tensorShape":{"dim":[]}}}},"name":"Postprocessor/BatchMultiClassNonMaxSuppression/map/TensorArrayStack_4/range/delta","op":"Const"},{"input":[],"attr":{"value":{"tensor":{"floatVal":[],"doubleVal":[],"intVal":[],"stringVal":[],"scomplexVal":[],"int64Val":[],"boolVal":[],"uint32Val":[],"uint64Val":[],"dtype":3,"tensorShape":{"dim":[{"size":"1"}]}}},"dtype":{"type":3}},"name":"Postprocessor/BatchMultiClassNonMaxSuppression/strided_slice_1/stack_1","op":"Const"},{"input":[],"attr":{"value":{"tensor":{"floatVal":[],"doubleVal":[],"intVal":[],"stringVal":[],"scomplexVal":[],"int64Val":[],"boolVal":[],"uint32Val":[],"uint64Val":[],"dtype":3,"tensorShape":{"dim":[]}}},"dtype":{"type":3}},"name":"BoxPredictor_0/Reshape/shape/3","op":"Const"},{"input":[],"attr":{"dtype":{"type":3},"value":{"tensor":{"floatVal":[],"doubleVal":[],"intVal":[],"stringVal":[],"scomplexVal":[],"int64Val":[],"boolVal":[],"uint32Val":[],"uint64Val":[],"dtype":3,"tensorShape":{"dim":[]}}}},"name":"Postprocessor/ExpandDims_1/dim","op":"Const"},{"input":[],"attr":{"value":{"tensor":{"floatVal":[],"doubleVal":[],"intVal":[],"stringVal":[],"scomplexVal":[],"int64Val":[],"boolVal":[],"uint32Val":[],"uint64Val":[],"dtype":3,"tensorShape":{"dim":[{"size":"1"}]}}},"dtype":{"type":3}},"name":"Postprocessor/BatchMultiClassNonMaxSuppression/map/TensorArrayUnstack_1/strided_slice/stack","op":"Const"},{"input":[],"attr":{"value":{"tensor":{"floatVal":[],"doubleVal":[],"intVal":[],"stringVal":[],"scomplexVal":[],"int64Val":[],"boolVal":[],"uint32Val":[],"uint64Val":[],"dtype":3,"tensorShape":{"dim":[{"size":"1"}]}}},"dtype":{"type":3}},"name":"Postprocessor/BatchMultiClassNonMaxSuppression/map/TensorArrayUnstack_1/strided_slice/stack_1","op":"Const"},{"input":["Postprocessor/BatchMultiClassNonMaxSuppression/map/TensorArrayStack_4/range/start"],"attr":{"T":{"type":3},"is_constant":{"b":false},"parallel_iterations":{"i":"32"},"frame_name":{"s":[80,111,115,116,112,114,111,99,101,115,115,111,114,47,66,97,116,99,104,77,117,108,116,105,67,108,97,115,115,78,111,110,77,97,120,83,117,112,112,114,101,115,115,105,111,110,47,109,97,112,47,119,104,105,108,101,47,119,104,105,108,101,95,99,111,110,116,101,120,116]}},"name":"Postprocessor/BatchMultiClassNonMaxSuppression/map/while/Enter_1","op":"Enter"},{"input":["Postprocessor/BatchMultiClassNonMaxSuppression/map/TensorArrayStack_4/range/start"],"attr":{"T":{"type":3},"is_constant":{"b":false},"parallel_iterations":{"i":"32"},"frame_name":{"s":[80,111,115,116,112,114,111,99,101,115,115,111,114,47,66,97,116,99,104,77,117,108,116,105,67,108,97,115,115,78,111,110,77,97,120,83,117,112,112,114,101,115,115,105,111,110,47,109,97,112,47,119,104,105,108,101,47,119,104,105,108,101,95,99,111,110,116,101,120,116]}},"name":"Postprocessor/BatchMultiClassNonMaxSuppression/map/while/Enter","op":"Enter"},{"input":["Postprocessor/BatchMultiClassNonMaxSuppression/map/TensorArrayStack_4/range/start"],"attr":{"frame_name":{"s":[80,114,101,112,114,111,99,101,115,115,111,114,47,109,97,112,47,119,104,105,108,101,47,119,104,105,108,101,95,99,111,110,116,101,120,116]},"T":{"type":3},"is_constant":{"b":false},"parallel_iterations":{"i":"32"}},"name":"Preprocessor/map/while/Enter_1","op":"Enter"},{"input":["Postprocessor/BatchMultiClassNonMaxSuppression/map/TensorArrayStack_4/range/start"],"attr":{"is_constant":{"b":false},"parallel_iterations":{"i":"32"},"frame_name":{"s":[80,114,101,112,114,111,99,101,115,115,111,114,47,109,97,112,47,119,104,105,108,101,47,119,104,105,108,101,95,99,111,110,116,101,120,116]},"T":{"type":3}},"name":"Preprocessor/map/while/Enter","op":"Enter"},{"input":["image_tensor"],"attr":{"SrcT":{"type":4},"Truncate":{"b":false},"DstT":{"type":1}},"name":"ToFloat","op":"Cast"},{"input":["Postprocessor/BatchMultiClassNonMaxSuppression/map/while/Enter_1","Postprocessor/BatchMultiClassNonMaxSuppression/map/while/NextIteration_1"],"attr":{"T":{"type":3},"N":{"i":"2"}},"name":"Postprocessor/BatchMultiClassNonMaxSuppression/map/while/Merge_1","op":"Merge"},{"input":["Postprocessor/BatchMultiClassNonMaxSuppression/map/while/Enter","Postprocessor/BatchMultiClassNonMaxSuppression/map/while/NextIteration"],"attr":{"N":{"i":"2"},"T":{"type":3}},"name":"Postprocessor/BatchMultiClassNonMaxSuppression/map/while/Merge","op":"Merge"},{"input":["Preprocessor/map/while/Enter_1","Preprocessor/map/while/NextIteration_1"],"attr":{"N":{"i":"2"},"T":{"type":3}},"name":"Preprocessor/map/while/Merge_1","op":"Merge"},{"input":["Preprocessor/map/while/Enter","Preprocessor/map/while/NextIteration"],"attr":{"N":{"i":"2"},"T":{"type":3}},"name":"Preprocessor/map/while/Merge","op":"Merge"},{"input":["ToFloat"],"attr":{"T":{"type":1},"out_type":{"type":3}},"name":"Preprocessor/map/TensorArrayUnstack/Shape","op":"Shape"},{"input":["Preprocessor/map/TensorArrayUnstack/Shape","Postprocessor/BatchMultiClassNonMaxSuppression/map/TensorArrayUnstack_1/strided_slice/stack","Postprocessor/BatchMultiClassNonMaxSuppression/map/TensorArrayUnstack_1/strided_slice/stack_1","Postprocessor/BatchMultiClassNonMaxSuppression/map/TensorArrayUnstack_1/strided_slice/stack_1"],"attr":{"shrink_axis_mask":{"i":"1"},"ellipsis_mask":{"i":"0"},"begin_mask":{"i":"0"},"new_axis_mask":{"i":"0"},"end_mask":{"i":"0"},"T":{"type":3},"Index":{"type":3}},"name":"Preprocessor/map/TensorArrayUnstack/strided_slice","op":"StridedSlice"},{"input":["Preprocessor/map/TensorArrayUnstack/strided_slice"],"attr":{"element_shape":{"shape":{"dim":[],"unknownRank":true}},"clear_after_read":{"b":true},"dynamic_size":{"b":false},"identical_element_shapes":{"b":true},"tensor_array_name":{"s":[]},"dtype":{"type":3}},"name":"Preprocessor/map/TensorArray_2","op":"TensorArrayV3"},{"input":["Preprocessor/map/TensorArrayUnstack/strided_slice"],"attr":{"identical_element_shapes":{"b":true},"tensor_array_name":{"s":[]},"dtype":{"type":1},"element_shape":{"shape":{"dim":[],"unknownRank":true}},"clear_after_read":{"b":true},"dynamic_size":{"b":false}},"name":"Preprocessor/map/TensorArray_1","op":"TensorArrayV3"},{"input":["Postprocessor/BatchMultiClassNonMaxSuppression/map/TensorArrayStack_4/range/start","Preprocessor/map/TensorArrayUnstack/strided_slice","Postprocessor/BatchMultiClassNonMaxSuppression/map/TensorArrayStack_4/range/delta"],"attr":{"Tidx":{"type":3}},"name":"Preprocessor/map/TensorArrayUnstack/range","op":"Range"},{"input":["Preprocessor/map/TensorArrayUnstack/strided_slice"],"attr":{"identical_element_shapes":{"b":true},"tensor_array_name":{"s":[]},"dtype":{"type":1},"element_shape":{"shape":{"dim":[],"unknownRank":true}},"dynamic_size":{"b":false},"clear_after_read":{"b":true}},"name":"Preprocessor/map/TensorArray","op":"TensorArrayV3"},{"input":["Preprocessor/map/TensorArrayUnstack/strided_slice"],"attr":{"parallel_iterations":{"i":"32"},"frame_name":{"s":[80,114,101,112,114,111,99,101,115,115,111,114,47,109,97,112,47,119,104,105,108,101,47,119,104,105,108,101,95,99,111,110,116,101,120,116]},"T":{"type":3},"is_constant":{"b":true}},"name":"Preprocessor/map/while/Less/Enter","op":"Enter"},{"input":["Preprocessor/map/TensorArray_2:1"],"attr":{"T":{"type":1},"is_constant":{"b":false},"parallel_iterations":{"i":"32"},"frame_name":{"s":[80,114,101,112,114,111,99,101,115,115,111,114,47,109,97,112,47,119,104,105,108,101,47,119,104,105,108,101,95,99,111,110,116,101,120,116]}},"name":"Preprocessor/map/while/Enter_3","op":"Enter"},{"input":["Preprocessor/map/TensorArray_2"],"attr":{"parallel_iterations":{"i":"32"},"frame_name":{"s":[80,114,101,112,114,111,99,101,115,115,111,114,47,109,97,112,47,119,104,105,108,101,47,119,104,105,108,101,95,99,111,110,116,101,120,116]},"T":{"type":20},"is_constant":{"b":true}},"name":"Preprocessor/map/while/TensorArrayWrite_1/TensorArrayWriteV3/Enter","op":"Enter"},{"input":["Preprocessor/map/TensorArray_1:1"],"attr":{"T":{"type":1},"is_constant":{"b":false},"parallel_iterations":{"i":"32"},"frame_name":{"s":[80,114,101,112,114,111,99,101,115,115,111,114,47,109,97,112,47,119,104,105,108,101,47,119,104,105,108,101,95,99,111,110,116,101,120,116]}},"name":"Preprocessor/map/while/Enter_2","op":"Enter"},{"input":["Preprocessor/map/TensorArray_1"],"attr":{"is_constant":{"b":true},"parallel_iterations":{"i":"32"},"frame_name":{"s":[80,114,101,112,114,111,99,101,115,115,111,114,47,109,97,112,47,119,104,105,108,101,47,119,104,105,108,101,95,99,111,110,116,101,120,116]},"T":{"type":20}},"name":"Preprocessor/map/while/TensorArrayWrite/TensorArrayWriteV3/Enter","op":"Enter"},{"input":["Preprocessor/map/TensorArray"],"attr":{"T":{"type":20},"is_constant":{"b":true},"parallel_iterations":{"i":"32"},"frame_name":{"s":[80,114,101,112,114,111,99,101,115,115,111,114,47,109,97,112,47,119,104,105,108,101,47,119,104,105,108,101,95,99,111,110,116,101,120,116]}},"name":"Preprocessor/map/while/TensorArrayReadV3/Enter","op":"Enter"},{"input":["Preprocessor/map/TensorArray","Preprocessor/map/TensorArrayUnstack/range","ToFloat","Preprocessor/map/TensorArray:1"],"attr":{"T":{"type":1}},"name":"Preprocessor/map/TensorArrayUnstack/TensorArrayScatter/TensorArrayScatterV3","op":"TensorArrayScatterV3"},{"input":["Preprocessor/map/while/Merge","Preprocessor/map/while/Less/Enter"],"attr":{"T":{"type":3}},"name":"Preprocessor/map/while/Less","op":"Less"},{"input":["Preprocessor/map/while/Merge_1","Preprocessor/map/while/Less/Enter"],"attr":{"T":{"type":3}},"name":"Preprocessor/map/while/Less_1","op":"Less"},{"input":["Preprocessor/map/while/Enter_3","Preprocessor/map/while/NextIteration_3"],"attr":{"T":{"type":1},"N":{"i":"2"}},"name":"Preprocessor/map/while/Merge_3","op":"Merge"},{"input":["Preprocessor/map/while/Enter_2","Preprocessor/map/while/NextIteration_2"],"attr":{"T":{"type":1},"N":{"i":"2"}},"name":"Preprocessor/map/while/Merge_2","op":"Merge"},{"input":["Preprocessor/map/TensorArrayUnstack/TensorArrayScatter/TensorArrayScatterV3"],"attr":{"frame_name":{"s":[80,114,101,112,114,111,99,101,115,115,111,114,47,109,97,112,47,119,104,105,108,101,47,119,104,105,108,101,95,99,111,110,116,101,120,116]},"T":{"type":1},"is_constant":{"b":true},"parallel_iterations":{"i":"32"}},"name":"Preprocessor/map/while/TensorArrayReadV3/Enter_1","op":"Enter"},{"input":["Preprocessor/map/while/Less","Preprocessor/map/while/Less_1"],"attr":{},"name":"Preprocessor/map/while/LogicalAnd","op":"LogicalAnd"},{"input":["Preprocessor/map/while/LogicalAnd"],"attr":{},"name":"Preprocessor/map/while/LoopCond","op":"LoopCond"},{"input":["Preprocessor/map/while/Merge_3","Preprocessor/map/while/LoopCond"],"attr":{"T":{"type":1}},"name":"Preprocessor/map/while/Switch_3","op":"Switch"},{"input":["Preprocessor/map/while/Merge_1","Preprocessor/map/while/LoopCond"],"attr":{"T":{"type":3}},"name":"Preprocessor/map/while/Switch_1","op":"Switch"},{"input":["Preprocessor/map/while/Merge","Preprocessor/map/while/LoopCond"],"attr":{"T":{"type":3}},"name":"Preprocessor/map/while/Switch","op":"Switch"},{"input":["Preprocessor/map/while/Merge_2","Preprocessor/map/while/LoopCond"],"attr":{"T":{"type":1}},"name":"Preprocessor/map/while/Switch_2","op":"Switch"},{"input":["Preprocessor/map/while/Switch_3"],"attr":{"T":{"type":1}},"name":"Preprocessor/map/while/Exit_3","op":"Exit"},{"input":["Preprocessor/map/while/TensorArrayReadV3/Enter","Preprocessor/map/while/Switch_1:1","Preprocessor/map/while/TensorArrayReadV3/Enter_1"],"attr":{"dtype":{"type":1}},"name":"Preprocessor/map/while/TensorArrayReadV3","op":"TensorArrayReadV3"},{"input":["Preprocessor/map/while/Switch:1"],"attr":{"T":{"type":3}},"name":"Preprocessor/map/while/Identity","op":"Identity"},{"input":["Preprocessor/map/while/Switch_2"],"attr":{"T":{"type":1}},"name":"Preprocessor/map/while/Exit_2","op":"Exit"},{"input":["Preprocessor/map/TensorArray_2","Preprocessor/map/while/Exit_3"],"attr":{},"name":"Preprocessor/map/TensorArrayStack_1/TensorArraySizeV3","op":"TensorArraySizeV3"},{"input":["^Preprocessor/map/while/Identity"],"attr":{"value":{"tensor":{"floatVal":[],"doubleVal":[],"intVal":[],"stringVal":[],"scomplexVal":[],"int64Val":[],"boolVal":[],"uint32Val":[],"uint64Val":[],"dtype":3,"tensorShape":{"dim":[{"size":"3"}]}}},"dtype":{"type":3}},"name":"Preprocessor/map/while/ResizeImage/stack_1","op":"Const"},{"input":["^Preprocessor/map/while/Identity"],"attr":{"value":{"tensor":{"floatVal":[],"doubleVal":[],"intVal":[],"stringVal":[],"scomplexVal":[],"int64Val":[],"boolVal":[],"uint32Val":[],"uint64Val":[],"dtype":3,"tensorShape":{"dim":[]}}},"dtype":{"type":3}},"name":"Preprocessor/map/while/ResizeImage/resize_images/ExpandDims/dim","op":"Const"},{"input":["^Preprocessor/map/while/Identity"],"attr":{"value":{"tensor":{"floatVal":[],"doubleVal":[],"intVal":[],"stringVal":[],"scomplexVal":[],"int64Val":[],"boolVal":[],"uint32Val":[],"uint64Val":[],"dtype":3,"tensorShape":{"dim":[{"size":"2"}]}}},"dtype":{"type":3}},"name":"Preprocessor/map/while/ResizeImage/stack","op":"Const"},{"input":["^Preprocessor/map/while/Identity"],"attr":{"value":{"tensor":{"floatVal":[],"doubleVal":[],"intVal":[],"stringVal":[],"scomplexVal":[],"int64Val":[],"boolVal":[],"uint32Val":[],"uint64Val":[],"dtype":3,"tensorShape":{"dim":[]}}},"dtype":{"type":3}},"name":"Preprocessor/map/while/add/y","op":"Const"},{"input":["Preprocessor/map/TensorArray_1","Preprocessor/map/while/Exit_2"],"attr":{},"name":"Preprocessor/map/TensorArrayStack/TensorArraySizeV3","op":"TensorArraySizeV3"},{"input":["Postprocessor/BatchMultiClassNonMaxSuppression/map/TensorArrayStack_4/range/start","Preprocessor/map/TensorArrayStack_1/TensorArraySizeV3","Postprocessor/BatchMultiClassNonMaxSuppression/map/TensorArrayStack_4/range/delta"],"attr":{"Tidx":{"type":3}},"name":"Preprocessor/map/TensorArrayStack_1/range","op":"Range"},{"input":["Preprocessor/map/while/TensorArrayWrite_1/TensorArrayWriteV3/Enter","Preprocessor/map/while/Switch_1:1","Preprocessor/map/while/ResizeImage/stack_1","Preprocessor/map/while/Switch_3:1"],"attr":{"T":{"type":3}},"name":"Preprocessor/map/while/TensorArrayWrite_1/TensorArrayWriteV3","op":"TensorArrayWriteV3"},{"input":["Preprocessor/map/while/TensorArrayReadV3","Preprocessor/map/while/ResizeImage/resize_images/ExpandDims/dim"],"attr":{"T":{"type":1},"Tdim":{"type":3}},"name":"Preprocessor/map/while/ResizeImage/resize_images/ExpandDims","op":"ExpandDims"},{"input":["Preprocessor/map/while/Identity","Preprocessor/map/while/add/y"],"attr":{"T":{"type":3}},"name":"Preprocessor/map/while/add","op":"Add"},{"input":["Preprocessor/map/while/Switch_1:1","Preprocessor/map/while/add/y"],"attr":{"T":{"type":3}},"name":"Preprocessor/map/while/add_1","op":"Add"},{"input":["Postprocessor/BatchMultiClassNonMaxSuppression/map/TensorArrayStack_4/range/start","Preprocessor/map/TensorArrayStack/TensorArraySizeV3","Postprocessor/BatchMultiClassNonMaxSuppression/map/TensorArrayStack_4/range/delta"],"attr":{"Tidx":{"type":3}},"name":"Preprocessor/map/TensorArrayStack/range","op":"Range"},{"input":["Preprocessor/map/TensorArray_2","Preprocessor/map/TensorArrayStack_1/range","Preprocessor/map/while/Exit_3"],"attr":{"element_shape":{"shape":{"dim":[{"size":"3"}]}},"dtype":{"type":3}},"name":"Preprocessor/map/TensorArrayStack_1/TensorArrayGatherV3","op":"TensorArrayGatherV3"},{"input":["Preprocessor/map/while/TensorArrayWrite_1/TensorArrayWriteV3"],"attr":{"T":{"type":1}},"name":"Preprocessor/map/while/NextIteration_3","op":"NextIteration"},{"input":["Preprocessor/map/while/ResizeImage/resize_images/ExpandDims","Preprocessor/map/while/ResizeImage/stack"],"attr":{"align_corners":{"b":false},"T":{"type":1}},"name":"Preprocessor/map/while/ResizeImage/resize_images/ResizeBilinear","op":"ResizeBilinear"},{"input":["Preprocessor/map/while/add"],"attr":{"T":{"type":3}},"name":"Preprocessor/map/while/NextIteration","op":"NextIteration"},{"input":["Preprocessor/map/while/add_1"],"attr":{"T":{"type":3}},"name":"Preprocessor/map/while/NextIteration_1","op":"NextIteration"},{"input":["Preprocessor/map/TensorArray_1","Preprocessor/map/TensorArrayStack/range","Preprocessor/map/while/Exit_2"],"attr":{"dtype":{"type":1},"element_shape":{"shape":{"dim":[{"size":"800"},{"size":"600"},{"size":"3"}]}}},"name":"Preprocessor/map/TensorArrayStack/TensorArrayGatherV3","op":"TensorArrayGatherV3"},{"input":["Preprocessor/map/TensorArrayStack_1/TensorArrayGatherV3"],"attr":{"SrcT":{"type":3},"Truncate":{"b":false},"DstT":{"type":1}},"name":"Postprocessor/ToFloat","op":"Cast"},{"input":["Preprocessor/map/while/ResizeImage/resize_images/ResizeBilinear"],"attr":{"squeeze_dims":{"list":{"s":[],"i":["0"],"f":[],"b":[],"type":[],"shape":[],"tensor":[],"func":[]}},"T":{"type":1}},"name":"Preprocessor/map/while/ResizeImage/resize_images/Squeeze","op":"Squeeze"},{"input":["Preprocessor/mul/x","Preprocessor/map/TensorArrayStack/TensorArrayGatherV3"],"attr":{"T":{"type":1}},"name":"Preprocessor/mul","op":"Mul"},{"input":["Postprocessor/ToFloat"],"attr":{"axis":{"i":"1"},"num":{"i":"3"},"T":{"type":1}},"name":"Postprocessor/unstack","op":"Unpack"},{"input":["Preprocessor/map/while/TensorArrayWrite/TensorArrayWriteV3/Enter","Preprocessor/map/while/Switch_1:1","Preprocessor/map/while/ResizeImage/resize_images/Squeeze","Preprocessor/map/while/Switch_2:1"],"attr":{"T":{"type":1}},"name":"Preprocessor/map/while/TensorArrayWrite/TensorArrayWriteV3","op":"TensorArrayWriteV3"},{"input":["Preprocessor/mul","Postprocessor/scale_logits/y"],"attr":{"T":{"type":1}},"name":"Preprocessor/sub","op":"Sub"},{"input":["Postprocessor/unstack"],"attr":{"T":{"type":1}},"name":"Postprocessor/zeros_like","op":"ZerosLike"},{"input":["Postprocessor/unstack:1"],"attr":{"T":{"type":1}},"name":"Postprocessor/zeros_like_1","op":"ZerosLike"},{"input":["Postprocessor/unstack","ConstantFolding/Postprocessor/truediv_recip"],"attr":{"T":{"type":1}},"name":"Postprocessor/truediv","op":"Mul"},{"input":["Postprocessor/unstack:1","ConstantFolding/Postprocessor/truediv_1_recip"],"attr":{"T":{"type":1}},"name":"Postprocessor/truediv_1","op":"Mul"},{"input":["Preprocessor/map/while/TensorArrayWrite/TensorArrayWriteV3"],"attr":{"T":{"type":1}},"name":"Preprocessor/map/while/NextIteration_2","op":"NextIteration"},{"input":["Preprocessor/sub","FeatureExtractor/InceptionV2/Conv2d_1a_7x7/depthwise_weights"],"attr":{"padding":{"s":[83,65,77,69]},"dilations":{"list":{"s":[],"i":["1","1","1","1"],"f":[],"b":[],"type":[],"shape":[],"tensor":[],"func":[]}},"T":{"type":1},"strides":{"list":{"s":[],"i":["1","2","2","1"],"f":[],"b":[],"type":[],"shape":[],"tensor":[],"func":[]}},"data_format":{"s":[78,72,87,67]}},"name":"FeatureExtractor/InceptionV2/InceptionV2/Conv2d_1a_7x7/separable_conv2d/depthwise","op":"DepthwiseConv2dNative"},{"input":["Postprocessor/zeros_like","Postprocessor/zeros_like_1","Postprocessor/truediv","Postprocessor/truediv_1"],"attr":{"N":{"i":"4"},"T":{"type":1},"axis":{"i":"1"}},"name":"Postprocessor/stack_1","op":"Pack"},{"input":["FeatureExtractor/InceptionV2/InceptionV2/Conv2d_1a_7x7/separable_conv2d/depthwise","FeatureExtractor/InceptionV2/InceptionV2/Conv2d_1a_7x7/separable_conv2d/merged_input"],"attr":{"dilations":{"list":{"s":[],"i":["1","1","1","1"],"f":[],"b":[],"type":[],"shape":[],"tensor":[],"func":[]}},"T":{"type":1},"data_format":{"s":[78,72,87,67]},"strides":{"list":{"s":[],"i":["1","1","1","1"],"f":[],"b":[],"type":[],"shape":[],"tensor":[],"func":[]}},"use_cudnn_on_gpu":{"b":true},"padding":{"s":[86,65,76,73,68]}},"name":"FeatureExtractor/InceptionV2/InceptionV2/Conv2d_1a_7x7/BatchNorm/FusedBatchNorm/Mul","op":"Conv2D"},{"input":["Postprocessor/stack_1"],"attr":{"T":{"type":1},"out_type":{"type":3}},"name":"Postprocessor/BatchMultiClassNonMaxSuppression/map/TensorArrayUnstack_3/Shape","op":"Shape"},{"input":["FeatureExtractor/InceptionV2/InceptionV2/Conv2d_1a_7x7/BatchNorm/FusedBatchNorm/Mul","FeatureExtractor/InceptionV2/InceptionV2/Conv2d_1a_7x7/BatchNorm/FusedBatchNorm/Offset"],"attr":{"T":{"type":1}},"name":"FeatureExtractor/InceptionV2/InceptionV2/Conv2d_1a_7x7/BatchNorm/FusedBatchNorm","op":"Add"},{"input":["Postprocessor/BatchMultiClassNonMaxSuppression/map/TensorArrayUnstack_3/Shape","Postprocessor/BatchMultiClassNonMaxSuppression/map/TensorArrayUnstack_1/strided_slice/stack","Postprocessor/BatchMultiClassNonMaxSuppression/map/TensorArrayUnstack_1/strided_slice/stack_1","Postprocessor/BatchMultiClassNonMaxSuppression/map/TensorArrayUnstack_1/strided_slice/stack_1"],"attr":{"begin_mask":{"i":"0"},"ellipsis_mask":{"i":"0"},"new_axis_mask":{"i":"0"},"end_mask":{"i":"0"},"T":{"type":3},"Index":{"type":3},"shrink_axis_mask":{"i":"1"}},"name":"Postprocessor/BatchMultiClassNonMaxSuppression/map/TensorArrayUnstack_3/strided_slice","op":"StridedSlice"},{"input":["FeatureExtractor/InceptionV2/InceptionV2/Conv2d_1a_7x7/BatchNorm/FusedBatchNorm"],"attr":{"T":{"type":1}},"name":"FeatureExtractor/InceptionV2/InceptionV2/Conv2d_1a_7x7/Relu6","op":"Relu6"},{"input":["Postprocessor/BatchMultiClassNonMaxSuppression/map/TensorArrayStack_4/range/start","Postprocessor/BatchMultiClassNonMaxSuppression/map/TensorArrayUnstack_3/strided_slice","Postprocessor/BatchMultiClassNonMaxSuppression/map/TensorArrayStack_4/range/delta"],"attr":{"Tidx":{"type":3}},"name":"Postprocessor/BatchMultiClassNonMaxSuppression/map/TensorArrayUnstack_3/range","op":"Range"},{"input":["FeatureExtractor/InceptionV2/InceptionV2/Conv2d_1a_7x7/Relu6"],"attr":{"ksize":{"list":{"s":[],"i":["1","3","3","1"],"f":[],"b":[],"type":[],"shape":[],"tensor":[],"func":[]}},"padding":{"s":[83,65,77,69]},"T":{"type":1},"strides":{"list":{"s":[],"i":["1","2","2","1"],"f":[],"b":[],"type":[],"shape":[],"tensor":[],"func":[]}},"data_format":{"s":[78,72,87,67]}},"name":"FeatureExtractor/InceptionV2/InceptionV2/MaxPool_2a_3x3/MaxPool","op":"MaxPool"},{"input":["FeatureExtractor/InceptionV2/InceptionV2/MaxPool_2a_3x3/MaxPool","FeatureExtractor/InceptionV2/InceptionV2/Conv2d_2b_1x1/Conv2D/merged_input"],"attr":{"dilations":{"list":{"s":[],"i":["1","1","1","1"],"f":[],"b":[],"type":[],"shape":[],"tensor":[],"func":[]}},"T":{"type":1},"strides":{"list":{"s":[],"i":["1","1","1","1"],"f":[],"b":[],"type":[],"shape":[],"tensor":[],"func":[]}},"data_format":{"s":[78,72,87,67]},"use_cudnn_on_gpu":{"b":true},"padding":{"s":[83,65,77,69]}},"name":"FeatureExtractor/InceptionV2/InceptionV2/Conv2d_2b_1x1/BatchNorm/FusedBatchNorm/Mul","op":"Conv2D"},{"input":["FeatureExtractor/InceptionV2/InceptionV2/Conv2d_2b_1x1/BatchNorm/FusedBatchNorm/Mul","FeatureExtractor/InceptionV2/InceptionV2/Conv2d_2b_1x1/BatchNorm/FusedBatchNorm/Offset"],"attr":{"T":{"type":1}},"name":"FeatureExtractor/InceptionV2/InceptionV2/Conv2d_2b_1x1/BatchNorm/FusedBatchNorm","op":"Add"},{"input":["FeatureExtractor/InceptionV2/InceptionV2/Conv2d_2b_1x1/BatchNorm/FusedBatchNorm"],"attr":{"T":{"type":1}},"name":"FeatureExtractor/InceptionV2/InceptionV2/Conv2d_2b_1x1/Relu6","op":"Relu6"},{"input":["FeatureExtractor/InceptionV2/InceptionV2/Conv2d_2b_1x1/Relu6","FeatureExtractor/InceptionV2/InceptionV2/Conv2d_2c_3x3/Conv2D/merged_input"],"attr":{"dilations":{"list":{"s":[],"i":["1","1","1","1"],"f":[],"b":[],"type":[],"shape":[],"tensor":[],"func":[]}},"T":{"type":1},"strides":{"list":{"s":[],"i":["1","1","1","1"],"f":[],"b":[],"type":[],"shape":[],"tensor":[],"func":[]}},"data_format":{"s":[78,72,87,67]},"use_cudnn_on_gpu":{"b":true},"padding":{"s":[83,65,77,69]}},"name":"FeatureExtractor/InceptionV2/InceptionV2/Conv2d_2c_3x3/BatchNorm/FusedBatchNorm/Mul","op":"Conv2D"},{"input":["FeatureExtractor/InceptionV2/InceptionV2/Conv2d_2c_3x3/BatchNorm/FusedBatchNorm/Mul","FeatureExtractor/InceptionV2/InceptionV2/Conv2d_2c_3x3/BatchNorm/FusedBatchNorm/Offset"],"attr":{"T":{"type":1}},"name":"FeatureExtractor/InceptionV2/InceptionV2/Conv2d_2c_3x3/BatchNorm/FusedBatchNorm","op":"Add"},{"input":["FeatureExtractor/InceptionV2/InceptionV2/Conv2d_2c_3x3/BatchNorm/FusedBatchNorm"],"attr":{"T":{"type":1}},"name":"FeatureExtractor/InceptionV2/InceptionV2/Conv2d_2c_3x3/Relu6","op":"Relu6"},{"input":["FeatureExtractor/InceptionV2/InceptionV2/Conv2d_2c_3x3/Relu6"],"attr":{"ksize":{"list":{"s":[],"i":["1","3","3","1"],"f":[],"b":[],"type":[],"shape":[],"tensor":[],"func":[]}},"padding":{"s":[83,65,77,69]},"T":{"type":1},"strides":{"list":{"s":[],"i":["1","2","2","1"],"f":[],"b":[],"type":[],"shape":[],"tensor":[],"func":[]}},"data_format":{"s":[78,72,87,67]}},"name":"FeatureExtractor/InceptionV2/InceptionV2/MaxPool_3a_3x3/MaxPool","op":"MaxPool"},{"input":["FeatureExtractor/InceptionV2/InceptionV2/MaxPool_3a_3x3/MaxPool","FeatureExtractor/InceptionV2/InceptionV2/Mixed_3b/Branch_0/Conv2d_0a_1x1/Conv2D/merged_input"],"attr":{"dilations":{"list":{"s":[],"i":["1","1","1","1"],"f":[],"b":[],"type":[],"shape":[],"tensor":[],"func":[]}},"T":{"type":1},"data_format":{"s":[78,72,87,67]},"strides":{"list":{"s":[],"i":["1","1","1","1"],"f":[],"b":[],"type":[],"shape":[],"tensor":[],"func":[]}},"use_cudnn_on_gpu":{"b":true},"padding":{"s":[83,65,77,69]}},"name":"FeatureExtractor/InceptionV2/InceptionV2/Mixed_3b/Branch_0/Conv2d_0a_1x1/BatchNorm/FusedBatchNorm/Mul","op":"Conv2D"},{"input":["FeatureExtractor/InceptionV2/InceptionV2/MaxPool_3a_3x3/MaxPool","FeatureExtractor/InceptionV2/InceptionV2/Mixed_3b/Branch_1/Conv2d_0a_1x1/Conv2D/merged_input"],"attr":{"padding":{"s":[83,65,77,69]},"dilations":{"list":{"s":[],"i":["1","1","1","1"],"f":[],"b":[],"type":[],"shape":[],"tensor":[],"func":[]}},"T":{"type":1},"data_format":{"s":[78,72,87,67]},"strides":{"list":{"s":[],"i":["1","1","1","1"],"f":[],"b":[],"type":[],"shape":[],"tensor":[],"func":[]}},"use_cudnn_on_gpu":{"b":true}},"name":"FeatureExtractor/InceptionV2/InceptionV2/Mixed_3b/Branch_1/Conv2d_0a_1x1/BatchNorm/FusedBatchNorm/Mul","op":"Conv2D"},{"input":["FeatureExtractor/InceptionV2/InceptionV2/MaxPool_3a_3x3/MaxPool","FeatureExtractor/InceptionV2/InceptionV2/Mixed_3b/Branch_2/Conv2d_0a_1x1/Conv2D/merged_input"],"attr":{"padding":{"s":[83,65,77,69]},"dilations":{"list":{"s":[],"i":["1","1","1","1"],"f":[],"b":[],"type":[],"shape":[],"tensor":[],"func":[]}},"T":{"type":1},"strides":{"list":{"s":[],"i":["1","1","1","1"],"f":[],"b":[],"type":[],"shape":[],"tensor":[],"func":[]}},"data_format":{"s":[78,72,87,67]},"use_cudnn_on_gpu":{"b":true}},"name":"FeatureExtractor/InceptionV2/InceptionV2/Mixed_3b/Branch_2/Conv2d_0a_1x1/BatchNorm/FusedBatchNorm/Mul","op":"Conv2D"},{"input":["FeatureExtractor/InceptionV2/InceptionV2/MaxPool_3a_3x3/MaxPool"],"attr":{"strides":{"list":{"s":[],"i":["1","1","1","1"],"f":[],"b":[],"type":[],"shape":[],"tensor":[],"func":[]}},"data_format":{"s":[78,72,87,67]},"ksize":{"list":{"s":[],"i":["1","3","3","1"],"f":[],"b":[],"type":[],"shape":[],"tensor":[],"func":[]}},"padding":{"s":[83,65,77,69]},"T":{"type":1}},"name":"FeatureExtractor/InceptionV2/InceptionV2/Mixed_3b/Branch_3/AvgPool_0a_3x3/AvgPool","op":"AvgPool"},{"input":["FeatureExtractor/InceptionV2/InceptionV2/Mixed_3b/Branch_0/Conv2d_0a_1x1/BatchNorm/FusedBatchNorm/Mul","FeatureExtractor/InceptionV2/InceptionV2/Mixed_3b/Branch_0/Conv2d_0a_1x1/BatchNorm/FusedBatchNorm/Offset"],"attr":{"T":{"type":1}},"name":"FeatureExtractor/InceptionV2/InceptionV2/Mixed_3b/Branch_0/Conv2d_0a_1x1/BatchNorm/FusedBatchNorm","op":"Add"},{"input":["FeatureExtractor/InceptionV2/InceptionV2/Mixed_3b/Branch_1/Conv2d_0a_1x1/BatchNorm/FusedBatchNorm/Mul","FeatureExtractor/InceptionV2/InceptionV2/Mixed_3b/Branch_1/Conv2d_0a_1x1/BatchNorm/FusedBatchNorm/Offset"],"attr":{"T":{"type":1}},"name":"FeatureExtractor/InceptionV2/InceptionV2/Mixed_3b/Branch_1/Conv2d_0a_1x1/BatchNorm/FusedBatchNorm","op":"Add"},{"input":["FeatureExtractor/InceptionV2/InceptionV2/Mixed_3b/Branch_2/Conv2d_0a_1x1/BatchNorm/FusedBatchNorm/Mul","FeatureExtractor/InceptionV2/InceptionV2/Mixed_3b/Branch_2/Conv2d_0a_1x1/BatchNorm/FusedBatchNorm/Offset"],"attr":{"T":{"type":1}},"name":"FeatureExtractor/InceptionV2/InceptionV2/Mixed_3b/Branch_2/Conv2d_0a_1x1/BatchNorm/FusedBatchNorm","op":"Add"},{"input":["FeatureExtractor/InceptionV2/InceptionV2/Mixed_3b/Branch_3/AvgPool_0a_3x3/AvgPool","FeatureExtractor/InceptionV2/InceptionV2/Mixed_3b/Branch_3/Conv2d_0b_1x1/Conv2D/merged_input"],"attr":{"dilations":{"list":{"s":[],"i":["1","1","1","1"],"f":[],"b":[],"type":[],"shape":[],"tensor":[],"func":[]}},"T":{"type":1},"data_format":{"s":[78,72,87,67]},"strides":{"list":{"s":[],"i":["1","1","1","1"],"f":[],"b":[],"type":[],"shape":[],"tensor":[],"func":[]}},"use_cudnn_on_gpu":{"b":true},"padding":{"s":[83,65,77,69]}},"name":"FeatureExtractor/InceptionV2/InceptionV2/Mixed_3b/Branch_3/Conv2d_0b_1x1/BatchNorm/FusedBatchNorm/Mul","op":"Conv2D"},{"input":["FeatureExtractor/InceptionV2/InceptionV2/Mixed_3b/Branch_1/Conv2d_0a_1x1/BatchNorm/FusedBatchNorm"],"attr":{"T":{"type":1}},"name":"FeatureExtractor/InceptionV2/InceptionV2/Mixed_3b/Branch_1/Conv2d_0a_1x1/Relu6","op":"Relu6"},{"input":["FeatureExtractor/InceptionV2/InceptionV2/Mixed_3b/Branch_2/Conv2d_0a_1x1/BatchNorm/FusedBatchNorm"],"attr":{"T":{"type":1}},"name":"FeatureExtractor/InceptionV2/InceptionV2/Mixed_3b/Branch_2/Conv2d_0a_1x1/Relu6","op":"Relu6"},{"input":["FeatureExtractor/InceptionV2/InceptionV2/Mixed_3b/Branch_3/Conv2d_0b_1x1/BatchNorm/FusedBatchNorm/Mul","FeatureExtractor/InceptionV2/InceptionV2/Mixed_3b/Branch_3/Conv2d_0b_1x1/BatchNorm/FusedBatchNorm/Offset"],"attr":{"T":{"type":1}},"name":"FeatureExtractor/InceptionV2/InceptionV2/Mixed_3b/Branch_3/Conv2d_0b_1x1/BatchNorm/FusedBatchNorm","op":"Add"},{"input":["FeatureExtractor/InceptionV2/InceptionV2/Mixed_3b/Branch_1/Conv2d_0a_1x1/Relu6","FeatureExtractor/InceptionV2/InceptionV2/Mixed_3b/Branch_1/Conv2d_0b_3x3/Conv2D/merged_input"],"attr":{"dilations":{"list":{"s":[],"i":["1","1","1","1"],"f":[],"b":[],"type":[],"shape":[],"tensor":[],"func":[]}},"T":{"type":1},"data_format":{"s":[78,72,87,67]},"strides":{"list":{"s":[],"i":["1","1","1","1"],"f":[],"b":[],"type":[],"shape":[],"tensor":[],"func":[]}},"use_cudnn_on_gpu":{"b":true},"padding":{"s":[83,65,77,69]}},"name":"FeatureExtractor/InceptionV2/InceptionV2/Mixed_3b/Branch_1/Conv2d_0b_3x3/BatchNorm/FusedBatchNorm/Mul","op":"Conv2D"},{"input":["FeatureExtractor/InceptionV2/InceptionV2/Mixed_3b/Branch_2/Conv2d_0a_1x1/Relu6","FeatureExtractor/InceptionV2/InceptionV2/Mixed_3b/Branch_2/Conv2d_0b_3x3/Conv2D/merged_input"],"attr":{"padding":{"s":[83,65,77,69]},"dilations":{"list":{"s":[],"i":["1","1","1","1"],"f":[],"b":[],"type":[],"shape":[],"tensor":[],"func":[]}},"T":{"type":1},"data_format":{"s":[78,72,87,67]},"strides":{"list":{"s":[],"i":["1","1","1","1"],"f":[],"b":[],"type":[],"shape":[],"tensor":[],"func":[]}},"use_cudnn_on_gpu":{"b":true}},"name":"FeatureExtractor/InceptionV2/InceptionV2/Mixed_3b/Branch_2/Conv2d_0b_3x3/BatchNorm/FusedBatchNorm/Mul","op":"Conv2D"},{"input":["FeatureExtractor/InceptionV2/InceptionV2/Mixed_3b/Branch_1/Conv2d_0b_3x3/BatchNorm/FusedBatchNorm/Mul","FeatureExtractor/InceptionV2/InceptionV2/Mixed_3b/Branch_1/Conv2d_0b_3x3/BatchNorm/FusedBatchNorm/Offset"],"attr":{"T":{"type":1}},"name":"FeatureExtractor/InceptionV2/InceptionV2/Mixed_3b/Branch_1/Conv2d_0b_3x3/BatchNorm/FusedBatchNorm","op":"Add"},{"input":["FeatureExtractor/InceptionV2/InceptionV2/Mixed_3b/Branch_2/Conv2d_0b_3x3/BatchNorm/FusedBatchNorm/Mul","FeatureExtractor/InceptionV2/InceptionV2/Mixed_3b/Branch_2/Conv2d_0b_3x3/BatchNorm/FusedBatchNorm/Offset"],"attr":{"T":{"type":1}},"name":"FeatureExtractor/InceptionV2/InceptionV2/Mixed_3b/Branch_2/Conv2d_0b_3x3/BatchNorm/FusedBatchNorm","op":"Add"},{"input":["FeatureExtractor/InceptionV2/InceptionV2/Mixed_3b/Branch_2/Conv2d_0b_3x3/BatchNorm/FusedBatchNorm"],"attr":{"T":{"type":1}},"name":"FeatureExtractor/InceptionV2/InceptionV2/Mixed_3b/Branch_2/Conv2d_0b_3x3/Relu6","op":"Relu6"},{"input":["FeatureExtractor/InceptionV2/InceptionV2/Mixed_3b/Branch_2/Conv2d_0b_3x3/Relu6","FeatureExtractor/InceptionV2/InceptionV2/Mixed_3b/Branch_2/Conv2d_0c_3x3/Conv2D/merged_input"],"attr":{"padding":{"s":[83,65,77,69]},"dilations":{"list":{"s":[],"i":["1","1","1","1"],"f":[],"b":[],"type":[],"shape":[],"tensor":[],"func":[]}},"T":{"type":1},"data_format":{"s":[78,72,87,67]},"strides":{"list":{"s":[],"i":["1","1","1","1"],"f":[],"b":[],"type":[],"shape":[],"tensor":[],"func":[]}},"use_cudnn_on_gpu":{"b":true}},"name":"FeatureExtractor/InceptionV2/InceptionV2/Mixed_3b/Branch_2/Conv2d_0c_3x3/BatchNorm/FusedBatchNorm/Mul","op":"Conv2D"},{"input":["FeatureExtractor/InceptionV2/InceptionV2/Mixed_3b/Branch_2/Conv2d_0c_3x3/BatchNorm/FusedBatchNorm/Mul","FeatureExtractor/InceptionV2/InceptionV2/Mixed_3b/Branch_2/Conv2d_0c_3x3/BatchNorm/FusedBatchNorm/Offset"],"attr":{"T":{"type":1}},"name":"FeatureExtractor/InceptionV2/InceptionV2/Mixed_3b/Branch_2/Conv2d_0c_3x3/BatchNorm/FusedBatchNorm","op":"Add"},{"input":["FeatureExtractor/InceptionV2/InceptionV2/Mixed_3b/Branch_0/Conv2d_0a_1x1/BatchNorm/FusedBatchNorm","FeatureExtractor/InceptionV2/InceptionV2/Mixed_3b/Branch_1/Conv2d_0b_3x3/BatchNorm/FusedBatchNorm","FeatureExtractor/InceptionV2/InceptionV2/Mixed_3b/Branch_2/Conv2d_0c_3x3/BatchNorm/FusedBatchNorm","FeatureExtractor/InceptionV2/InceptionV2/Mixed_3b/Branch_3/Conv2d_0b_1x1/BatchNorm/FusedBatchNorm","FeatureExtractor/InceptionV2/InceptionV2/Mixed_3b/concat/axis"],"attr":{"N":{"i":"4"},"Tidx":{"type":3},"T":{"type":1}},"name":"FeatureExtractor/InceptionV2/InceptionV2/Mixed_3b/concat","op":"ConcatV2"},{"input":["FeatureExtractor/InceptionV2/InceptionV2/Mixed_3b/concat"],"attr":{"T":{"type":1}},"name":"FeatureExtractor/InceptionV2/InceptionV2/Mixed_3b/Branch_0/Conv2d_0a_1x1/Relu6","op":"Relu6"},{"input":["FeatureExtractor/InceptionV2/InceptionV2/Mixed_3b/Branch_0/Conv2d_0a_1x1/Relu6","FeatureExtractor/InceptionV2/InceptionV2/Mixed_3c/Branch_0/Conv2d_0a_1x1/Conv2D/merged_input"],"attr":{"padding":{"s":[83,65,77,69]},"dilations":{"list":{"s":[],"i":["1","1","1","1"],"f":[],"b":[],"type":[],"shape":[],"tensor":[],"func":[]}},"T":{"type":1},"data_format":{"s":[78,72,87,67]},"strides":{"list":{"s":[],"i":["1","1","1","1"],"f":[],"b":[],"type":[],"shape":[],"tensor":[],"func":[]}},"use_cudnn_on_gpu":{"b":true}},"name":"FeatureExtractor/InceptionV2/InceptionV2/Mixed_3c/Branch_0/Conv2d_0a_1x1/BatchNorm/FusedBatchNorm/Mul","op":"Conv2D"},{"input":["FeatureExtractor/InceptionV2/InceptionV2/Mixed_3b/Branch_0/Conv2d_0a_1x1/Relu6","FeatureExtractor/InceptionV2/InceptionV2/Mixed_3c/Branch_1/Conv2d_0a_1x1/Conv2D/merged_input"],"attr":{"dilations":{"list":{"s":[],"i":["1","1","1","1"],"f":[],"b":[],"type":[],"shape":[],"tensor":[],"func":[]}},"T":{"type":1},"data_format":{"s":[78,72,87,67]},"strides":{"list":{"s":[],"i":["1","1","1","1"],"f":[],"b":[],"type":[],"shape":[],"tensor":[],"func":[]}},"use_cudnn_on_gpu":{"b":true},"padding":{"s":[83,65,77,69]}},"name":"FeatureExtractor/InceptionV2/InceptionV2/Mixed_3c/Branch_1/Conv2d_0a_1x1/BatchNorm/FusedBatchNorm/Mul","op":"Conv2D"},{"input":["FeatureExtractor/InceptionV2/InceptionV2/Mixed_3b/Branch_0/Conv2d_0a_1x1/Relu6","FeatureExtractor/InceptionV2/InceptionV2/Mixed_3c/Branch_2/Conv2d_0a_1x1/Conv2D/merged_input"],"attr":{"padding":{"s":[83,65,77,69]},"dilations":{"list":{"s":[],"i":["1","1","1","1"],"f":[],"b":[],"type":[],"shape":[],"tensor":[],"func":[]}},"T":{"type":1},"data_format":{"s":[78,72,87,67]},"strides":{"list":{"s":[],"i":["1","1","1","1"],"f":[],"b":[],"type":[],"shape":[],"tensor":[],"func":[]}},"use_cudnn_on_gpu":{"b":true}},"name":"FeatureExtractor/InceptionV2/InceptionV2/Mixed_3c/Branch_2/Conv2d_0a_1x1/BatchNorm/FusedBatchNorm/Mul","op":"Conv2D"},{"input":["FeatureExtractor/InceptionV2/InceptionV2/Mixed_3b/Branch_0/Conv2d_0a_1x1/Relu6"],"attr":{"T":{"type":1},"data_format":{"s":[78,72,87,67]},"strides":{"list":{"s":[],"i":["1","1","1","1"],"f":[],"b":[],"type":[],"shape":[],"tensor":[],"func":[]}},"ksize":{"list":{"s":[],"i":["1","3","3","1"],"f":[],"b":[],"type":[],"shape":[],"tensor":[],"func":[]}},"padding":{"s":[83,65,77,69]}},"name":"FeatureExtractor/InceptionV2/InceptionV2/Mixed_3c/Branch_3/AvgPool_0a_3x3/AvgPool","op":"AvgPool"},{"input":["FeatureExtractor/InceptionV2/InceptionV2/Mixed_3c/Branch_0/Conv2d_0a_1x1/BatchNorm/FusedBatchNorm/Mul","FeatureExtractor/InceptionV2/InceptionV2/Mixed_3c/Branch_0/Conv2d_0a_1x1/BatchNorm/FusedBatchNorm/Offset"],"attr":{"T":{"type":1}},"name":"FeatureExtractor/InceptionV2/InceptionV2/Mixed_3c/Branch_0/Conv2d_0a_1x1/BatchNorm/FusedBatchNorm","op":"Add"},{"input":["FeatureExtractor/InceptionV2/InceptionV2/Mixed_3c/Branch_1/Conv2d_0a_1x1/BatchNorm/FusedBatchNorm/Mul","FeatureExtractor/InceptionV2/InceptionV2/Mixed_3c/Branch_1/Conv2d_0a_1x1/BatchNorm/FusedBatchNorm/Offset"],"attr":{"T":{"type":1}},"name":"FeatureExtractor/InceptionV2/InceptionV2/Mixed_3c/Branch_1/Conv2d_0a_1x1/BatchNorm/FusedBatchNorm","op":"Add"},{"input":["FeatureExtractor/InceptionV2/InceptionV2/Mixed_3c/Branch_2/Conv2d_0a_1x1/BatchNorm/FusedBatchNorm/Mul","FeatureExtractor/InceptionV2/InceptionV2/Mixed_3c/Branch_2/Conv2d_0a_1x1/BatchNorm/FusedBatchNorm/Offset"],"attr":{"T":{"type":1}},"name":"FeatureExtractor/InceptionV2/InceptionV2/Mixed_3c/Branch_2/Conv2d_0a_1x1/BatchNorm/FusedBatchNorm","op":"Add"},{"input":["FeatureExtractor/InceptionV2/InceptionV2/Mixed_3c/Branch_3/AvgPool_0a_3x3/AvgPool","FeatureExtractor/InceptionV2/InceptionV2/Mixed_3c/Branch_3/Conv2d_0b_1x1/Conv2D/merged_input"],"attr":{"dilations":{"list":{"s":[],"i":["1","1","1","1"],"f":[],"b":[],"type":[],"shape":[],"tensor":[],"func":[]}},"T":{"type":1},"data_format":{"s":[78,72,87,67]},"strides":{"list":{"s":[],"i":["1","1","1","1"],"f":[],"b":[],"type":[],"shape":[],"tensor":[],"func":[]}},"use_cudnn_on_gpu":{"b":true},"padding":{"s":[83,65,77,69]}},"name":"FeatureExtractor/InceptionV2/InceptionV2/Mixed_3c/Branch_3/Conv2d_0b_1x1/BatchNorm/FusedBatchNorm/Mul","op":"Conv2D"},{"input":["FeatureExtractor/InceptionV2/InceptionV2/Mixed_3c/Branch_1/Conv2d_0a_1x1/BatchNorm/FusedBatchNorm"],"attr":{"T":{"type":1}},"name":"FeatureExtractor/InceptionV2/InceptionV2/Mixed_3c/Branch_1/Conv2d_0a_1x1/Relu6","op":"Relu6"},{"input":["FeatureExtractor/InceptionV2/InceptionV2/Mixed_3c/Branch_2/Conv2d_0a_1x1/BatchNorm/FusedBatchNorm"],"attr":{"T":{"type":1}},"name":"FeatureExtractor/InceptionV2/InceptionV2/Mixed_3c/Branch_2/Conv2d_0a_1x1/Relu6","op":"Relu6"},{"input":["FeatureExtractor/InceptionV2/InceptionV2/Mixed_3c/Branch_3/Conv2d_0b_1x1/BatchNorm/FusedBatchNorm/Mul","FeatureExtractor/InceptionV2/InceptionV2/Mixed_3c/Branch_3/Conv2d_0b_1x1/BatchNorm/FusedBatchNorm/Offset"],"attr":{"T":{"type":1}},"name":"FeatureExtractor/InceptionV2/InceptionV2/Mixed_3c/Branch_3/Conv2d_0b_1x1/BatchNorm/FusedBatchNorm","op":"Add"},{"input":["FeatureExtractor/InceptionV2/InceptionV2/Mixed_3c/Branch_1/Conv2d_0a_1x1/Relu6","FeatureExtractor/InceptionV2/InceptionV2/Mixed_3c/Branch_1/Conv2d_0b_3x3/Conv2D/merged_input"],"attr":{"dilations":{"list":{"s":[],"i":["1","1","1","1"],"f":[],"b":[],"type":[],"shape":[],"tensor":[],"func":[]}},"T":{"type":1},"data_format":{"s":[78,72,87,67]},"strides":{"list":{"s":[],"i":["1","1","1","1"],"f":[],"b":[],"type":[],"shape":[],"tensor":[],"func":[]}},"use_cudnn_on_gpu":{"b":true},"padding":{"s":[83,65,77,69]}},"name":"FeatureExtractor/InceptionV2/InceptionV2/Mixed_3c/Branch_1/Conv2d_0b_3x3/BatchNorm/FusedBatchNorm/Mul","op":"Conv2D"},{"input":["FeatureExtractor/InceptionV2/InceptionV2/Mixed_3c/Branch_2/Conv2d_0a_1x1/Relu6","FeatureExtractor/InceptionV2/InceptionV2/Mixed_3c/Branch_2/Conv2d_0b_3x3/Conv2D/merged_input"],"attr":{"data_format":{"s":[78,72,87,67]},"strides":{"list":{"s":[],"i":["1","1","1","1"],"f":[],"b":[],"type":[],"shape":[],"tensor":[],"func":[]}},"use_cudnn_on_gpu":{"b":true},"padding":{"s":[83,65,77,69]},"dilations":{"list":{"s":[],"i":["1","1","1","1"],"f":[],"b":[],"type":[],"shape":[],"tensor":[],"func":[]}},"T":{"type":1}},"name":"FeatureExtractor/InceptionV2/InceptionV2/Mixed_3c/Branch_2/Conv2d_0b_3x3/BatchNorm/FusedBatchNorm/Mul","op":"Conv2D"},{"input":["FeatureExtractor/InceptionV2/InceptionV2/Mixed_3c/Branch_1/Conv2d_0b_3x3/BatchNorm/FusedBatchNorm/Mul","FeatureExtractor/InceptionV2/InceptionV2/Mixed_3c/Branch_1/Conv2d_0b_3x3/BatchNorm/FusedBatchNorm/Offset"],"attr":{"T":{"type":1}},"name":"FeatureExtractor/InceptionV2/InceptionV2/Mixed_3c/Branch_1/Conv2d_0b_3x3/BatchNorm/FusedBatchNorm","op":"Add"},{"input":["FeatureExtractor/InceptionV2/InceptionV2/Mixed_3c/Branch_2/Conv2d_0b_3x3/BatchNorm/FusedBatchNorm/Mul","FeatureExtractor/InceptionV2/InceptionV2/Mixed_3c/Branch_2/Conv2d_0b_3x3/BatchNorm/FusedBatchNorm/Offset"],"attr":{"T":{"type":1}},"name":"FeatureExtractor/InceptionV2/InceptionV2/Mixed_3c/Branch_2/Conv2d_0b_3x3/BatchNorm/FusedBatchNorm","op":"Add"},{"input":["FeatureExtractor/InceptionV2/InceptionV2/Mixed_3c/Branch_2/Conv2d_0b_3x3/BatchNorm/FusedBatchNorm"],"attr":{"T":{"type":1}},"name":"FeatureExtractor/InceptionV2/InceptionV2/Mixed_3c/Branch_2/Conv2d_0b_3x3/Relu6","op":"Relu6"},{"input":["FeatureExtractor/InceptionV2/InceptionV2/Mixed_3c/Branch_2/Conv2d_0b_3x3/Relu6","FeatureExtractor/InceptionV2/InceptionV2/Mixed_3c/Branch_2/Conv2d_0c_3x3/Conv2D/merged_input"],"attr":{"data_format":{"s":[78,72,87,67]},"strides":{"list":{"s":[],"i":["1","1","1","1"],"f":[],"b":[],"type":[],"shape":[],"tensor":[],"func":[]}},"use_cudnn_on_gpu":{"b":true},"padding":{"s":[83,65,77,69]},"dilations":{"list":{"s":[],"i":["1","1","1","1"],"f":[],"b":[],"type":[],"shape":[],"tensor":[],"func":[]}},"T":{"type":1}},"name":"FeatureExtractor/InceptionV2/InceptionV2/Mixed_3c/Branch_2/Conv2d_0c_3x3/BatchNorm/FusedBatchNorm/Mul","op":"Conv2D"},{"input":["FeatureExtractor/InceptionV2/InceptionV2/Mixed_3c/Branch_2/Conv2d_0c_3x3/BatchNorm/FusedBatchNorm/Mul","FeatureExtractor/InceptionV2/InceptionV2/Mixed_3c/Branch_2/Conv2d_0c_3x3/BatchNorm/FusedBatchNorm/Offset"],"attr":{"T":{"type":1}},"name":"FeatureExtractor/InceptionV2/InceptionV2/Mixed_3c/Branch_2/Conv2d_0c_3x3/BatchNorm/FusedBatchNorm","op":"Add"},{"input":["FeatureExtractor/InceptionV2/InceptionV2/Mixed_3c/Branch_0/Conv2d_0a_1x1/BatchNorm/FusedBatchNorm","FeatureExtractor/InceptionV2/InceptionV2/Mixed_3c/Branch_1/Conv2d_0b_3x3/BatchNorm/FusedBatchNorm","FeatureExtractor/InceptionV2/InceptionV2/Mixed_3c/Branch_2/Conv2d_0c_3x3/BatchNorm/FusedBatchNorm","FeatureExtractor/InceptionV2/InceptionV2/Mixed_3c/Branch_3/Conv2d_0b_1x1/BatchNorm/FusedBatchNorm","FeatureExtractor/InceptionV2/InceptionV2/Mixed_3b/concat/axis"],"attr":{"Tidx":{"type":3},"T":{"type":1},"N":{"i":"4"}},"name":"FeatureExtractor/InceptionV2/InceptionV2/Mixed_3c/concat","op":"ConcatV2"},{"input":["FeatureExtractor/InceptionV2/InceptionV2/Mixed_3c/concat"],"attr":{"T":{"type":1}},"name":"FeatureExtractor/InceptionV2/InceptionV2/Mixed_3c/Branch_0/Conv2d_0a_1x1/Relu6","op":"Relu6"},{"input":["FeatureExtractor/InceptionV2/InceptionV2/Mixed_3c/Branch_0/Conv2d_0a_1x1/Relu6","FeatureExtractor/InceptionV2/InceptionV2/Mixed_4a/Branch_0/Conv2d_0a_1x1/Conv2D/merged_input"],"attr":{"padding":{"s":[83,65,77,69]},"dilations":{"list":{"s":[],"i":["1","1","1","1"],"f":[],"b":[],"type":[],"shape":[],"tensor":[],"func":[]}},"T":{"type":1},"strides":{"list":{"s":[],"i":["1","1","1","1"],"f":[],"b":[],"type":[],"shape":[],"tensor":[],"func":[]}},"data_format":{"s":[78,72,87,67]},"use_cudnn_on_gpu":{"b":true}},"name":"FeatureExtractor/InceptionV2/InceptionV2/Mixed_4a/Branch_0/Conv2d_0a_1x1/BatchNorm/FusedBatchNorm/Mul","op":"Conv2D"},{"input":["FeatureExtractor/InceptionV2/InceptionV2/Mixed_3c/Branch_0/Conv2d_0a_1x1/Relu6","FeatureExtractor/InceptionV2/InceptionV2/Mixed_4a/Branch_1/Conv2d_0a_1x1/Conv2D/merged_input"],"attr":{"dilations":{"list":{"s":[],"i":["1","1","1","1"],"f":[],"b":[],"type":[],"shape":[],"tensor":[],"func":[]}},"T":{"type":1},"data_format":{"s":[78,72,87,67]},"strides":{"list":{"s":[],"i":["1","1","1","1"],"f":[],"b":[],"type":[],"shape":[],"tensor":[],"func":[]}},"use_cudnn_on_gpu":{"b":true},"padding":{"s":[83,65,77,69]}},"name":"FeatureExtractor/InceptionV2/InceptionV2/Mixed_4a/Branch_1/Conv2d_0a_1x1/BatchNorm/FusedBatchNorm/Mul","op":"Conv2D"},{"input":["FeatureExtractor/InceptionV2/InceptionV2/Mixed_3c/Branch_0/Conv2d_0a_1x1/Relu6"],"attr":{"padding":{"s":[83,65,77,69]},"T":{"type":1},"data_format":{"s":[78,72,87,67]},"strides":{"list":{"s":[],"i":["1","2","2","1"],"f":[],"b":[],"type":[],"shape":[],"tensor":[],"func":[]}},"ksize":{"list":{"s":[],"i":["1","3","3","1"],"f":[],"b":[],"type":[],"shape":[],"tensor":[],"func":[]}}},"name":"FeatureExtractor/InceptionV2/InceptionV2/Mixed_4a/Branch_2/MaxPool_1a_3x3/MaxPool","op":"MaxPool"},{"input":["FeatureExtractor/InceptionV2/InceptionV2/Mixed_4a/Branch_0/Conv2d_0a_1x1/BatchNorm/FusedBatchNorm/Mul","FeatureExtractor/InceptionV2/InceptionV2/Mixed_4a/Branch_0/Conv2d_0a_1x1/BatchNorm/FusedBatchNorm/Offset"],"attr":{"T":{"type":1}},"name":"FeatureExtractor/InceptionV2/InceptionV2/Mixed_4a/Branch_0/Conv2d_0a_1x1/BatchNorm/FusedBatchNorm","op":"Add"},{"input":["FeatureExtractor/InceptionV2/InceptionV2/Mixed_4a/Branch_1/Conv2d_0a_1x1/BatchNorm/FusedBatchNorm/Mul","FeatureExtractor/InceptionV2/InceptionV2/Mixed_4a/Branch_1/Conv2d_0a_1x1/BatchNorm/FusedBatchNorm/Offset"],"attr":{"T":{"type":1}},"name":"FeatureExtractor/InceptionV2/InceptionV2/Mixed_4a/Branch_1/Conv2d_0a_1x1/BatchNorm/FusedBatchNorm","op":"Add"},{"input":["FeatureExtractor/InceptionV2/InceptionV2/Mixed_4a/Branch_0/Conv2d_0a_1x1/BatchNorm/FusedBatchNorm"],"attr":{"T":{"type":1}},"name":"FeatureExtractor/InceptionV2/InceptionV2/Mixed_4a/Branch_0/Conv2d_0a_1x1/Relu6","op":"Relu6"},{"input":["FeatureExtractor/InceptionV2/InceptionV2/Mixed_4a/Branch_1/Conv2d_0a_1x1/BatchNorm/FusedBatchNorm"],"attr":{"T":{"type":1}},"name":"FeatureExtractor/InceptionV2/InceptionV2/Mixed_4a/Branch_1/Conv2d_0a_1x1/Relu6","op":"Relu6"},{"input":["FeatureExtractor/InceptionV2/InceptionV2/Mixed_4a/Branch_0/Conv2d_0a_1x1/Relu6","FeatureExtractor/InceptionV2/InceptionV2/Mixed_4a/Branch_0/Conv2d_1a_3x3/Conv2D/merged_input"],"attr":{"dilations":{"list":{"s":[],"i":["1","1","1","1"],"f":[],"b":[],"type":[],"shape":[],"tensor":[],"func":[]}},"T":{"type":1},"strides":{"list":{"s":[],"i":["1","2","2","1"],"f":[],"b":[],"type":[],"shape":[],"tensor":[],"func":[]}},"data_format":{"s":[78,72,87,67]},"use_cudnn_on_gpu":{"b":true},"padding":{"s":[83,65,77,69]}},"name":"FeatureExtractor/InceptionV2/InceptionV2/Mixed_4a/Branch_0/Conv2d_1a_3x3/BatchNorm/FusedBatchNorm/Mul","op":"Conv2D"},{"input":["FeatureExtractor/InceptionV2/InceptionV2/Mixed_4a/Branch_1/Conv2d_0a_1x1/Relu6","FeatureExtractor/InceptionV2/InceptionV2/Mixed_4a/Branch_1/Conv2d_0b_3x3/Conv2D/merged_input"],"attr":{"dilations":{"list":{"s":[],"i":["1","1","1","1"],"f":[],"b":[],"type":[],"shape":[],"tensor":[],"func":[]}},"T":{"type":1},"strides":{"list":{"s":[],"i":["1","1","1","1"],"f":[],"b":[],"type":[],"shape":[],"tensor":[],"func":[]}},"data_format":{"s":[78,72,87,67]},"use_cudnn_on_gpu":{"b":true},"padding":{"s":[83,65,77,69]}},"name":"FeatureExtractor/InceptionV2/InceptionV2/Mixed_4a/Branch_1/Conv2d_0b_3x3/BatchNorm/FusedBatchNorm/Mul","op":"Conv2D"},{"input":["FeatureExtractor/InceptionV2/InceptionV2/Mixed_4a/Branch_0/Conv2d_1a_3x3/BatchNorm/FusedBatchNorm/Mul","FeatureExtractor/InceptionV2/InceptionV2/Mixed_4a/Branch_0/Conv2d_1a_3x3/BatchNorm/FusedBatchNorm/Offset"],"attr":{"T":{"type":1}},"name":"FeatureExtractor/InceptionV2/InceptionV2/Mixed_4a/Branch_0/Conv2d_1a_3x3/BatchNorm/FusedBatchNorm","op":"Add"},{"input":["FeatureExtractor/InceptionV2/InceptionV2/Mixed_4a/Branch_1/Conv2d_0b_3x3/BatchNorm/FusedBatchNorm/Mul","FeatureExtractor/InceptionV2/InceptionV2/Mixed_4a/Branch_1/Conv2d_0b_3x3/BatchNorm/FusedBatchNorm/Offset"],"attr":{"T":{"type":1}},"name":"FeatureExtractor/InceptionV2/InceptionV2/Mixed_4a/Branch_1/Conv2d_0b_3x3/BatchNorm/FusedBatchNorm","op":"Add"},{"input":["FeatureExtractor/InceptionV2/InceptionV2/Mixed_4a/Branch_0/Conv2d_1a_3x3/BatchNorm/FusedBatchNorm"],"attr":{"T":{"type":1}},"name":"FeatureExtractor/InceptionV2/InceptionV2/Mixed_4a/Branch_0/Conv2d_1a_3x3/Relu6","op":"Relu6"},{"input":["FeatureExtractor/InceptionV2/InceptionV2/Mixed_4a/Branch_1/Conv2d_0b_3x3/BatchNorm/FusedBatchNorm"],"attr":{"T":{"type":1}},"name":"FeatureExtractor/InceptionV2/InceptionV2/Mixed_4a/Branch_1/Conv2d_0b_3x3/Relu6","op":"Relu6"},{"input":["FeatureExtractor/InceptionV2/InceptionV2/Mixed_4a/Branch_1/Conv2d_0b_3x3/Relu6","FeatureExtractor/InceptionV2/InceptionV2/Mixed_4a/Branch_1/Conv2d_1a_3x3/Conv2D/merged_input"],"attr":{"dilations":{"list":{"s":[],"i":["1","1","1","1"],"f":[],"b":[],"type":[],"shape":[],"tensor":[],"func":[]}},"T":{"type":1},"data_format":{"s":[78,72,87,67]},"strides":{"list":{"s":[],"i":["1","2","2","1"],"f":[],"b":[],"type":[],"shape":[],"tensor":[],"func":[]}},"use_cudnn_on_gpu":{"b":true},"padding":{"s":[83,65,77,69]}},"name":"FeatureExtractor/InceptionV2/InceptionV2/Mixed_4a/Branch_1/Conv2d_1a_3x3/BatchNorm/FusedBatchNorm/Mul","op":"Conv2D"},{"input":["FeatureExtractor/InceptionV2/InceptionV2/Mixed_4a/Branch_1/Conv2d_1a_3x3/BatchNorm/FusedBatchNorm/Mul","FeatureExtractor/InceptionV2/InceptionV2/Mixed_4a/Branch_1/Conv2d_1a_3x3/BatchNorm/FusedBatchNorm/Offset"],"attr":{"T":{"type":1}},"name":"FeatureExtractor/InceptionV2/InceptionV2/Mixed_4a/Branch_1/Conv2d_1a_3x3/BatchNorm/FusedBatchNorm","op":"Add"},{"input":["FeatureExtractor/InceptionV2/InceptionV2/Mixed_4a/Branch_1/Conv2d_1a_3x3/BatchNorm/FusedBatchNorm"],"attr":{"T":{"type":1}},"name":"FeatureExtractor/InceptionV2/InceptionV2/Mixed_4a/Branch_1/Conv2d_1a_3x3/Relu6","op":"Relu6"},{"input":["FeatureExtractor/InceptionV2/InceptionV2/Mixed_4a/Branch_0/Conv2d_1a_3x3/Relu6","FeatureExtractor/InceptionV2/InceptionV2/Mixed_4a/Branch_1/Conv2d_1a_3x3/Relu6","FeatureExtractor/InceptionV2/InceptionV2/Mixed_4a/Branch_2/MaxPool_1a_3x3/MaxPool","FeatureExtractor/InceptionV2/InceptionV2/Mixed_3b/concat/axis"],"attr":{"Tidx":{"type":3},"T":{"type":1},"N":{"i":"3"}},"name":"FeatureExtractor/InceptionV2/InceptionV2/Mixed_4a/concat","op":"ConcatV2"},{"input":["FeatureExtractor/InceptionV2/InceptionV2/Mixed_4a/concat","FeatureExtractor/InceptionV2/InceptionV2/Mixed_4b/Branch_0/Conv2d_0a_1x1/Conv2D/merged_input"],"attr":{"data_format":{"s":[78,72,87,67]},"strides":{"list":{"s":[],"i":["1","1","1","1"],"f":[],"b":[],"type":[],"shape":[],"tensor":[],"func":[]}},"use_cudnn_on_gpu":{"b":true},"padding":{"s":[83,65,77,69]},"dilations":{"list":{"s":[],"i":["1","1","1","1"],"f":[],"b":[],"type":[],"shape":[],"tensor":[],"func":[]}},"T":{"type":1}},"name":"FeatureExtractor/InceptionV2/InceptionV2/Mixed_4b/Branch_0/Conv2d_0a_1x1/BatchNorm/FusedBatchNorm/Mul","op":"Conv2D"},{"input":["FeatureExtractor/InceptionV2/InceptionV2/Mixed_4a/concat","FeatureExtractor/InceptionV2/InceptionV2/Mixed_4b/Branch_1/Conv2d_0a_1x1/Conv2D/merged_input"],"attr":{"data_format":{"s":[78,72,87,67]},"strides":{"list":{"s":[],"i":["1","1","1","1"],"f":[],"b":[],"type":[],"shape":[],"tensor":[],"func":[]}},"use_cudnn_on_gpu":{"b":true},"padding":{"s":[83,65,77,69]},"dilations":{"list":{"s":[],"i":["1","1","1","1"],"f":[],"b":[],"type":[],"shape":[],"tensor":[],"func":[]}},"T":{"type":1}},"name":"FeatureExtractor/InceptionV2/InceptionV2/Mixed_4b/Branch_1/Conv2d_0a_1x1/BatchNorm/FusedBatchNorm/Mul","op":"Conv2D"},{"input":["FeatureExtractor/InceptionV2/InceptionV2/Mixed_4a/concat","FeatureExtractor/InceptionV2/InceptionV2/Mixed_4b/Branch_2/Conv2d_0a_1x1/Conv2D/merged_input"],"attr":{"dilations":{"list":{"s":[],"i":["1","1","1","1"],"f":[],"b":[],"type":[],"shape":[],"tensor":[],"func":[]}},"T":{"type":1},"data_format":{"s":[78,72,87,67]},"strides":{"list":{"s":[],"i":["1","1","1","1"],"f":[],"b":[],"type":[],"shape":[],"tensor":[],"func":[]}},"use_cudnn_on_gpu":{"b":true},"padding":{"s":[83,65,77,69]}},"name":"FeatureExtractor/InceptionV2/InceptionV2/Mixed_4b/Branch_2/Conv2d_0a_1x1/BatchNorm/FusedBatchNorm/Mul","op":"Conv2D"},{"input":["FeatureExtractor/InceptionV2/InceptionV2/Mixed_4a/concat"],"attr":{"ksize":{"list":{"s":[],"i":["1","3","3","1"],"f":[],"b":[],"type":[],"shape":[],"tensor":[],"func":[]}},"padding":{"s":[83,65,77,69]},"T":{"type":1},"strides":{"list":{"s":[],"i":["1","1","1","1"],"f":[],"b":[],"type":[],"shape":[],"tensor":[],"func":[]}},"data_format":{"s":[78,72,87,67]}},"name":"FeatureExtractor/InceptionV2/InceptionV2/Mixed_4b/Branch_3/AvgPool_0a_3x3/AvgPool","op":"AvgPool"},{"input":["FeatureExtractor/InceptionV2/InceptionV2/Mixed_4b/Branch_0/Conv2d_0a_1x1/BatchNorm/FusedBatchNorm/Mul","FeatureExtractor/InceptionV2/InceptionV2/Mixed_4b/Branch_0/Conv2d_0a_1x1/BatchNorm/FusedBatchNorm/Offset"],"attr":{"T":{"type":1}},"name":"FeatureExtractor/InceptionV2/InceptionV2/Mixed_4b/Branch_0/Conv2d_0a_1x1/BatchNorm/FusedBatchNorm","op":"Add"},{"input":["FeatureExtractor/InceptionV2/InceptionV2/Mixed_4b/Branch_1/Conv2d_0a_1x1/BatchNorm/FusedBatchNorm/Mul","FeatureExtractor/InceptionV2/InceptionV2/Mixed_4b/Branch_1/Conv2d_0a_1x1/BatchNorm/FusedBatchNorm/Offset"],"attr":{"T":{"type":1}},"name":"FeatureExtractor/InceptionV2/InceptionV2/Mixed_4b/Branch_1/Conv2d_0a_1x1/BatchNorm/FusedBatchNorm","op":"Add"},{"input":["FeatureExtractor/InceptionV2/InceptionV2/Mixed_4b/Branch_2/Conv2d_0a_1x1/BatchNorm/FusedBatchNorm/Mul","FeatureExtractor/InceptionV2/InceptionV2/Mixed_4b/Branch_2/Conv2d_0a_1x1/BatchNorm/FusedBatchNorm/Offset"],"attr":{"T":{"type":1}},"name":"FeatureExtractor/InceptionV2/InceptionV2/Mixed_4b/Branch_2/Conv2d_0a_1x1/BatchNorm/FusedBatchNorm","op":"Add"},{"input":["FeatureExtractor/InceptionV2/InceptionV2/Mixed_4b/Branch_3/AvgPool_0a_3x3/AvgPool","FeatureExtractor/InceptionV2/InceptionV2/Mixed_4b/Branch_3/Conv2d_0b_1x1/Conv2D/merged_input"],"attr":{"padding":{"s":[83,65,77,69]},"dilations":{"list":{"s":[],"i":["1","1","1","1"],"f":[],"b":[],"type":[],"shape":[],"tensor":[],"func":[]}},"T":{"type":1},"data_format":{"s":[78,72,87,67]},"strides":{"list":{"s":[],"i":["1","1","1","1"],"f":[],"b":[],"type":[],"shape":[],"tensor":[],"func":[]}},"use_cudnn_on_gpu":{"b":true}},"name":"FeatureExtractor/InceptionV2/InceptionV2/Mixed_4b/Branch_3/Conv2d_0b_1x1/BatchNorm/FusedBatchNorm/Mul","op":"Conv2D"},{"input":["FeatureExtractor/InceptionV2/InceptionV2/Mixed_4b/Branch_1/Conv2d_0a_1x1/BatchNorm/FusedBatchNorm"],"attr":{"T":{"type":1}},"name":"FeatureExtractor/InceptionV2/InceptionV2/Mixed_4b/Branch_1/Conv2d_0a_1x1/Relu6","op":"Relu6"},{"input":["FeatureExtractor/InceptionV2/InceptionV2/Mixed_4b/Branch_2/Conv2d_0a_1x1/BatchNorm/FusedBatchNorm"],"attr":{"T":{"type":1}},"name":"FeatureExtractor/InceptionV2/InceptionV2/Mixed_4b/Branch_2/Conv2d_0a_1x1/Relu6","op":"Relu6"},{"input":["FeatureExtractor/InceptionV2/InceptionV2/Mixed_4b/Branch_3/Conv2d_0b_1x1/BatchNorm/FusedBatchNorm/Mul","FeatureExtractor/InceptionV2/InceptionV2/Mixed_4b/Branch_3/Conv2d_0b_1x1/BatchNorm/FusedBatchNorm/Offset"],"attr":{"T":{"type":1}},"name":"FeatureExtractor/InceptionV2/InceptionV2/Mixed_4b/Branch_3/Conv2d_0b_1x1/BatchNorm/FusedBatchNorm","op":"Add"},{"input":["FeatureExtractor/InceptionV2/InceptionV2/Mixed_4b/Branch_1/Conv2d_0a_1x1/Relu6","FeatureExtractor/InceptionV2/InceptionV2/Mixed_4b/Branch_1/Conv2d_0b_3x3/Conv2D/merged_input"],"attr":{"dilations":{"list":{"s":[],"i":["1","1","1","1"],"f":[],"b":[],"type":[],"shape":[],"tensor":[],"func":[]}},"T":{"type":1},"data_format":{"s":[78,72,87,67]},"strides":{"list":{"s":[],"i":["1","1","1","1"],"f":[],"b":[],"type":[],"shape":[],"tensor":[],"func":[]}},"use_cudnn_on_gpu":{"b":true},"padding":{"s":[83,65,77,69]}},"name":"FeatureExtractor/InceptionV2/InceptionV2/Mixed_4b/Branch_1/Conv2d_0b_3x3/BatchNorm/FusedBatchNorm/Mul","op":"Conv2D"},{"input":["FeatureExtractor/InceptionV2/InceptionV2/Mixed_4b/Branch_2/Conv2d_0a_1x1/Relu6","FeatureExtractor/InceptionV2/InceptionV2/Mixed_4b/Branch_2/Conv2d_0b_3x3/Conv2D/merged_input"],"attr":{"dilations":{"list":{"s":[],"i":["1","1","1","1"],"f":[],"b":[],"type":[],"shape":[],"tensor":[],"func":[]}},"T":{"type":1},"strides":{"list":{"s":[],"i":["1","1","1","1"],"f":[],"b":[],"type":[],"shape":[],"tensor":[],"func":[]}},"data_format":{"s":[78,72,87,67]},"use_cudnn_on_gpu":{"b":true},"padding":{"s":[83,65,77,69]}},"name":"FeatureExtractor/InceptionV2/InceptionV2/Mixed_4b/Branch_2/Conv2d_0b_3x3/BatchNorm/FusedBatchNorm/Mul","op":"Conv2D"},{"input":["FeatureExtractor/InceptionV2/InceptionV2/Mixed_4b/Branch_1/Conv2d_0b_3x3/BatchNorm/FusedBatchNorm/Mul","FeatureExtractor/InceptionV2/InceptionV2/Mixed_4b/Branch_1/Conv2d_0b_3x3/BatchNorm/FusedBatchNorm/Offset"],"attr":{"T":{"type":1}},"name":"FeatureExtractor/InceptionV2/InceptionV2/Mixed_4b/Branch_1/Conv2d_0b_3x3/BatchNorm/FusedBatchNorm","op":"Add"},{"input":["FeatureExtractor/InceptionV2/InceptionV2/Mixed_4b/Branch_2/Conv2d_0b_3x3/BatchNorm/FusedBatchNorm/Mul","FeatureExtractor/InceptionV2/InceptionV2/Mixed_4b/Branch_2/Conv2d_0b_3x3/BatchNorm/FusedBatchNorm/Offset"],"attr":{"T":{"type":1}},"name":"FeatureExtractor/InceptionV2/InceptionV2/Mixed_4b/Branch_2/Conv2d_0b_3x3/BatchNorm/FusedBatchNorm","op":"Add"},{"input":["FeatureExtractor/InceptionV2/InceptionV2/Mixed_4b/Branch_2/Conv2d_0b_3x3/BatchNorm/FusedBatchNorm"],"attr":{"T":{"type":1}},"name":"FeatureExtractor/InceptionV2/InceptionV2/Mixed_4b/Branch_2/Conv2d_0b_3x3/Relu6","op":"Relu6"},{"input":["FeatureExtractor/InceptionV2/InceptionV2/Mixed_4b/Branch_2/Conv2d_0b_3x3/Relu6","FeatureExtractor/InceptionV2/InceptionV2/Mixed_4b/Branch_2/Conv2d_0c_3x3/Conv2D/merged_input"],"attr":{"padding":{"s":[83,65,77,69]},"dilations":{"list":{"s":[],"i":["1","1","1","1"],"f":[],"b":[],"type":[],"shape":[],"tensor":[],"func":[]}},"T":{"type":1},"strides":{"list":{"s":[],"i":["1","1","1","1"],"f":[],"b":[],"type":[],"shape":[],"tensor":[],"func":[]}},"data_format":{"s":[78,72,87,67]},"use_cudnn_on_gpu":{"b":true}},"name":"FeatureExtractor/InceptionV2/InceptionV2/Mixed_4b/Branch_2/Conv2d_0c_3x3/BatchNorm/FusedBatchNorm/Mul","op":"Conv2D"},{"input":["FeatureExtractor/InceptionV2/InceptionV2/Mixed_4b/Branch_2/Conv2d_0c_3x3/BatchNorm/FusedBatchNorm/Mul","FeatureExtractor/InceptionV2/InceptionV2/Mixed_4b/Branch_2/Conv2d_0c_3x3/BatchNorm/FusedBatchNorm/Offset"],"attr":{"T":{"type":1}},"name":"FeatureExtractor/InceptionV2/InceptionV2/Mixed_4b/Branch_2/Conv2d_0c_3x3/BatchNorm/FusedBatchNorm","op":"Add"},{"input":["FeatureExtractor/InceptionV2/InceptionV2/Mixed_4b/Branch_0/Conv2d_0a_1x1/BatchNorm/FusedBatchNorm","FeatureExtractor/InceptionV2/InceptionV2/Mixed_4b/Branch_1/Conv2d_0b_3x3/BatchNorm/FusedBatchNorm","FeatureExtractor/InceptionV2/InceptionV2/Mixed_4b/Branch_2/Conv2d_0c_3x3/BatchNorm/FusedBatchNorm","FeatureExtractor/InceptionV2/InceptionV2/Mixed_4b/Branch_3/Conv2d_0b_1x1/BatchNorm/FusedBatchNorm","FeatureExtractor/InceptionV2/InceptionV2/Mixed_3b/concat/axis"],"attr":{"Tidx":{"type":3},"T":{"type":1},"N":{"i":"4"}},"name":"FeatureExtractor/InceptionV2/InceptionV2/Mixed_4b/concat","op":"ConcatV2"},{"input":["FeatureExtractor/InceptionV2/InceptionV2/Mixed_4b/concat"],"attr":{"T":{"type":1}},"name":"FeatureExtractor/InceptionV2/InceptionV2/Mixed_4b/Branch_0/Conv2d_0a_1x1/Relu6","op":"Relu6"},{"input":["FeatureExtractor/InceptionV2/InceptionV2/Mixed_4b/Branch_0/Conv2d_0a_1x1/Relu6","FeatureExtractor/InceptionV2/InceptionV2/Mixed_4c/Branch_0/Conv2d_0a_1x1/Conv2D/merged_input"],"attr":{"dilations":{"list":{"s":[],"i":["1","1","1","1"],"f":[],"b":[],"type":[],"shape":[],"tensor":[],"func":[]}},"T":{"type":1},"data_format":{"s":[78,72,87,67]},"strides":{"list":{"s":[],"i":["1","1","1","1"],"f":[],"b":[],"type":[],"shape":[],"tensor":[],"func":[]}},"use_cudnn_on_gpu":{"b":true},"padding":{"s":[83,65,77,69]}},"name":"FeatureExtractor/InceptionV2/InceptionV2/Mixed_4c/Branch_0/Conv2d_0a_1x1/BatchNorm/FusedBatchNorm/Mul","op":"Conv2D"},{"input":["FeatureExtractor/InceptionV2/InceptionV2/Mixed_4b/Branch_0/Conv2d_0a_1x1/Relu6","FeatureExtractor/InceptionV2/InceptionV2/Mixed_4c/Branch_1/Conv2d_0a_1x1/Conv2D/merged_input"],"attr":{"data_format":{"s":[78,72,87,67]},"strides":{"list":{"s":[],"i":["1","1","1","1"],"f":[],"b":[],"type":[],"shape":[],"tensor":[],"func":[]}},"use_cudnn_on_gpu":{"b":true},"padding":{"s":[83,65,77,69]},"dilations":{"list":{"s":[],"i":["1","1","1","1"],"f":[],"b":[],"type":[],"shape":[],"tensor":[],"func":[]}},"T":{"type":1}},"name":"FeatureExtractor/InceptionV2/InceptionV2/Mixed_4c/Branch_1/Conv2d_0a_1x1/BatchNorm/FusedBatchNorm/Mul","op":"Conv2D"},{"input":["FeatureExtractor/InceptionV2/InceptionV2/Mixed_4b/Branch_0/Conv2d_0a_1x1/Relu6","FeatureExtractor/InceptionV2/InceptionV2/Mixed_4c/Branch_2/Conv2d_0a_1x1/Conv2D/merged_input"],"attr":{"T":{"type":1},"data_format":{"s":[78,72,87,67]},"strides":{"list":{"s":[],"i":["1","1","1","1"],"f":[],"b":[],"type":[],"shape":[],"tensor":[],"func":[]}},"use_cudnn_on_gpu":{"b":true},"padding":{"s":[83,65,77,69]},"dilations":{"list":{"s":[],"i":["1","1","1","1"],"f":[],"b":[],"type":[],"shape":[],"tensor":[],"func":[]}}},"name":"FeatureExtractor/InceptionV2/InceptionV2/Mixed_4c/Branch_2/Conv2d_0a_1x1/BatchNorm/FusedBatchNorm/Mul","op":"Conv2D"},{"input":["FeatureExtractor/InceptionV2/InceptionV2/Mixed_4b/Branch_0/Conv2d_0a_1x1/Relu6"],"attr":{"ksize":{"list":{"s":[],"i":["1","3","3","1"],"f":[],"b":[],"type":[],"shape":[],"tensor":[],"func":[]}},"padding":{"s":[83,65,77,69]},"T":{"type":1},"strides":{"list":{"s":[],"i":["1","1","1","1"],"f":[],"b":[],"type":[],"shape":[],"tensor":[],"func":[]}},"data_format":{"s":[78,72,87,67]}},"name":"FeatureExtractor/InceptionV2/InceptionV2/Mixed_4c/Branch_3/AvgPool_0a_3x3/AvgPool","op":"AvgPool"},{"input":["FeatureExtractor/InceptionV2/InceptionV2/Mixed_4c/Branch_0/Conv2d_0a_1x1/BatchNorm/FusedBatchNorm/Mul","FeatureExtractor/InceptionV2/InceptionV2/Mixed_4c/Branch_0/Conv2d_0a_1x1/BatchNorm/FusedBatchNorm/Offset"],"attr":{"T":{"type":1}},"name":"FeatureExtractor/InceptionV2/InceptionV2/Mixed_4c/Branch_0/Conv2d_0a_1x1/BatchNorm/FusedBatchNorm","op":"Add"},{"input":["FeatureExtractor/InceptionV2/InceptionV2/Mixed_4c/Branch_1/Conv2d_0a_1x1/BatchNorm/FusedBatchNorm/Mul","FeatureExtractor/InceptionV2/InceptionV2/Mixed_4c/Branch_1/Conv2d_0a_1x1/BatchNorm/FusedBatchNorm/Offset"],"attr":{"T":{"type":1}},"name":"FeatureExtractor/InceptionV2/InceptionV2/Mixed_4c/Branch_1/Conv2d_0a_1x1/BatchNorm/FusedBatchNorm","op":"Add"},{"input":["FeatureExtractor/InceptionV2/InceptionV2/Mixed_4c/Branch_2/Conv2d_0a_1x1/BatchNorm/FusedBatchNorm/Mul","FeatureExtractor/InceptionV2/InceptionV2/Mixed_4c/Branch_2/Conv2d_0a_1x1/BatchNorm/FusedBatchNorm/Offset"],"attr":{"T":{"type":1}},"name":"FeatureExtractor/InceptionV2/InceptionV2/Mixed_4c/Branch_2/Conv2d_0a_1x1/BatchNorm/FusedBatchNorm","op":"Add"},{"input":["FeatureExtractor/InceptionV2/InceptionV2/Mixed_4c/Branch_3/AvgPool_0a_3x3/AvgPool","FeatureExtractor/InceptionV2/InceptionV2/Mixed_4c/Branch_3/Conv2d_0b_1x1/Conv2D/merged_input"],"attr":{"dilations":{"list":{"s":[],"i":["1","1","1","1"],"f":[],"b":[],"type":[],"shape":[],"tensor":[],"func":[]}},"T":{"type":1},"strides":{"list":{"s":[],"i":["1","1","1","1"],"f":[],"b":[],"type":[],"shape":[],"tensor":[],"func":[]}},"data_format":{"s":[78,72,87,67]},"use_cudnn_on_gpu":{"b":true},"padding":{"s":[83,65,77,69]}},"name":"FeatureExtractor/InceptionV2/InceptionV2/Mixed_4c/Branch_3/Conv2d_0b_1x1/BatchNorm/FusedBatchNorm/Mul","op":"Conv2D"},{"input":["FeatureExtractor/InceptionV2/InceptionV2/Mixed_4c/Branch_1/Conv2d_0a_1x1/BatchNorm/FusedBatchNorm"],"attr":{"T":{"type":1}},"name":"FeatureExtractor/InceptionV2/InceptionV2/Mixed_4c/Branch_1/Conv2d_0a_1x1/Relu6","op":"Relu6"},{"input":["FeatureExtractor/InceptionV2/InceptionV2/Mixed_4c/Branch_2/Conv2d_0a_1x1/BatchNorm/FusedBatchNorm"],"attr":{"T":{"type":1}},"name":"FeatureExtractor/InceptionV2/InceptionV2/Mixed_4c/Branch_2/Conv2d_0a_1x1/Relu6","op":"Relu6"},{"input":["FeatureExtractor/InceptionV2/InceptionV2/Mixed_4c/Branch_3/Conv2d_0b_1x1/BatchNorm/FusedBatchNorm/Mul","FeatureExtractor/InceptionV2/InceptionV2/Mixed_4c/Branch_3/Conv2d_0b_1x1/BatchNorm/FusedBatchNorm/Offset"],"attr":{"T":{"type":1}},"name":"FeatureExtractor/InceptionV2/InceptionV2/Mixed_4c/Branch_3/Conv2d_0b_1x1/BatchNorm/FusedBatchNorm","op":"Add"},{"input":["FeatureExtractor/InceptionV2/InceptionV2/Mixed_4c/Branch_1/Conv2d_0a_1x1/Relu6","FeatureExtractor/InceptionV2/InceptionV2/Mixed_4c/Branch_1/Conv2d_0b_3x3/Conv2D/merged_input"],"attr":{"padding":{"s":[83,65,77,69]},"dilations":{"list":{"s":[],"i":["1","1","1","1"],"f":[],"b":[],"type":[],"shape":[],"tensor":[],"func":[]}},"T":{"type":1},"strides":{"list":{"s":[],"i":["1","1","1","1"],"f":[],"b":[],"type":[],"shape":[],"tensor":[],"func":[]}},"data_format":{"s":[78,72,87,67]},"use_cudnn_on_gpu":{"b":true}},"name":"FeatureExtractor/InceptionV2/InceptionV2/Mixed_4c/Branch_1/Conv2d_0b_3x3/BatchNorm/FusedBatchNorm/Mul","op":"Conv2D"},{"input":["FeatureExtractor/InceptionV2/InceptionV2/Mixed_4c/Branch_2/Conv2d_0a_1x1/Relu6","FeatureExtractor/InceptionV2/InceptionV2/Mixed_4c/Branch_2/Conv2d_0b_3x3/Conv2D/merged_input"],"attr":{"data_format":{"s":[78,72,87,67]},"strides":{"list":{"s":[],"i":["1","1","1","1"],"f":[],"b":[],"type":[],"shape":[],"tensor":[],"func":[]}},"use_cudnn_on_gpu":{"b":true},"padding":{"s":[83,65,77,69]},"dilations":{"list":{"s":[],"i":["1","1","1","1"],"f":[],"b":[],"type":[],"shape":[],"tensor":[],"func":[]}},"T":{"type":1}},"name":"FeatureExtractor/InceptionV2/InceptionV2/Mixed_4c/Branch_2/Conv2d_0b_3x3/BatchNorm/FusedBatchNorm/Mul","op":"Conv2D"},{"input":["FeatureExtractor/InceptionV2/InceptionV2/Mixed_4c/Branch_1/Conv2d_0b_3x3/BatchNorm/FusedBatchNorm/Mul","FeatureExtractor/InceptionV2/InceptionV2/Mixed_4c/Branch_1/Conv2d_0b_3x3/BatchNorm/FusedBatchNorm/Offset"],"attr":{"T":{"type":1}},"name":"FeatureExtractor/InceptionV2/InceptionV2/Mixed_4c/Branch_1/Conv2d_0b_3x3/BatchNorm/FusedBatchNorm","op":"Add"},{"input":["FeatureExtractor/InceptionV2/InceptionV2/Mixed_4c/Branch_2/Conv2d_0b_3x3/BatchNorm/FusedBatchNorm/Mul","FeatureExtractor/InceptionV2/InceptionV2/Mixed_4c/Branch_2/Conv2d_0b_3x3/BatchNorm/FusedBatchNorm/Offset"],"attr":{"T":{"type":1}},"name":"FeatureExtractor/InceptionV2/InceptionV2/Mixed_4c/Branch_2/Conv2d_0b_3x3/BatchNorm/FusedBatchNorm","op":"Add"},{"input":["FeatureExtractor/InceptionV2/InceptionV2/Mixed_4c/Branch_2/Conv2d_0b_3x3/BatchNorm/FusedBatchNorm"],"attr":{"T":{"type":1}},"name":"FeatureExtractor/InceptionV2/InceptionV2/Mixed_4c/Branch_2/Conv2d_0b_3x3/Relu6","op":"Relu6"},{"input":["FeatureExtractor/InceptionV2/InceptionV2/Mixed_4c/Branch_2/Conv2d_0b_3x3/Relu6","FeatureExtractor/InceptionV2/InceptionV2/Mixed_4c/Branch_2/Conv2d_0c_3x3/Conv2D/merged_input"],"attr":{"dilations":{"list":{"s":[],"i":["1","1","1","1"],"f":[],"b":[],"type":[],"shape":[],"tensor":[],"func":[]}},"T":{"type":1},"strides":{"list":{"s":[],"i":["1","1","1","1"],"f":[],"b":[],"type":[],"shape":[],"tensor":[],"func":[]}},"data_format":{"s":[78,72,87,67]},"use_cudnn_on_gpu":{"b":true},"padding":{"s":[83,65,77,69]}},"name":"FeatureExtractor/InceptionV2/InceptionV2/Mixed_4c/Branch_2/Conv2d_0c_3x3/BatchNorm/FusedBatchNorm/Mul","op":"Conv2D"},{"input":["FeatureExtractor/InceptionV2/InceptionV2/Mixed_4c/Branch_2/Conv2d_0c_3x3/BatchNorm/FusedBatchNorm/Mul","FeatureExtractor/InceptionV2/InceptionV2/Mixed_4c/Branch_2/Conv2d_0c_3x3/BatchNorm/FusedBatchNorm/Offset"],"attr":{"T":{"type":1}},"name":"FeatureExtractor/InceptionV2/InceptionV2/Mixed_4c/Branch_2/Conv2d_0c_3x3/BatchNorm/FusedBatchNorm","op":"Add"},{"input":["FeatureExtractor/InceptionV2/InceptionV2/Mixed_4c/Branch_0/Conv2d_0a_1x1/BatchNorm/FusedBatchNorm","FeatureExtractor/InceptionV2/InceptionV2/Mixed_4c/Branch_1/Conv2d_0b_3x3/BatchNorm/FusedBatchNorm","FeatureExtractor/InceptionV2/InceptionV2/Mixed_4c/Branch_2/Conv2d_0c_3x3/BatchNorm/FusedBatchNorm","FeatureExtractor/InceptionV2/InceptionV2/Mixed_4c/Branch_3/Conv2d_0b_1x1/BatchNorm/FusedBatchNorm","FeatureExtractor/InceptionV2/InceptionV2/Mixed_3b/concat/axis"],"attr":{"T":{"type":1},"N":{"i":"4"},"Tidx":{"type":3}},"name":"FeatureExtractor/InceptionV2/InceptionV2/Mixed_4c/concat","op":"ConcatV2"},{"input":["FeatureExtractor/InceptionV2/InceptionV2/Mixed_4c/concat"],"attr":{"T":{"type":1}},"name":"FeatureExtractor/InceptionV2/InceptionV2/Mixed_4c/Branch_0/Conv2d_0a_1x1/Relu6","op":"Relu6"},{"input":["FeatureExtractor/InceptionV2/InceptionV2/Mixed_4c/Branch_0/Conv2d_0a_1x1/Relu6","BoxPredictor_0/ClassPredictor/weights"],"attr":{"dilations":{"list":{"s":[],"i":["1","1","1","1"],"f":[],"b":[],"type":[],"shape":[],"tensor":[],"func":[]}},"T":{"type":1},"strides":{"list":{"s":[],"i":["1","1","1","1"],"f":[],"b":[],"type":[],"shape":[],"tensor":[],"func":[]}},"data_format":{"s":[78,72,87,67]},"use_cudnn_on_gpu":{"b":true},"padding":{"s":[83,65,77,69]}},"name":"BoxPredictor_0/ClassPredictor/Conv2D","op":"Conv2D"},{"input":["FeatureExtractor/InceptionV2/InceptionV2/Mixed_4c/Branch_0/Conv2d_0a_1x1/Relu6","BoxPredictor_0/BoxEncodingPredictor/weights"],"attr":{"padding":{"s":[83,65,77,69]},"dilations":{"list":{"s":[],"i":["1","1","1","1"],"f":[],"b":[],"type":[],"shape":[],"tensor":[],"func":[]}},"T":{"type":1},"strides":{"list":{"s":[],"i":["1","1","1","1"],"f":[],"b":[],"type":[],"shape":[],"tensor":[],"func":[]}},"data_format":{"s":[78,72,87,67]},"use_cudnn_on_gpu":{"b":true}},"name":"BoxPredictor_0/BoxEncodingPredictor/Conv2D","op":"Conv2D"},{"input":["FeatureExtractor/InceptionV2/InceptionV2/Mixed_4c/Branch_0/Conv2d_0a_1x1/Relu6"],"attr":{"T":{"type":1},"out_type":{"type":3}},"name":"BoxPredictor_0/Shape_1","op":"Shape"},{"input":["FeatureExtractor/InceptionV2/InceptionV2/Mixed_4c/Branch_0/Conv2d_0a_1x1/Relu6","FeatureExtractor/InceptionV2/InceptionV2/Mixed_4d/Branch_0/Conv2d_0a_1x1/Conv2D/merged_input"],"attr":{"padding":{"s":[83,65,77,69]},"dilations":{"list":{"s":[],"i":["1","1","1","1"],"f":[],"b":[],"type":[],"shape":[],"tensor":[],"func":[]}},"T":{"type":1},"strides":{"list":{"s":[],"i":["1","1","1","1"],"f":[],"b":[],"type":[],"shape":[],"tensor":[],"func":[]}},"data_format":{"s":[78,72,87,67]},"use_cudnn_on_gpu":{"b":true}},"name":"FeatureExtractor/InceptionV2/InceptionV2/Mixed_4d/Branch_0/Conv2d_0a_1x1/BatchNorm/FusedBatchNorm/Mul","op":"Conv2D"},{"input":["FeatureExtractor/InceptionV2/InceptionV2/Mixed_4c/Branch_0/Conv2d_0a_1x1/Relu6","FeatureExtractor/InceptionV2/InceptionV2/Mixed_4d/Branch_1/Conv2d_0a_1x1/Conv2D/merged_input"],"attr":{"padding":{"s":[83,65,77,69]},"dilations":{"list":{"s":[],"i":["1","1","1","1"],"f":[],"b":[],"type":[],"shape":[],"tensor":[],"func":[]}},"T":{"type":1},"data_format":{"s":[78,72,87,67]},"strides":{"list":{"s":[],"i":["1","1","1","1"],"f":[],"b":[],"type":[],"shape":[],"tensor":[],"func":[]}},"use_cudnn_on_gpu":{"b":true}},"name":"FeatureExtractor/InceptionV2/InceptionV2/Mixed_4d/Branch_1/Conv2d_0a_1x1/BatchNorm/FusedBatchNorm/Mul","op":"Conv2D"},{"input":["FeatureExtractor/InceptionV2/InceptionV2/Mixed_4c/Branch_0/Conv2d_0a_1x1/Relu6","FeatureExtractor/InceptionV2/InceptionV2/Mixed_4d/Branch_2/Conv2d_0a_1x1/Conv2D/merged_input"],"attr":{"strides":{"list":{"s":[],"i":["1","1","1","1"],"f":[],"b":[],"type":[],"shape":[],"tensor":[],"func":[]}},"data_format":{"s":[78,72,87,67]},"use_cudnn_on_gpu":{"b":true},"padding":{"s":[83,65,77,69]},"dilations":{"list":{"s":[],"i":["1","1","1","1"],"f":[],"b":[],"type":[],"shape":[],"tensor":[],"func":[]}},"T":{"type":1}},"name":"FeatureExtractor/InceptionV2/InceptionV2/Mixed_4d/Branch_2/Conv2d_0a_1x1/BatchNorm/FusedBatchNorm/Mul","op":"Conv2D"},{"input":["FeatureExtractor/InceptionV2/InceptionV2/Mixed_4c/Branch_0/Conv2d_0a_1x1/Relu6"],"attr":{"ksize":{"list":{"s":[],"i":["1","3","3","1"],"f":[],"b":[],"type":[],"shape":[],"tensor":[],"func":[]}},"padding":{"s":[83,65,77,69]},"T":{"type":1},"data_format":{"s":[78,72,87,67]},"strides":{"list":{"s":[],"i":["1","1","1","1"],"f":[],"b":[],"type":[],"shape":[],"tensor":[],"func":[]}}},"name":"FeatureExtractor/InceptionV2/InceptionV2/Mixed_4d/Branch_3/AvgPool_0a_3x3/AvgPool","op":"AvgPool"},{"input":["BoxPredictor_0/ClassPredictor/Conv2D","BoxPredictor_0/ClassPredictor/biases"],"attr":{"data_format":{"s":[78,72,87,67]},"T":{"type":1}},"name":"BoxPredictor_0/ClassPredictor/BiasAdd","op":"BiasAdd"},{"input":["BoxPredictor_0/BoxEncodingPredictor/Conv2D","BoxPredictor_0/BoxEncodingPredictor/biases"],"attr":{"data_format":{"s":[78,72,87,67]},"T":{"type":1}},"name":"BoxPredictor_0/BoxEncodingPredictor/BiasAdd","op":"BiasAdd"},{"input":["BoxPredictor_0/Shape_1","Postprocessor/BatchMultiClassNonMaxSuppression/map/TensorArrayUnstack_1/strided_slice/stack","Postprocessor/BatchMultiClassNonMaxSuppression/map/TensorArrayUnstack_1/strided_slice/stack_1","Postprocessor/BatchMultiClassNonMaxSuppression/map/TensorArrayUnstack_1/strided_slice/stack_1"],"attr":{"shrink_axis_mask":{"i":"1"},"ellipsis_mask":{"i":"0"},"begin_mask":{"i":"0"},"new_axis_mask":{"i":"0"},"end_mask":{"i":"0"},"Index":{"type":3},"T":{"type":3}},"name":"BoxPredictor_0/strided_slice_1","op":"StridedSlice"},{"input":["FeatureExtractor/InceptionV2/InceptionV2/Mixed_4d/Branch_0/Conv2d_0a_1x1/BatchNorm/FusedBatchNorm/Mul","FeatureExtractor/InceptionV2/InceptionV2/Mixed_4d/Branch_0/Conv2d_0a_1x1/BatchNorm/FusedBatchNorm/Offset"],"attr":{"T":{"type":1}},"name":"FeatureExtractor/InceptionV2/InceptionV2/Mixed_4d/Branch_0/Conv2d_0a_1x1/BatchNorm/FusedBatchNorm","op":"Add"},{"input":["FeatureExtractor/InceptionV2/InceptionV2/Mixed_4d/Branch_1/Conv2d_0a_1x1/BatchNorm/FusedBatchNorm/Mul","FeatureExtractor/InceptionV2/InceptionV2/Mixed_4d/Branch_1/Conv2d_0a_1x1/BatchNorm/FusedBatchNorm/Offset"],"attr":{"T":{"type":1}},"name":"FeatureExtractor/InceptionV2/InceptionV2/Mixed_4d/Branch_1/Conv2d_0a_1x1/BatchNorm/FusedBatchNorm","op":"Add"},{"input":["FeatureExtractor/InceptionV2/InceptionV2/Mixed_4d/Branch_2/Conv2d_0a_1x1/BatchNorm/FusedBatchNorm/Mul","FeatureExtractor/InceptionV2/InceptionV2/Mixed_4d/Branch_2/Conv2d_0a_1x1/BatchNorm/FusedBatchNorm/Offset"],"attr":{"T":{"type":1}},"name":"FeatureExtractor/InceptionV2/InceptionV2/Mixed_4d/Branch_2/Conv2d_0a_1x1/BatchNorm/FusedBatchNorm","op":"Add"},{"input":["FeatureExtractor/InceptionV2/InceptionV2/Mixed_4d/Branch_3/AvgPool_0a_3x3/AvgPool","FeatureExtractor/InceptionV2/InceptionV2/Mixed_4d/Branch_3/Conv2d_0b_1x1/Conv2D/merged_input"],"attr":{"dilations":{"list":{"s":[],"i":["1","1","1","1"],"f":[],"b":[],"type":[],"shape":[],"tensor":[],"func":[]}},"T":{"type":1},"data_format":{"s":[78,72,87,67]},"strides":{"list":{"s":[],"i":["1","1","1","1"],"f":[],"b":[],"type":[],"shape":[],"tensor":[],"func":[]}},"use_cudnn_on_gpu":{"b":true},"padding":{"s":[83,65,77,69]}},"name":"FeatureExtractor/InceptionV2/InceptionV2/Mixed_4d/Branch_3/Conv2d_0b_1x1/BatchNorm/FusedBatchNorm/Mul","op":"Conv2D"},{"input":["BoxPredictor_0/strided_slice_1","BoxPredictor_0/Reshape_1/shape/1","BoxPredictor_0/Reshape_1/shape/2"],"attr":{"T":{"type":3},"axis":{"i":"0"},"N":{"i":"3"}},"name":"BoxPredictor_0/Reshape_1/shape","op":"Pack"},{"input":["BoxPredictor_0/strided_slice_1","BoxPredictor_0/Reshape_1/shape/1","Postprocessor/BatchMultiClassNonMaxSuppression/map/TensorArrayStack_4/range/delta","BoxPredictor_0/Reshape/shape/3"],"attr":{"T":{"type":3},"axis":{"i":"0"},"N":{"i":"4"}},"name":"BoxPredictor_0/Reshape/shape","op":"Pack"},{"input":["FeatureExtractor/InceptionV2/InceptionV2/Mixed_4d/Branch_1/Conv2d_0a_1x1/BatchNorm/FusedBatchNorm"],"attr":{"T":{"type":1}},"name":"FeatureExtractor/InceptionV2/InceptionV2/Mixed_4d/Branch_1/Conv2d_0a_1x1/Relu6","op":"Relu6"},{"input":["FeatureExtractor/InceptionV2/InceptionV2/Mixed_4d/Branch_2/Conv2d_0a_1x1/BatchNorm/FusedBatchNorm"],"attr":{"T":{"type":1}},"name":"FeatureExtractor/InceptionV2/InceptionV2/Mixed_4d/Branch_2/Conv2d_0a_1x1/Relu6","op":"Relu6"},{"input":["FeatureExtractor/InceptionV2/InceptionV2/Mixed_4d/Branch_3/Conv2d_0b_1x1/BatchNorm/FusedBatchNorm/Mul","FeatureExtractor/InceptionV2/InceptionV2/Mixed_4d/Branch_3/Conv2d_0b_1x1/BatchNorm/FusedBatchNorm/Offset"],"attr":{"T":{"type":1}},"name":"FeatureExtractor/InceptionV2/InceptionV2/Mixed_4d/Branch_3/Conv2d_0b_1x1/BatchNorm/FusedBatchNorm","op":"Add"},{"input":["BoxPredictor_0/ClassPredictor/BiasAdd","BoxPredictor_0/Reshape_1/shape"],"attr":{"T":{"type":1},"Tshape":{"type":3}},"name":"BoxPredictor_0/Reshape_1","op":"Reshape"},{"input":["BoxPredictor_0/BoxEncodingPredictor/BiasAdd","BoxPredictor_0/Reshape/shape"],"attr":{"T":{"type":1},"Tshape":{"type":3}},"name":"BoxPredictor_0/Reshape","op":"Reshape"},{"input":["FeatureExtractor/InceptionV2/InceptionV2/Mixed_4d/Branch_1/Conv2d_0a_1x1/Relu6","FeatureExtractor/InceptionV2/InceptionV2/Mixed_4d/Branch_1/Conv2d_0b_3x3/Conv2D/merged_input"],"attr":{"dilations":{"list":{"s":[],"i":["1","1","1","1"],"f":[],"b":[],"type":[],"shape":[],"tensor":[],"func":[]}},"T":{"type":1},"data_format":{"s":[78,72,87,67]},"strides":{"list":{"s":[],"i":["1","1","1","1"],"f":[],"b":[],"type":[],"shape":[],"tensor":[],"func":[]}},"use_cudnn_on_gpu":{"b":true},"padding":{"s":[83,65,77,69]}},"name":"FeatureExtractor/InceptionV2/InceptionV2/Mixed_4d/Branch_1/Conv2d_0b_3x3/BatchNorm/FusedBatchNorm/Mul","op":"Conv2D"},{"input":["FeatureExtractor/InceptionV2/InceptionV2/Mixed_4d/Branch_2/Conv2d_0a_1x1/Relu6","FeatureExtractor/InceptionV2/InceptionV2/Mixed_4d/Branch_2/Conv2d_0b_3x3/Conv2D/merged_input"],"attr":{"dilations":{"list":{"s":[],"i":["1","1","1","1"],"f":[],"b":[],"type":[],"shape":[],"tensor":[],"func":[]}},"T":{"type":1},"strides":{"list":{"s":[],"i":["1","1","1","1"],"f":[],"b":[],"type":[],"shape":[],"tensor":[],"func":[]}},"data_format":{"s":[78,72,87,67]},"use_cudnn_on_gpu":{"b":true},"padding":{"s":[83,65,77,69]}},"name":"FeatureExtractor/InceptionV2/InceptionV2/Mixed_4d/Branch_2/Conv2d_0b_3x3/BatchNorm/FusedBatchNorm/Mul","op":"Conv2D"},{"input":["FeatureExtractor/InceptionV2/InceptionV2/Mixed_4d/Branch_1/Conv2d_0b_3x3/BatchNorm/FusedBatchNorm/Mul","FeatureExtractor/InceptionV2/InceptionV2/Mixed_4d/Branch_1/Conv2d_0b_3x3/BatchNorm/FusedBatchNorm/Offset"],"attr":{"T":{"type":1}},"name":"FeatureExtractor/InceptionV2/InceptionV2/Mixed_4d/Branch_1/Conv2d_0b_3x3/BatchNorm/FusedBatchNorm","op":"Add"},{"input":["FeatureExtractor/InceptionV2/InceptionV2/Mixed_4d/Branch_2/Conv2d_0b_3x3/BatchNorm/FusedBatchNorm/Mul","FeatureExtractor/InceptionV2/InceptionV2/Mixed_4d/Branch_2/Conv2d_0b_3x3/BatchNorm/FusedBatchNorm/Offset"],"attr":{"T":{"type":1}},"name":"FeatureExtractor/InceptionV2/InceptionV2/Mixed_4d/Branch_2/Conv2d_0b_3x3/BatchNorm/FusedBatchNorm","op":"Add"},{"input":["FeatureExtractor/InceptionV2/InceptionV2/Mixed_4d/Branch_2/Conv2d_0b_3x3/BatchNorm/FusedBatchNorm"],"attr":{"T":{"type":1}},"name":"FeatureExtractor/InceptionV2/InceptionV2/Mixed_4d/Branch_2/Conv2d_0b_3x3/Relu6","op":"Relu6"},{"input":["FeatureExtractor/InceptionV2/InceptionV2/Mixed_4d/Branch_2/Conv2d_0b_3x3/Relu6","FeatureExtractor/InceptionV2/InceptionV2/Mixed_4d/Branch_2/Conv2d_0c_3x3/Conv2D/merged_input"],"attr":{"dilations":{"list":{"s":[],"i":["1","1","1","1"],"f":[],"b":[],"type":[],"shape":[],"tensor":[],"func":[]}},"T":{"type":1},"data_format":{"s":[78,72,87,67]},"strides":{"list":{"s":[],…
ssNonMaxSuppression/strided_slice_9/stack_1","Postprocessor/BatchMultiClassNonMaxSuppression/map/while/MultiClassNonMaxSuppression/strided_slice_9/stack_1"],"attr":{"T":{"type":3},"Index":{"type":3},"shrink_axis_mask":{"i":"1"},"begin_mask":{"i":"0"},"ellipsis_mask":{"i":"0"},"new_axis_mask":{"i":"0"},"end_mask":{"i":"0"}},"name":"Postprocessor/BatchMultiClassNonMaxSuppression/map/while/MultiClassNonMaxSuppression/SortByField/strided_slice","op":"StridedSlice"},{"input":["Postprocessor/BatchMultiClassNonMaxSuppression/map/while/MultiClassNonMaxSuppression/Concatenate/concat_1","Postprocessor/BatchMultiClassNonMaxSuppression/map/while/MultiClassNonMaxSuppression/SortByField/strided_slice"],"attr":{"T":{"type":1},"sorted":{"b":true}},"name":"Postprocessor/BatchMultiClassNonMaxSuppression/map/while/MultiClassNonMaxSuppression/SortByField/TopKV2","op":"TopKV2"},{"input":["Postprocessor/BatchMultiClassNonMaxSuppression/map/while/MultiClassNonMaxSuppression/Concatenate/concat_1","Postprocessor/BatchMultiClassNonMaxSuppression/map/while/MultiClassNonMaxSuppression/SortByField/TopKV2:1","Postprocessor/BatchMultiClassNonMaxSuppression/map/while/MultiClassNonMaxSuppression/SortByField/Gather/GatherV2_1/axis"],"attr":{"Tindices":{"type":3},"Tparams":{"type":1},"Taxis":{"type":3}},"name":"Postprocessor/BatchMultiClassNonMaxSuppression/map/while/MultiClassNonMaxSuppression/SortByField/Gather/GatherV2_1","op":"GatherV2"},{"input":["Postprocessor/BatchMultiClassNonMaxSuppression/map/while/MultiClassNonMaxSuppression/Concatenate/concat","Postprocessor/BatchMultiClassNonMaxSuppression/map/while/MultiClassNonMaxSuppression/SortByField/TopKV2:1","Postprocessor/BatchMultiClassNonMaxSuppression/map/while/MultiClassNonMaxSuppression/SortByField/Gather/GatherV2_1/axis"],"attr":{"Taxis":{"type":3},"Tindices":{"type":3},"Tparams":{"type":1}},"name":"Postprocessor/BatchMultiClassNonMaxSuppression/map/while/MultiClassNonMaxSuppression/SortByField/Gather/GatherV2_4","op":"GatherV2"},{"input":["Postprocessor/BatchMultiClassNonMaxSuppression/map/while/MultiClassNonMaxSuppression/Area/split/split_dim","Postprocessor/BatchMultiClassNonMaxSuppression/map/while/MultiClassNonMaxSuppression/SortByField/Gather/GatherV2_4"],"attr":{"T":{"type":1},"num_split":{"i":"4"}},"name":"Postprocessor/BatchMultiClassNonMaxSuppression/map/while/MultiClassNonMaxSuppression/ClipToWindow/split","op":"Split"},{"input":["Postprocessor/BatchMultiClassNonMaxSuppression/map/while/MultiClassNonMaxSuppression/ClipToWindow/split","Postprocessor/BatchMultiClassNonMaxSuppression/map/while/MultiClassNonMaxSuppression/ClipToWindow/unstack:2"],"attr":{"T":{"type":1}},"name":"Postprocessor/BatchMultiClassNonMaxSuppression/map/while/MultiClassNonMaxSuppression/ClipToWindow/Minimum","op":"Minimum"},{"input":["Postprocessor/BatchMultiClassNonMaxSuppression/map/while/MultiClassNonMaxSuppression/ClipToWindow/split:1","Postprocessor/BatchMultiClassNonMaxSuppression/map/while/MultiClassNonMaxSuppression/ClipToWindow/unstack:3"],"attr":{"T":{"type":1}},"name":"Postprocessor/BatchMultiClassNonMaxSuppression/map/while/MultiClassNonMaxSuppression/ClipToWindow/Minimum_2","op":"Minimum"},{"input":["Postprocessor/BatchMultiClassNonMaxSuppression/map/while/MultiClassNonMaxSuppression/ClipToWindow/split:2","Postprocessor/BatchMultiClassNonMaxSuppression/map/while/MultiClassNonMaxSuppression/ClipToWindow/unstack:2"],"attr":{"T":{"type":1}},"name":"Postprocessor/BatchMultiClassNonMaxSuppression/map/while/MultiClassNonMaxSuppression/ClipToWindow/Minimum_1","op":"Minimum"},{"input":["Postprocessor/BatchMultiClassNonMaxSuppression/map/while/MultiClassNonMaxSuppression/ClipToWindow/split:3","Postprocessor/BatchMultiClassNonMaxSuppression/map/while/MultiClassNonMaxSuppression/ClipToWindow/unstack:3"],"attr":{"T":{"type":1}},"name":"Postprocessor/BatchMultiClassNonMaxSuppression/map/while/MultiClassNonMaxSuppression/ClipToWindow/Minimum_3","op":"Minimum"},{"input":["Postprocessor/BatchMultiClassNonMaxSuppression/map/while/MultiClassNonMaxSuppression/ClipToWindow/Minimum","Postprocessor/BatchMultiClassNonMaxSuppression/map/while/MultiClassNonMaxSuppression/ClipToWindow/unstack"],"attr":{"T":{"type":1}},"name":"Postprocessor/BatchMultiClassNonMaxSuppression/map/while/MultiClassNonMaxSuppression/ClipToWindow/Maximum","op":"Maximum"},{"input":["Postprocessor/BatchMultiClassNonMaxSuppression/map/while/MultiClassNonMaxSuppression/ClipToWindow/Minimum_2","Postprocessor/BatchMultiClassNonMaxSuppression/map/while/MultiClassNonMaxSuppression/ClipToWindow/unstack:1"],"attr":{"T":{"type":1}},"name":"Postprocessor/BatchMultiClassNonMaxSuppression/map/while/MultiClassNonMaxSuppression/ClipToWindow/Maximum_2","op":"Maximum"},{"input":["Postprocessor/BatchMultiClassNonMaxSuppression/map/while/MultiClassNonMaxSuppression/ClipToWindow/Minimum_1","Postprocessor/BatchMultiClassNonMaxSuppression/map/while/MultiClassNonMaxSuppression/ClipToWindow/unstack"],"attr":{"T":{"type":1}},"name":"Postprocessor/BatchMultiClassNonMaxSuppression/map/while/MultiClassNonMaxSuppression/ClipToWindow/Maximum_1","op":"Maximum"},{"input":["Postprocessor/BatchMultiClassNonMaxSuppression/map/while/MultiClassNonMaxSuppression/ClipToWindow/Minimum_3","Postprocessor/BatchMultiClassNonMaxSuppression/map/while/MultiClassNonMaxSuppression/ClipToWindow/unstack:1"],"attr":{"T":{"type":1}},"name":"Postprocessor/BatchMultiClassNonMaxSuppression/map/while/MultiClassNonMaxSuppression/ClipToWindow/Maximum_3","op":"Maximum"},{"input":["Postprocessor/BatchMultiClassNonMaxSuppression/map/while/MultiClassNonMaxSuppression/ClipToWindow/Maximum","Postprocessor/BatchMultiClassNonMaxSuppression/map/while/MultiClassNonMaxSuppression/ClipToWindow/Maximum_2","Postprocessor/BatchMultiClassNonMaxSuppression/map/while/MultiClassNonMaxSuppression/ClipToWindow/Maximum_1","Postprocessor/BatchMultiClassNonMaxSuppression/map/while/MultiClassNonMaxSuppression/ClipToWindow/Maximum_3","Postprocessor/BatchMultiClassNonMaxSuppression/map/while/MultiClassNonMaxSuppression/Area/split/split_dim"],"attr":{"N":{"i":"4"},"Tidx":{"type":3},"T":{"type":1}},"name":"Postprocessor/BatchMultiClassNonMaxSuppression/map/while/MultiClassNonMaxSuppression/ClipToWindow/concat","op":"ConcatV2"},{"input":["Postprocessor/BatchMultiClassNonMaxSuppression/map/while/MultiClassNonMaxSuppression/Area/split/split_dim","Postprocessor/BatchMultiClassNonMaxSuppression/map/while/MultiClassNonMaxSuppression/ClipToWindow/concat"],"attr":{"T":{"type":1},"num_split":{"i":"4"}},"name":"Postprocessor/BatchMultiClassNonMaxSuppression/map/while/MultiClassNonMaxSuppression/ClipToWindow/Area/split","op":"Split"},{"input":["Postprocessor/BatchMultiClassNonMaxSuppression/map/while/MultiClassNonMaxSuppression/ClipToWindow/Area/split:2","Postprocessor/BatchMultiClassNonMaxSuppression/map/while/MultiClassNonMaxSuppression/ClipToWindow/Area/split"],"attr":{"T":{"type":1}},"name":"Postprocessor/BatchMultiClassNonMaxSuppression/map/while/MultiClassNonMaxSuppression/ClipToWindow/Area/sub","op":"Sub"},{"input":["Postprocessor/BatchMultiClassNonMaxSuppression/map/while/MultiClassNonMaxSuppression/ClipToWindow/Area/split:3","Postprocessor/BatchMultiClassNonMaxSuppression/map/while/MultiClassNonMaxSuppression/ClipToWindow/Area/split:1"],"attr":{"T":{"type":1}},"name":"Postprocessor/BatchMultiClassNonMaxSuppression/map/while/MultiClassNonMaxSuppression/ClipToWindow/Area/sub_1","op":"Sub"},{"input":["Postprocessor/BatchMultiClassNonMaxSuppression/map/while/MultiClassNonMaxSuppression/ClipToWindow/Area/sub","Postprocessor/BatchMultiClassNonMaxSuppression/map/while/MultiClassNonMaxSuppression/ClipToWindow/Area/sub_1"],"attr":{"T":{"type":1}},"name":"Postprocessor/BatchMultiClassNonMaxSuppression/map/while/MultiClassNonMaxSuppression/ClipToWindow/Area/mul","op":"Mul"},{"input":["Postprocessor/BatchMultiClassNonMaxSuppression/map/while/MultiClassNonMaxSuppression/ClipToWindow/Area/mul"],"attr":{"squeeze_dims":{"list":{"s":[],"i":["1"],"f":[],"b":[],"type":[],"shape":[],"tensor":[],"func":[]}},"T":{"type":1}},"name":"Postprocessor/BatchMultiClassNonMaxSuppression/map/while/MultiClassNonMaxSuppression/ClipToWindow/Area/Squeeze","op":"Squeeze"},{"input":["Postprocessor/BatchMultiClassNonMaxSuppression/map/while/MultiClassNonMaxSuppression/ClipToWindow/Area/Squeeze","Postprocessor/BatchMultiClassNonMaxSuppression/map/while/MultiClassNonMaxSuppression/GreaterEqual/y"],"attr":{"T":{"type":1}},"name":"Postprocessor/BatchMultiClassNonMaxSuppression/map/while/MultiClassNonMaxSuppression/ClipToWindow/Greater","op":"Greater"},{"input":["Postprocessor/BatchMultiClassNonMaxSuppression/map/while/MultiClassNonMaxSuppression/ClipToWindow/Greater"],"attr":{"T":{"type":10}},"name":"Postprocessor/BatchMultiClassNonMaxSuppression/map/while/MultiClassNonMaxSuppression/ClipToWindow/Where","op":"Where"},{"input":["Postprocessor/BatchMultiClassNonMaxSuppression/map/while/MultiClassNonMaxSuppression/ClipToWindow/Where","Postprocessor/BatchMultiClassNonMaxSuppression/map/while/MultiClassNonMaxSuppression/ones_4/Reshape/shape"],"attr":{"T":{"type":9},"Tshape":{"type":3}},"name":"Postprocessor/BatchMultiClassNonMaxSuppression/map/while/MultiClassNonMaxSuppression/ClipToWindow/Reshape","op":"Reshape"},{"input":["Postprocessor/BatchMultiClassNonMaxSuppression/map/while/MultiClassNonMaxSuppression/ClipToWindow/Reshape"],"attr":{"SrcT":{"type":9},"Truncate":{"b":false},"DstT":{"type":3}},"name":"Postprocessor/BatchMultiClassNonMaxSuppression/map/while/MultiClassNonMaxSuppression/ClipToWindow/Cast","op":"Cast"},{"input":["Postprocessor/BatchMultiClassNonMaxSuppression/map/while/MultiClassNonMaxSuppression/SortByField/Gather/GatherV2_1","Postprocessor/BatchMultiClassNonMaxSuppression/map/while/MultiClassNonMaxSuppression/ClipToWindow/Cast","Postprocessor/BatchMultiClassNonMaxSuppression/map/while/MultiClassNonMaxSuppression/SortByField/Gather/GatherV2_1/axis"],"attr":{"Taxis":{"type":3},"Tindices":{"type":3},"Tparams":{"type":1}},"name":"Postprocessor/BatchMultiClassNonMaxSuppression/map/while/MultiClassNonMaxSuppression/ClipToWindow/Gather/GatherV2_1","op":"GatherV2"},{"input":["Postprocessor/BatchMultiClassNonMaxSuppression/map/while/MultiClassNonMaxSuppression/ClipToWindow/concat","Postprocessor/BatchMultiClassNonMaxSuppression/map/while/MultiClassNonMaxSuppression/ClipToWindow/Cast","Postprocessor/BatchMultiClassNonMaxSuppression/map/while/MultiClassNonMaxSuppression/SortByField/Gather/GatherV2_1/axis"],"attr":{"Tparams":{"type":1},"Taxis":{"type":3},"Tindices":{"type":3}},"name":"Postprocessor/BatchMultiClassNonMaxSuppression/map/while/MultiClassNonMaxSuppression/ClipToWindow/Gather/GatherV2_4","op":"GatherV2"},{"input":["Postprocessor/BatchMultiClassNonMaxSuppression/map/while/MultiClassNonMaxSuppression/Area/split/split_dim","Postprocessor/BatchMultiClassNonMaxSuppression/map/while/MultiClassNonMaxSuppression/ClipToWindow/Gather/GatherV2_4"],"attr":{"num_split":{"i":"4"},"T":{"type":1}},"name":"Postprocessor/BatchMultiClassNonMaxSuppression/map/while/MultiClassNonMaxSuppression/Area/split","op":"Split"},{"input":["Postprocessor/BatchMultiClassNonMaxSuppression/map/while/MultiClassNonMaxSuppression/ClipToWindow/Gather/GatherV2_4"],"attr":{"T":{"type":1},"out_type":{"type":3}},"name":"Postprocessor/BatchMultiClassNonMaxSuppression/map/while/MultiClassNonMaxSuppression/Shape_9","op":"Shape"},{"input":["Postprocessor/BatchMultiClassNonMaxSuppression/map/while/MultiClassNonMaxSuppression/Area/split:2","Postprocessor/BatchMultiClassNonMaxSuppression/map/while/MultiClassNonMaxSuppression/Area/split"],"attr":{"T":{"type":1}},"name":"Postprocessor/BatchMultiClassNonMaxSuppression/map/while/MultiClassNonMaxSuppression/Area/sub","op":"Sub"},{"input":["Postprocessor/BatchMultiClassNonMaxSuppression/map/while/MultiClassNonMaxSuppression/Area/split:3","Postprocessor/BatchMultiClassNonMaxSuppression/map/while/MultiClassNonMaxSuppression/Area/split:1"],"attr":{"T":{"type":1}},"name":"Postprocessor/BatchMultiClassNonMaxSuppression/map/while/MultiClassNonMaxSuppression/Area/sub_1","op":"Sub"},{"input":["Postprocessor/BatchMultiClassNonMaxSuppression/map/while/MultiClassNonMaxSuppression/Shape_9","Postprocessor/BatchMultiClassNonMaxSuppression/map/while/MultiClassNonMaxSuppression/Const_1","Postprocessor/BatchMultiClassNonMaxSuppression/map/while/MultiClassNonMaxSuppression/strided_slice_9/stack_1","Postprocessor/BatchMultiClassNonMaxSuppression/map/while/MultiClassNonMaxSuppression/strided_slice_9/stack_1"],"attr":{"end_mask":{"i":"0"},"Index":{"type":3},"T":{"type":3},"shrink_axis_mask":{"i":"1"},"begin_mask":{"i":"0"},"ellipsis_mask":{"i":"0"},"new_axis_mask":{"i":"0"}},"name":"Postprocessor/BatchMultiClassNonMaxSuppression/map/while/MultiClassNonMaxSuppression/strided_slice_9","op":"StridedSlice"},{"input":["Postprocessor/BatchMultiClassNonMaxSuppression/map/while/MultiClassNonMaxSuppression/Area/sub","Postprocessor/BatchMultiClassNonMaxSuppression/map/while/MultiClassNonMaxSuppression/Area/sub_1"],"attr":{"T":{"type":1}},"name":"Postprocessor/BatchMultiClassNonMaxSuppression/map/while/MultiClassNonMaxSuppression/Area/mul","op":"Mul"},{"input":["Postprocessor/BatchMultiClassNonMaxSuppression/map/while/MultiClassNonMaxSuppression/strided_slice_9","Postprocessor/BatchMultiClassNonMaxSuppression/map/while/MultiClassNonMaxSuppression/ones_4/Reshape/shape"],"attr":{"T":{"type":3},"Tshape":{"type":3}},"name":"Postprocessor/BatchMultiClassNonMaxSuppression/map/while/MultiClassNonMaxSuppression/ones_4/Reshape","op":"Reshape"},{"input":["Postprocessor/BatchMultiClassNonMaxSuppression/map/while/MultiClassNonMaxSuppression/Area/mul"],"attr":{"squeeze_dims":{"list":{"s":[],"i":["1"],"f":[],"b":[],"type":[],"shape":[],"tensor":[],"func":[]}},"T":{"type":1}},"name":"Postprocessor/BatchMultiClassNonMaxSuppression/map/while/MultiClassNonMaxSuppression/Area/Squeeze","op":"Squeeze"},{"input":["Postprocessor/BatchMultiClassNonMaxSuppression/map/while/MultiClassNonMaxSuppression/ones_4/Reshape","Postprocessor/BatchMultiClassNonMaxSuppression/map/while/MultiClassNonMaxSuppression/ones_4/Const"],"attr":{"index_type":{"type":3},"T":{"type":1}},"name":"Postprocessor/BatchMultiClassNonMaxSuppression/map/while/MultiClassNonMaxSuppression/ones_4","op":"Fill"},{"input":["Postprocessor/BatchMultiClassNonMaxSuppression/map/while/MultiClassNonMaxSuppression/Area/Squeeze"],"attr":{"SrcT":{"type":1},"Truncate":{"b":false},"DstT":{"type":10}},"name":"Postprocessor/BatchMultiClassNonMaxSuppression/map/while/MultiClassNonMaxSuppression/Cast","op":"Cast"},{"input":["Postprocessor/BatchMultiClassNonMaxSuppression/map/while/MultiClassNonMaxSuppression/mul_4/x","Postprocessor/BatchMultiClassNonMaxSuppression/map/while/MultiClassNonMaxSuppression/ones_4"],"attr":{"T":{"type":1}},"name":"Postprocessor/BatchMultiClassNonMaxSuppression/map/while/MultiClassNonMaxSuppression/mul_4","op":"Mul"},{"input":["Postprocessor/BatchMultiClassNonMaxSuppression/map/while/MultiClassNonMaxSuppression/Cast","Postprocessor/BatchMultiClassNonMaxSuppression/map/while/MultiClassNonMaxSuppression/ClipToWindow/Gather/GatherV2_1","Postprocessor/BatchMultiClassNonMaxSuppression/map/while/MultiClassNonMaxSuppression/mul_4"],"attr":{"T":{"type":1}},"name":"Postprocessor/BatchMultiClassNonMaxSuppression/map/while/MultiClassNonMaxSuppression/Select_4","op":"Select"},{"input":["Postprocessor/BatchMultiClassNonMaxSuppression/map/while/MultiClassNonMaxSuppression/Select_4","Postprocessor/BatchMultiClassNonMaxSuppression/map/while/MultiClassNonMaxSuppression/GreaterEqual/y"],"attr":{"T":{"type":1}},"name":"Postprocessor/BatchMultiClassNonMaxSuppression/map/while/MultiClassNonMaxSuppression/GreaterEqual","op":"GreaterEqual"},{"input":["Postprocessor/BatchMultiClassNonMaxSuppression/map/while/MultiClassNonMaxSuppression/Select_4","Postprocessor/BatchMultiClassNonMaxSuppression/map/while/MultiClassNonMaxSuppression/strided_slice_9"],"attr":{"sorted":{"b":true},"T":{"type":1}},"name":"Postprocessor/BatchMultiClassNonMaxSuppression/map/while/MultiClassNonMaxSuppression/SortByField_1/TopKV2","op":"TopKV2"},{"input":["Postprocessor/BatchMultiClassNonMaxSuppression/map/while/MultiClassNonMaxSuppression/GreaterEqual"],"attr":{"SrcT":{"type":10},"Truncate":{"b":false},"DstT":{"type":3}},"name":"Postprocessor/BatchMultiClassNonMaxSuppression/map/while/MultiClassNonMaxSuppression/Cast_1","op":"Cast"},{"input":["Postprocessor/BatchMultiClassNonMaxSuppression/map/while/MultiClassNonMaxSuppression/ClipToWindow/Gather/GatherV2_4","Postprocessor/BatchMultiClassNonMaxSuppression/map/while/MultiClassNonMaxSuppression/SortByField_1/TopKV2:1","Postprocessor/BatchMultiClassNonMaxSuppression/map/while/MultiClassNonMaxSuppression/SortByField/Gather/GatherV2_1/axis"],"attr":{"Taxis":{"type":3},"Tindices":{"type":3},"Tparams":{"type":1}},"name":"Postprocessor/BatchMultiClassNonMaxSuppression/map/while/MultiClassNonMaxSuppression/SortByField_1/Gather/GatherV2_4","op":"GatherV2"},{"input":["Postprocessor/BatchMultiClassNonMaxSuppression/map/while/MultiClassNonMaxSuppression/Cast_1","Postprocessor/BatchMultiClassNonMaxSuppression/map/while/MultiClassNonMaxSuppression/Const_1"],"attr":{"Tidx":{"type":3},"keep_dims":{"b":false},"T":{"type":3}},"name":"Postprocessor/BatchMultiClassNonMaxSuppression/map/while/MultiClassNonMaxSuppression/Sum","op":"Sum"},{"input":["Postprocessor/BatchMultiClassNonMaxSuppression/map/while/MultiClassNonMaxSuppression/SortByField_1/Gather/GatherV2_4"],"attr":{"T":{"type":1},"out_type":{"type":3}},"name":"Postprocessor/BatchMultiClassNonMaxSuppression/map/while/MultiClassNonMaxSuppression/Shape_10","op":"Shape"},{"input":["Postprocessor/BatchMultiClassNonMaxSuppression/map/while/MultiClassNonMaxSuppression/Shape_10","Postprocessor/BatchMultiClassNonMaxSuppression/map/while/MultiClassNonMaxSuppression/Const_1","Postprocessor/BatchMultiClassNonMaxSuppression/map/while/MultiClassNonMaxSuppression/strided_slice_9/stack_1","Postprocessor/BatchMultiClassNonMaxSuppression/map/while/MultiClassNonMaxSuppression/strided_slice_9/stack_1"],"attr":{"shrink_axis_mask":{"i":"1"},"begin_mask":{"i":"0"},"ellipsis_mask":{"i":"0"},"new_axis_mask":{"i":"0"},"end_mask":{"i":"0"},"T":{"type":3},"Index":{"type":3}},"name":"Postprocessor/BatchMultiClassNonMaxSuppression/map/while/MultiClassNonMaxSuppression/strided_slice_10","op":"StridedSlice"},{"input":["Postprocessor/BatchMultiClassNonMaxSuppression/map/while/MultiClassNonMaxSuppression/Minimum_4/x","Postprocessor/BatchMultiClassNonMaxSuppression/map/while/MultiClassNonMaxSuppression/strided_slice_10"],"attr":{"T":{"type":3}},"name":"Postprocessor/BatchMultiClassNonMaxSuppression/map/while/MultiClassNonMaxSuppression/Minimum_4","op":"Minimum"},{"input":["Postprocessor/BatchMultiClassNonMaxSuppression/map/while/MultiClassNonMaxSuppression/Minimum_4","Postprocessor/BatchMultiClassNonMaxSuppression/map/while/MultiClassNonMaxSuppression/Sum"],"attr":{"T":{"type":3}},"name":"Postprocessor/BatchMultiClassNonMaxSuppression/map/while/MultiClassNonMaxSuppression/Greater","op":"Greater"},{"input":["Postprocessor/BatchMultiClassNonMaxSuppression/map/while/MultiClassNonMaxSuppression/Greater","Postprocessor/BatchMultiClassNonMaxSuppression/map/while/MultiClassNonMaxSuppression/Sum","Postprocessor/BatchMultiClassNonMaxSuppression/map/while/MultiClassNonMaxSuppression/Minimum_4"],"attr":{"T":{"type":3}},"name":"Postprocessor/BatchMultiClassNonMaxSuppression/map/while/MultiClassNonMaxSuppression/Select_5","op":"Select"},{"input":["Postprocessor/BatchMultiClassNonMaxSuppression/map/while/TensorArrayWrite_4/TensorArrayWriteV3/Enter","Postprocessor/BatchMultiClassNonMaxSuppression/map/while/Switch_1:1","Postprocessor/BatchMultiClassNonMaxSuppression/map/while/MultiClassNonMaxSuppression/Select_5","Postprocessor/BatchMultiClassNonMaxSuppression/map/while/Switch_6:1"],"attr":{"T":{"type":3}},"name":"Postprocessor/BatchMultiClassNonMaxSuppression/map/while/TensorArrayWrite_4/TensorArrayWriteV3","op":"TensorArrayWriteV3"},{"input":["Postprocessor/BatchMultiClassNonMaxSuppression/map/while/TensorArrayWrite_4/TensorArrayWriteV3"],"attr":{"T":{"type":1}},"name":"Postprocessor/BatchMultiClassNonMaxSuppression/map/while/NextIteration_6","op":"NextIteration"}],"library":{"function":[],"gradient":[]},"versions":{"badConsumers":[]}},"weightsManifest":[{"paths":["group1-shard1of13","group1-shard2of13","group1-shard3of13","group1-shard4of13","group1-shard5of13","group1-shard6of13","group1-shard7of13","group1-shard8of13","group1-shard9of13","group1-shard10of13","group1-shard11of13","group1-shard12of13","group1-shard13of13"],"weights":[{"name":"BoxPredictor_0/ClassPredictor/weights","shape":[3,3,576,15],"dtype":"float32"},{"name":"BoxPredictor_0/ClassPredictor/biases","shape":[15],"dtype":"float32"},{"name":"BoxPredictor_1/ClassPredictor/weights","shape":[3,3,1024,30],"dtype":"float32"},{"name":"BoxPredictor_1/ClassPredictor/biases","shape":[30],"dtype":"float32"},{"name":"BoxPredictor_2/ClassPredictor/weights","shape":[3,3,512,30],"dtype":"float32"},{"name":"BoxPredictor_2/ClassPredictor/biases","shape":[30],"dtype":"float32"},{"name":"BoxPredictor_3/ClassPredictor/weights","shape":[3,3,256,30],"dtype":"float32"},{"name":"BoxPredictor_3/ClassPredictor/biases","shape":[30],"dtype":"float32"},{"name":"BoxPredictor_4/ClassPredictor/weights","shape":[3,3,256,30],"dtype":"float32"},{"name":"BoxPredictor_4/ClassPredictor/biases","shape":[30],"dtype":"float32"},{"name":"BoxPredictor_5/ClassPredictor/weights","shape":[3,3,128,30],"dtype":"float32"},{"name":"BoxPredictor_5/ClassPredictor/biases","shape":[30],"dtype":"float32"},{"name":"BoxPredictor_0/Reshape_1/shape/2","shape":[],"dtype":"int32"},{"name":"Postprocessor/Slice/begin","shape":[3],"dtype":"int32"},{"name":"Postprocessor/Slice/size","shape":[3],"dtype":"int32"},{"name":"ConstantFolding/Postprocessor/truediv_recip","shape":[],"dtype":"float32"},{"name":"ConstantFolding/Postprocessor/truediv_1_recip","shape":[],"dtype":"float32"},{"name":"ConstantFolding/Postprocessor/Decode/truediv_recip","shape":[],"dtype":"float32"},{"name":"Postprocessor/ExpandDims","shape":[1,9636,4],"dtype":"float32"},{"name":"ConstantFolding/Postprocessor/Decode/truediv_4_recip","shape":[],"dtype":"float32"},{"name":"Postprocessor/Reshape_1/shape","shape":[2],"dtype":"int32"},{"name":"ConstantFolding/Postprocessor/Decode/truediv_2_recip","shape":[],"dtype":"float32"},{"name":"BoxPredictor_0/BoxEncodingPredictor/weights","shape":[3,3,576,12],"dtype":"float32"},{"name":"BoxPredictor_0/BoxEncodingPredictor/biases","shape":[12],"dtype":"float32"},{"name":"BoxPredictor_1/BoxEncodingPredictor/weights","shape":[3,3,1024,24],"dtype":"float32"},{"name":"BoxPredictor_1/BoxEncodingPredictor/biases","shape":[24],"dtype":"float32"},{"name":"BoxPredictor_2/BoxEncodingPredictor/weights","shape":[3,3,512,24],"dtype":"float32"},{"name":"BoxPredictor_2/BoxEncodingPredictor/biases","shape":[24],"dtype":"float32"},{"name":"BoxPredictor_3/BoxEncodingPredictor/weights","shape":[3,3,256,24],"dtype":"float32"},{"name":"BoxPredictor_3/BoxEncodingPredictor/biases","shape":[24],"dtype":"float32"},{"name":"BoxPredictor_4/BoxEncodingPredictor/weights","shape":[3,3,256,24],"dtype":"float32"},{"name":"BoxPredictor_4/BoxEncodingPredictor/biases","shape":[24],"dtype":"float32"},{"name":"BoxPredictor_5/BoxEncodingPredictor/weights","shape":[3,3,128,24],"dtype":"float32"},{"name":"BoxPredictor_5/BoxEncodingPredictor/biases","shape":[24],"dtype":"float32"},{"name":"FeatureExtractor/InceptionV2/InceptionV2/Mixed_5c/Branch_0/Conv2d_0a_1x1/Conv2D/merged_input","shape":[1,1,1024,352],"dtype":"float32"},{"name":"FeatureExtractor/InceptionV2/InceptionV2/Mixed_5c/Branch_0/Conv2d_0a_1x1/BatchNorm/FusedBatchNorm/Offset","shape":[352],"dtype":"float32"},{"name":"FeatureExtractor/InceptionV2/InceptionV2/Mixed_5c/Branch_1/Conv2d_0a_1x1/Conv2D/merged_input","shape":[1,1,1024,192],"dtype":"float32"},{"name":"FeatureExtractor/InceptionV2/InceptionV2/Mixed_5c/Branch_1/Conv2d_0a_1x1/BatchNorm/FusedBatchNorm/Offset","shape":[192],"dtype":"float32"},{"name":"FeatureExtractor/InceptionV2/InceptionV2/Mixed_5c/Branch_1/Conv2d_0b_3x3/Conv2D/merged_input","shape":[3,3,192,320],"dtype":"float32"},{"name":"FeatureExtractor/InceptionV2/InceptionV2/Mixed_5c/Branch_1/Conv2d_0b_3x3/BatchNorm/FusedBatchNorm/Offset","shape":[320],"dtype":"float32"},{"name":"FeatureExtractor/InceptionV2/InceptionV2/Mixed_5c/Branch_2/Conv2d_0a_1x1/Conv2D/merged_input","shape":[1,1,1024,192],"dtype":"float32"},{"name":"FeatureExtractor/InceptionV2/InceptionV2/Mixed_5c/Branch_2/Conv2d_0a_1x1/BatchNorm/FusedBatchNorm/Offset","shape":[192],"dtype":"float32"},{"name":"FeatureExtractor/InceptionV2/InceptionV2/Mixed_5c/Branch_2/Conv2d_0b_3x3/Conv2D/merged_input","shape":[3,3,192,224],"dtype":"float32"},{"name":"FeatureExtractor/InceptionV2/InceptionV2/Mixed_5c/Branch_2/Conv2d_0b_3x3/BatchNorm/FusedBatchNorm/Offset","shape":[224],"dtype":"float32"},{"name":"FeatureExtractor/InceptionV2/InceptionV2/Mixed_5c/Branch_2/Conv2d_0c_3x3/Conv2D/merged_input","shape":[3,3,224,224],"dtype":"float32"},{"name":"FeatureExtractor/InceptionV2/InceptionV2/Mixed_5c/Branch_2/Conv2d_0c_3x3/BatchNorm/FusedBatchNorm/Offset","shape":[224],"dtype":"float32"},{"name":"FeatureExtractor/InceptionV2/InceptionV2/Mixed_5b/Branch_0/Conv2d_0a_1x1/Conv2D/merged_input","shape":[1,1,1024,352],"dtype":"float32"},{"name":"FeatureExtractor/InceptionV2/InceptionV2/Mixed_5b/Branch_0/Conv2d_0a_1x1/BatchNorm/FusedBatchNorm/Offset","shape":[352],"dtype":"float32"},{"name":"FeatureExtractor/InceptionV2/InceptionV2/Mixed_5b/Branch_1/Conv2d_0a_1x1/Conv2D/merged_input","shape":[1,1,1024,192],"dtype":"float32"},{"name":"FeatureExtractor/InceptionV2/InceptionV2/Mixed_5b/Branch_1/Conv2d_0a_1x1/BatchNorm/FusedBatchNorm/Offset","shape":[192],"dtype":"float32"},{"name":"FeatureExtractor/InceptionV2/InceptionV2/Mixed_5b/Branch_1/Conv2d_0b_3x3/Conv2D/merged_input","shape":[3,3,192,320],"dtype":"float32"},{"name":"FeatureExtractor/InceptionV2/InceptionV2/Mixed_5b/Branch_1/Conv2d_0b_3x3/BatchNorm/FusedBatchNorm/Offset","shape":[320],"dtype":"float32"},{"name":"FeatureExtractor/InceptionV2/InceptionV2/Mixed_5b/Branch_2/Conv2d_0a_1x1/Conv2D/merged_input","shape":[1,1,1024,160],"dtype":"float32"},{"name":"FeatureExtractor/InceptionV2/InceptionV2/Mixed_5b/Branch_2/Conv2d_0a_1x1/BatchNorm/FusedBatchNorm/Offset","shape":[160],"dtype":"float32"},{"name":"FeatureExtractor/InceptionV2/InceptionV2/Mixed_5b/Branch_2/Conv2d_0b_3x3/Conv2D/merged_input","shape":[3,3,160,224],"dtype":"float32"},{"name":"FeatureExtractor/InceptionV2/InceptionV2/Mixed_5b/Branch_2/Conv2d_0b_3x3/BatchNorm/FusedBatchNorm/Offset","shape":[224],"dtype":"float32"},{"name":"FeatureExtractor/InceptionV2/InceptionV2/Mixed_5b/Branch_2/Conv2d_0c_3x3/Conv2D/merged_input","shape":[3,3,224,224],"dtype":"float32"},{"name":"FeatureExtractor/InceptionV2/InceptionV2/Mixed_5b/Branch_2/Conv2d_0c_3x3/BatchNorm/FusedBatchNorm/Offset","shape":[224],"dtype":"float32"},{"name":"FeatureExtractor/InceptionV2/InceptionV2/Mixed_5a/Branch_0/Conv2d_0a_1x1/Conv2D/merged_input","shape":[1,1,576,128],"dtype":"float32"},{"name":"FeatureExtractor/InceptionV2/InceptionV2/Mixed_5a/Branch_0/Conv2d_0a_1x1/BatchNorm/FusedBatchNorm/Offset","shape":[128],"dtype":"float32"},{"name":"FeatureExtractor/InceptionV2/InceptionV2/Mixed_5a/Branch_0/Conv2d_1a_3x3/Conv2D/merged_input","shape":[3,3,128,192],"dtype":"float32"},{"name":"FeatureExtractor/InceptionV2/InceptionV2/Mixed_5a/Branch_0/Conv2d_1a_3x3/BatchNorm/FusedBatchNorm/Offset","shape":[192],"dtype":"float32"},{"name":"FeatureExtractor/InceptionV2/InceptionV2/Mixed_5a/Branch_1/Conv2d_0a_1x1/Conv2D/merged_input","shape":[1,1,576,192],"dtype":"float32"},{"name":"FeatureExtractor/InceptionV2/InceptionV2/Mixed_5a/Branch_1/Conv2d_0a_1x1/BatchNorm/FusedBatchNorm/Offset","shape":[192],"dtype":"float32"},{"name":"FeatureExtractor/InceptionV2/InceptionV2/Mixed_5a/Branch_1/Conv2d_0b_3x3/Conv2D/merged_input","shape":[3,3,192,256],"dtype":"float32"},{"name":"FeatureExtractor/InceptionV2/InceptionV2/Mixed_5a/Branch_1/Conv2d_0b_3x3/BatchNorm/FusedBatchNorm/Offset","shape":[256],"dtype":"float32"},{"name":"FeatureExtractor/InceptionV2/InceptionV2/Mixed_5a/Branch_1/Conv2d_1a_3x3/Conv2D/merged_input","shape":[3,3,256,256],"dtype":"float32"},{"name":"FeatureExtractor/InceptionV2/InceptionV2/Mixed_5a/Branch_1/Conv2d_1a_3x3/BatchNorm/FusedBatchNorm/Offset","shape":[256],"dtype":"float32"},{"name":"FeatureExtractor/InceptionV2/InceptionV2/Mixed_4e/Branch_0/Conv2d_0a_1x1/Conv2D/merged_input","shape":[1,1,576,96],"dtype":"float32"},{"name":"FeatureExtractor/InceptionV2/InceptionV2/Mixed_4e/Branch_0/Conv2d_0a_1x1/BatchNorm/FusedBatchNorm/Offset","shape":[96],"dtype":"float32"},{"name":"FeatureExtractor/InceptionV2/InceptionV2/Mixed_4e/Branch_1/Conv2d_0a_1x1/Conv2D/merged_input","shape":[1,1,576,128],"dtype":"float32"},{"name":"FeatureExtractor/InceptionV2/InceptionV2/Mixed_4e/Branch_1/Conv2d_0a_1x1/BatchNorm/FusedBatchNorm/Offset","shape":[128],"dtype":"float32"},{"name":"FeatureExtractor/InceptionV2/InceptionV2/Mixed_4e/Branch_1/Conv2d_0b_3x3/Conv2D/merged_input","shape":[3,3,128,192],"dtype":"float32"},{"name":"FeatureExtractor/InceptionV2/InceptionV2/Mixed_4e/Branch_1/Conv2d_0b_3x3/BatchNorm/FusedBatchNorm/Offset","shape":[192],"dtype":"float32"},{"name":"FeatureExtractor/InceptionV2/InceptionV2/Mixed_4e/Branch_2/Conv2d_0a_1x1/Conv2D/merged_input","shape":[1,1,576,160],"dtype":"float32"},{"name":"FeatureExtractor/InceptionV2/InceptionV2/Mixed_4e/Branch_2/Conv2d_0a_1x1/BatchNorm/FusedBatchNorm/Offset","shape":[160],"dtype":"float32"},{"name":"FeatureExtractor/InceptionV2/InceptionV2/Mixed_4e/Branch_2/Conv2d_0b_3x3/Conv2D/merged_input","shape":[3,3,160,192],"dtype":"float32"},{"name":"FeatureExtractor/InceptionV2/InceptionV2/Mixed_4e/Branch_2/Conv2d_0b_3x3/BatchNorm/FusedBatchNorm/Offset","shape":[192],"dtype":"float32"},{"name":"FeatureExtractor/InceptionV2/InceptionV2/Mixed_4e/Branch_2/Conv2d_0c_3x3/Conv2D/merged_input","shape":[3,3,192,192],"dtype":"float32"},{"name":"FeatureExtractor/InceptionV2/InceptionV2/Mixed_4e/Branch_2/Conv2d_0c_3x3/BatchNorm/FusedBatchNorm/Offset","shape":[192],"dtype":"float32"},{"name":"FeatureExtractor/InceptionV2/InceptionV2/Mixed_4d/Branch_0/Conv2d_0a_1x1/Conv2D/merged_input","shape":[1,1,576,160],"dtype":"float32"},{"name":"FeatureExtractor/InceptionV2/InceptionV2/Mixed_4d/Branch_0/Conv2d_0a_1x1/BatchNorm/FusedBatchNorm/Offset","shape":[160],"dtype":"float32"},{"name":"FeatureExtractor/InceptionV2/InceptionV2/Mixed_4d/Branch_1/Conv2d_0a_1x1/Conv2D/merged_input","shape":[1,1,576,128],"dtype":"float32"},{"name":"FeatureExtractor/InceptionV2/InceptionV2/Mixed_4d/Branch_1/Conv2d_0a_1x1/BatchNorm/FusedBatchNorm/Offset","shape":[128],"dtype":"float32"},{"name":"FeatureExtractor/InceptionV2/InceptionV2/Mixed_4d/Branch_1/Conv2d_0b_3x3/Conv2D/merged_input","shape":[3,3,128,160],"dtype":"float32"},{"name":"FeatureExtractor/InceptionV2/InceptionV2/Mixed_4d/Branch_1/Conv2d_0b_3x3/BatchNorm/FusedBatchNorm/Offset","shape":[160],"dtype":"float32"},{"name":"FeatureExtractor/InceptionV2/InceptionV2/Mixed_4d/Branch_2/Conv2d_0a_1x1/Conv2D/merged_input","shape":[1,1,576,128],"dtype":"float32"},{"name":"FeatureExtractor/InceptionV2/InceptionV2/Mixed_4d/Branch_2/Conv2d_0a_1x1/BatchNorm/FusedBatchNorm/Offset","shape":[128],"dtype":"float32"},{"name":"FeatureExtractor/InceptionV2/InceptionV2/Mixed_4d/Branch_2/Conv2d_0b_3x3/Conv2D/merged_input","shape":[3,3,128,160],"dtype":"float32"},{"name":"FeatureExtractor/InceptionV2/InceptionV2/Mixed_4d/Branch_2/Conv2d_0b_3x3/BatchNorm/FusedBatchNorm/Offset","shape":[160],"dtype":"float32"},{"name":"FeatureExtractor/InceptionV2/InceptionV2/Mixed_4d/Branch_2/Conv2d_0c_3x3/Conv2D/merged_input","shape":[3,3,160,160],"dtype":"float32"},{"name":"FeatureExtractor/InceptionV2/InceptionV2/Mixed_4d/Branch_2/Conv2d_0c_3x3/BatchNorm/FusedBatchNorm/Offset","shape":[160],"dtype":"float32"},{"name":"FeatureExtractor/InceptionV2/InceptionV2/Mixed_4c/Branch_0/Conv2d_0a_1x1/Conv2D/merged_input","shape":[1,1,576,192],"dtype":"float32"},{"name":"FeatureExtractor/InceptionV2/InceptionV2/Mixed_4c/Branch_0/Conv2d_0a_1x1/BatchNorm/FusedBatchNorm/Offset","shape":[192],"dtype":"float32"},{"name":"FeatureExtractor/InceptionV2/InceptionV2/Mixed_4c/Branch_1/Conv2d_0a_1x1/Conv2D/merged_input","shape":[1,1,576,96],"dtype":"float32"},{"name":"FeatureExtractor/InceptionV2/InceptionV2/Mixed_4c/Branch_1/Conv2d_0a_1x1/BatchNorm/FusedBatchNorm/Offset","shape":[96],"dtype":"float32"},{"name":"FeatureExtractor/InceptionV2/InceptionV2/Mixed_4c/Branch_1/Conv2d_0b_3x3/Conv2D/merged_input","shape":[3,3,96,128],"dtype":"float32"},{"name":"FeatureExtractor/InceptionV2/InceptionV2/Mixed_4c/Branch_1/Conv2d_0b_3x3/BatchNorm/FusedBatchNorm/Offset","shape":[128],"dtype":"float32"},{"name":"FeatureExtractor/InceptionV2/InceptionV2/Mixed_4c/Branch_2/Conv2d_0a_1x1/Conv2D/merged_input","shape":[1,1,576,96],"dtype":"float32"},{"name":"FeatureExtractor/InceptionV2/InceptionV2/Mixed_4c/Branch_2/Conv2d_0a_1x1/BatchNorm/FusedBatchNorm/Offset","shape":[96],"dtype":"float32"},{"name":"FeatureExtractor/InceptionV2/InceptionV2/Mixed_4c/Branch_2/Conv2d_0b_3x3/Conv2D/merged_input","shape":[3,3,96,128],"dtype":"float32"},{"name":"FeatureExtractor/InceptionV2/InceptionV2/Mixed_4c/Branch_2/Conv2d_0b_3x3/BatchNorm/FusedBatchNorm/Offset","shape":[128],"dtype":"float32"},{"name":"FeatureExtractor/InceptionV2/InceptionV2/Mixed_4c/Branch_2/Conv2d_0c_3x3/Conv2D/merged_input","shape":[3,3,128,128],"dtype":"float32"},{"name":"FeatureExtractor/InceptionV2/InceptionV2/Mixed_4c/Branch_2/Conv2d_0c_3x3/BatchNorm/FusedBatchNorm/Offset","shape":[128],"dtype":"float32"},{"name":"FeatureExtractor/InceptionV2/InceptionV2/Mixed_4b/Branch_0/Conv2d_0a_1x1/Conv2D/merged_input","shape":[1,1,576,224],"dtype":"float32"},{"name":"FeatureExtractor/InceptionV2/InceptionV2/Mixed_4b/Branch_0/Conv2d_0a_1x1/BatchNorm/FusedBatchNorm/Offset","shape":[224],"dtype":"float32"},{"name":"FeatureExtractor/InceptionV2/InceptionV2/Mixed_4b/Branch_1/Conv2d_0a_1x1/Conv2D/merged_input","shape":[1,1,576,64],"dtype":"float32"},{"name":"FeatureExtractor/InceptionV2/InceptionV2/Mixed_4b/Branch_1/Conv2d_0a_1x1/BatchNorm/FusedBatchNorm/Offset","shape":[64],"dtype":"float32"},{"name":"FeatureExtractor/InceptionV2/InceptionV2/Mixed_4b/Branch_1/Conv2d_0b_3x3/Conv2D/merged_input","shape":[3,3,64,96],"dtype":"float32"},{"name":"FeatureExtractor/InceptionV2/InceptionV2/Mixed_4b/Branch_1/Conv2d_0b_3x3/BatchNorm/FusedBatchNorm/Offset","shape":[96],"dtype":"float32"},{"name":"FeatureExtractor/InceptionV2/InceptionV2/Mixed_4b/Branch_2/Conv2d_0a_1x1/Conv2D/merged_input","shape":[1,1,576,96],"dtype":"float32"},{"name":"FeatureExtractor/InceptionV2/InceptionV2/Mixed_4b/Branch_2/Conv2d_0a_1x1/BatchNorm/FusedBatchNorm/Offset","shape":[96],"dtype":"float32"},{"name":"FeatureExtractor/InceptionV2/InceptionV2/Mixed_4b/Branch_2/Conv2d_0b_3x3/Conv2D/merged_input","shape":[3,3,96,128],"dtype":"float32"},{"name":"FeatureExtractor/InceptionV2/InceptionV2/Mixed_4b/Branch_2/Conv2d_0b_3x3/BatchNorm/FusedBatchNorm/Offset","shape":[128],"dtype":"float32"},{"name":"FeatureExtractor/InceptionV2/InceptionV2/Mixed_4b/Branch_2/Conv2d_0c_3x3/Conv2D/merged_input","shape":[3,3,128,128],"dtype":"float32"},{"name":"FeatureExtractor/InceptionV2/InceptionV2/Mixed_4b/Branch_2/Conv2d_0c_3x3/BatchNorm/FusedBatchNorm/Offset","shape":[128],"dtype":"float32"},{"name":"FeatureExtractor/InceptionV2/InceptionV2/Mixed_4a/Branch_0/Conv2d_0a_1x1/Conv2D/merged_input","shape":[1,1,320,128],"dtype":"float32"},{"name":"FeatureExtractor/InceptionV2/InceptionV2/Mixed_4a/Branch_0/Conv2d_0a_1x1/BatchNorm/FusedBatchNorm/Offset","shape":[128],"dtype":"float32"},{"name":"FeatureExtractor/InceptionV2/InceptionV2/Mixed_4a/Branch_0/Conv2d_1a_3x3/Conv2D/merged_input","shape":[3,3,128,160],"dtype":"float32"},{"name":"FeatureExtractor/InceptionV2/InceptionV2/Mixed_4a/Branch_0/Conv2d_1a_3x3/BatchNorm/FusedBatchNorm/Offset","shape":[160],"dtype":"float32"},{"name":"FeatureExtractor/InceptionV2/InceptionV2/Mixed_4a/Branch_1/Conv2d_0a_1x1/Conv2D/merged_input","shape":[1,1,320,64],"dtype":"float32"},{"name":"FeatureExtractor/InceptionV2/InceptionV2/Mixed_4a/Branch_1/Conv2d_0a_1x1/BatchNorm/FusedBatchNorm/Offset","shape":[64],"dtype":"float32"},{"name":"FeatureExtractor/InceptionV2/InceptionV2/Mixed_4a/Branch_1/Conv2d_0b_3x3/Conv2D/merged_input","shape":[3,3,64,96],"dtype":"float32"},{"name":"FeatureExtractor/InceptionV2/InceptionV2/Mixed_4a/Branch_1/Conv2d_0b_3x3/BatchNorm/FusedBatchNorm/Offset","shape":[96],"dtype":"float32"},{"name":"FeatureExtractor/InceptionV2/InceptionV2/Mixed_4a/Branch_1/Conv2d_1a_3x3/Conv2D/merged_input","shape":[3,3,96,96],"dtype":"float32"},{"name":"FeatureExtractor/InceptionV2/InceptionV2/Mixed_4a/Branch_1/Conv2d_1a_3x3/BatchNorm/FusedBatchNorm/Offset","shape":[96],"dtype":"float32"},{"name":"FeatureExtractor/InceptionV2/InceptionV2/Mixed_3c/Branch_0/Conv2d_0a_1x1/Conv2D/merged_input","shape":[1,1,256,64],"dtype":"float32"},{"name":"FeatureExtractor/InceptionV2/InceptionV2/Mixed_3c/Branch_0/Conv2d_0a_1x1/BatchNorm/FusedBatchNorm/Offset","shape":[64],"dtype":"float32"},{"name":"FeatureExtractor/InceptionV2/InceptionV2/Mixed_3c/Branch_1/Conv2d_0a_1x1/Conv2D/merged_input","shape":[1,1,256,64],"dtype":"float32"},{"name":"FeatureExtractor/InceptionV2/InceptionV2/Mixed_3c/Branch_1/Conv2d_0a_1x1/BatchNorm/FusedBatchNorm/Offset","shape":[64],"dtype":"float32"},{"name":"FeatureExtractor/InceptionV2/InceptionV2/Mixed_3c/Branch_1/Conv2d_0b_3x3/Conv2D/merged_input","shape":[3,3,64,96],"dtype":"float32"},{"name":"FeatureExtractor/InceptionV2/InceptionV2/Mixed_3c/Branch_1/Conv2d_0b_3x3/BatchNorm/FusedBatchNorm/Offset","shape":[96],"dtype":"float32"},{"name":"FeatureExtractor/InceptionV2/InceptionV2/Mixed_3c/Branch_2/Conv2d_0a_1x1/Conv2D/merged_input","shape":[1,1,256,64],"dtype":"float32"},{"name":"FeatureExtractor/InceptionV2/InceptionV2/Mixed_3c/Branch_2/Conv2d_0a_1x1/BatchNorm/FusedBatchNorm/Offset","shape":[64],"dtype":"float32"},{"name":"FeatureExtractor/InceptionV2/InceptionV2/Mixed_3c/Branch_2/Conv2d_0b_3x3/Conv2D/merged_input","shape":[3,3,64,96],"dtype":"float32"},{"name":"FeatureExtractor/InceptionV2/InceptionV2/Mixed_3c/Branch_2/Conv2d_0b_3x3/BatchNorm/FusedBatchNorm/Offset","shape":[96],"dtype":"float32"},{"name":"FeatureExtractor/InceptionV2/InceptionV2/Mixed_3c/Branch_2/Conv2d_0c_3x3/Conv2D/merged_input","shape":[3,3,96,96],"dtype":"float32"},{"name":"FeatureExtractor/InceptionV2/InceptionV2/Mixed_3c/Branch_2/Conv2d_0c_3x3/BatchNorm/FusedBatchNorm/Offset","shape":[96],"dtype":"float32"},{"name":"FeatureExtractor/InceptionV2/InceptionV2/Mixed_3b/Branch_0/Conv2d_0a_1x1/Conv2D/merged_input","shape":[1,1,192,64],"dtype":"float32"},{"name":"FeatureExtractor/InceptionV2/InceptionV2/Mixed_3b/Branch_0/Conv2d_0a_1x1/BatchNorm/FusedBatchNorm/Offset","shape":[64],"dtype":"float32"},{"name":"FeatureExtractor/InceptionV2/InceptionV2/Mixed_3b/Branch_1/Conv2d_0a_1x1/Conv2D/merged_input","shape":[1,1,192,64],"dtype":"float32"},{"name":"FeatureExtractor/InceptionV2/InceptionV2/Mixed_3b/Branch_1/Conv2d_0a_1x1/BatchNorm/FusedBatchNorm/Offset","shape":[64],"dtype":"float32"},{"name":"FeatureExtractor/InceptionV2/InceptionV2/Mixed_3b/Branch_1/Conv2d_0b_3x3/Conv2D/merged_input","shape":[3,3,64,64],"dtype":"float32"},{"name":"FeatureExtractor/InceptionV2/InceptionV2/Mixed_3b/Branch_1/Conv2d_0b_3x3/BatchNorm/FusedBatchNorm/Offset","shape":[64],"dtype":"float32"},{"name":"FeatureExtractor/InceptionV2/InceptionV2/Mixed_3b/Branch_2/Conv2d_0a_1x1/Conv2D/merged_input","shape":[1,1,192,64],"dtype":"float32"},{"name":"FeatureExtractor/InceptionV2/InceptionV2/Mixed_3b/Branch_2/Conv2d_0a_1x1/BatchNorm/FusedBatchNorm/Offset","shape":[64],"dtype":"float32"},{"name":"FeatureExtractor/InceptionV2/InceptionV2/Mixed_3b/Branch_2/Conv2d_0b_3x3/Conv2D/merged_input","shape":[3,3,64,96],"dtype":"float32"},{"name":"FeatureExtractor/InceptionV2/InceptionV2/Mixed_3b/Branch_2/Conv2d_0b_3x3/BatchNorm/FusedBatchNorm/Offset","shape":[96],"dtype":"float32"},{"name":"FeatureExtractor/InceptionV2/InceptionV2/Mixed_3b/Branch_2/Conv2d_0c_3x3/Conv2D/merged_input","shape":[3,3,96,96],"dtype":"float32"},{"name":"FeatureExtractor/InceptionV2/InceptionV2/Mixed_3b/Branch_2/Conv2d_0c_3x3/BatchNorm/FusedBatchNorm/Offset","shape":[96],"dtype":"float32"},{"name":"Preprocessor/mul/x","shape":[],"dtype":"float32"},{"name":"Postprocessor/BatchMultiClassNonMaxSuppression/map/TensorArrayStack_4/range/start","shape":[],"dtype":"int32"},{"name":"Postprocessor/scale_logits/y","shape":[],"dtype":"float32"},{"name":"FeatureExtractor/InceptionV2/Conv2d_1a_7x7/depthwise_weights","shape":[7,7,3,8],"dtype":"float32"},{"name":"FeatureExtractor/InceptionV2/InceptionV2/Conv2d_1a_7x7/separable_conv2d/merged_input","shape":[1,1,24,64],"dtype":"float32"},{"name":"FeatureExtractor/InceptionV2/InceptionV2/Conv2d_1a_7x7/BatchNorm/FusedBatchNorm/Offset","shape":[64],"dtype":"float32"},{"name":"FeatureExtractor/InceptionV2/InceptionV2/Conv2d_2b_1x1/Conv2D/merged_input","shape":[1,1,64,64],"dtype":"float32"},{"name":"FeatureExtractor/InceptionV2/InceptionV2/Conv2d_2b_1x1/BatchNorm/FusedBatchNorm/Offset","shape":[64],"dtype":"float32"},{"name":"FeatureExtractor/InceptionV2/InceptionV2/Conv2d_2c_3x3/Conv2D/merged_input","shape":[3,3,64,192],"dtype":"float32"},{"name":"FeatureExtractor/InceptionV2/InceptionV2/Conv2d_2c_3x3/BatchNorm/FusedBatchNorm/Offset","shape":[192],"dtype":"float32"},{"name":"FeatureExtractor/InceptionV2/InceptionV2/Mixed_3b/Branch_3/Conv2d_0b_1x1/Conv2D/merged_input","shape":[1,1,192,32],"dtype":"float32"},{"name":"FeatureExtractor/InceptionV2/InceptionV2/Mixed_3b/Branch_3/Conv2d_0b_1x1/BatchNorm/FusedBatchNorm/Offset","shape":[32],"dtype":"float32"},{"name":"FeatureExtractor/InceptionV2/InceptionV2/Mixed_3c/Branch_3/Conv2d_0b_1x1/Conv2D/merged_input","shape":[1,1,256,64],"dtype":"float32"},{"name":"FeatureExtractor/InceptionV2/InceptionV2/Mixed_3c/Branch_3/Conv2d_0b_1x1/BatchNorm/FusedBatchNorm/Offset","shape":[64],"dtype":"float32"},{"name":"FeatureExtractor/InceptionV2/InceptionV2/Mixed_4b/Branch_3/Conv2d_0b_1x1/Conv2D/merged_input","shape":[1,1,576,128],"dtype":"float32"},{"name":"FeatureExtractor/InceptionV2/InceptionV2/Mixed_4b/Branch_3/Conv2d_0b_1x1/BatchNorm/FusedBatchNorm/Offset","shape":[128],"dtype":"float32"},{"name":"FeatureExtractor/InceptionV2/InceptionV2/Mixed_4c/Branch_3/Conv2d_0b_1x1/Conv2D/merged_input","shape":[1,1,576,128],"dtype":"float32"},{"name":"FeatureExtractor/InceptionV2/InceptionV2/Mixed_4c/Branch_3/Conv2d_0b_1x1/BatchNorm/FusedBatchNorm/Offset","shape":[128],"dtype":"float32"},{"name":"FeatureExtractor/InceptionV2/InceptionV2/Mixed_4d/Branch_3/Conv2d_0b_1x1/Conv2D/merged_input","shape":[1,1,576,96],"dtype":"float32"},{"name":"FeatureExtractor/InceptionV2/InceptionV2/Mixed_4d/Branch_3/Conv2d_0b_1x1/BatchNorm/FusedBatchNorm/Offset","shape":[96],"dtype":"float32"},{"name":"FeatureExtractor/InceptionV2/InceptionV2/Mixed_4e/Branch_3/Conv2d_0b_1x1/Conv2D/merged_input","shape":[1,1,576,96],"dtype":"float32"},{"name":"FeatureExtractor/InceptionV2/InceptionV2/Mixed_4e/Branch_3/Conv2d_0b_1x1/BatchNorm/FusedBatchNorm/Offset","shape":[96],"dtype":"float32"},{"name":"FeatureExtractor/InceptionV2/InceptionV2/Mixed_5b/Branch_3/Conv2d_0b_1x1/Conv2D/merged_input","shape":[1,1,1024,128],"dtype":"float32"},{"name":"FeatureExtractor/InceptionV2/InceptionV2/Mixed_5b/Branch_3/Conv2d_0b_1x1/BatchNorm/FusedBatchNorm/Offset","shape":[128],"dtype":"float32"},{"name":"FeatureExtractor/InceptionV2/InceptionV2/Mixed_5c/Branch_3/Conv2d_0b_1x1/Conv2D/merged_input","shape":[1,1,1024,128],"dtype":"float32"},{"name":"FeatureExtractor/InceptionV2/InceptionV2/Mixed_5c/Branch_3/Conv2d_0b_1x1/BatchNorm/FusedBatchNorm/Offset","shape":[128],"dtype":"float32"},{"name":"FeatureExtractor/InceptionV2/InceptionV2/Mixed_3b/concat/axis","shape":[],"dtype":"int32"},{"name":"FeatureExtractor/InceptionV2/Mixed_5c_1_Conv2d_2_1x1_256/Conv2D/merged_input","shape":[1,1,1024,256],"dtype":"float32"},{"name":"FeatureExtractor/InceptionV2/Mixed_5c_1_Conv2d_2_1x1_256/BatchNorm/FusedBatchNorm/Offset","shape":[256],"dtype":"float32"},{"name":"FeatureExtractor/InceptionV2/Mixed_5c_2_Conv2d_2_3x3_s2_512/Conv2D/merged_input","shape":[3,3,256,512],"dtype":"float32"},{"name":"FeatureExtractor/InceptionV2/Mixed_5c_2_Conv2d_2_3x3_s2_512/BatchNorm/FusedBatchNorm/Offset","shape":[512],"dtype":"float32"},{"name":"FeatureExtractor/InceptionV2/Mixed_5c_1_Conv2d_3_1x1_128/Conv2D/merged_input","shape":[1,1,512,128],"dtype":"float32"},{"name":"FeatureExtractor/InceptionV2/Mixed_5c_1_Conv2d_3_1x1_128/BatchNorm/FusedBatchNorm/Offset","shape":[128],"dtype":"float32"},{"name":"FeatureExtractor/InceptionV2/Mixed_5c_2_Conv2d_3_3x3_s2_256/Conv2D/merged_input","shape":[3,3,128,256],"dtype":"float32"},{"name":"FeatureExtractor/InceptionV2/Mixed_5c_2_Conv2d_3_3x3_s2_256/BatchNorm/FusedBatchNorm/Offset","shape":[256],"dtype":"float32"},{"name":"FeatureExtractor/InceptionV2/Mixed_5c_1_Conv2d_4_1x1_128/Conv2D/merged_input","shape":[1,1,256,128],"dtype":"float32"},{"name":"FeatureExtractor/InceptionV2/Mixed_5c_1_Conv2d_4_1x1_128/BatchNorm/FusedBatchNorm/Offset","shape":[128],"dtype":"float32"},{"name":"FeatureExtractor/InceptionV2/Mixed_5c_2_Conv2d_4_3x3_s2_256/Conv2D/merged_input","shape":[3,3,128,256],"dtype":"float32"},{"name":"FeatureExtractor/InceptionV2/Mixed_5c_2_Conv2d_4_3x3_s2_256/BatchNorm/FusedBatchNorm/Offset","shape":[256],"dtype":"float32"},{"name":"FeatureExtractor/InceptionV2/Mixed_5c_1_Conv2d_5_1x1_64/Conv2D/merged_input","shape":[1,1,256,64],"dtype":"float32"},{"name":"FeatureExtractor/InceptionV2/Mixed_5c_1_Conv2d_5_1x1_64/BatchNorm/FusedBatchNorm/Offset","shape":[64],"dtype":"float32"},{"name":"FeatureExtractor/InceptionV2/Mixed_5c_2_Conv2d_5_3x3_s2_128/Conv2D/merged_input","shape":[3,3,64,128],"dtype":"float32"},{"name":"FeatureExtractor/InceptionV2/Mixed_5c_2_Conv2d_5_3x3_s2_128/BatchNorm/FusedBatchNorm/Offset","shape":[128],"dtype":"float32"},{"name":"BoxPredictor_0/Reshape_1/shape/1","shape":[],"dtype":"int32"},{"name":"Postprocessor/BatchMultiClassNonMaxSuppression/map/TensorArrayStack_4/range/delta","shape":[],"dtype":"int32"},{"name":"Postprocessor/BatchMultiClassNonMaxSuppression/strided_slice_1/stack_1","shape":[1],"dtype":"int32"},{"name":"BoxPredictor_0/Reshape/shape/3","shape":[],"dtype":"int32"},{"name":"Postprocessor/ExpandDims_1/dim","shape":[],"dtype":"int32"},{"name":"Postprocessor/BatchMultiClassNonMaxSuppression/map/TensorArrayUnstack_1/strided_slice/stack","shape":[1],"dtype":"int32"},{"name":"Postprocessor/BatchMultiClassNonMaxSuppression/map/TensorArrayUnstack_1/strided_slice/stack_1","shape":[1],"dtype":"int32"},{"name":"Preprocessor/map/while/ResizeImage/stack_1","shape":[3],"dtype":"int32"},{"name":"Preprocessor/map/while/ResizeImage/resize_images/ExpandDims/dim","shape":[],"dtype":"int32"},{"name":"Preprocessor/map/while/ResizeImage/stack","shape":[2],"dtype":"int32"},{"name":"Preprocessor/map/while/add/y","shape":[],"dtype":"int32"},{"name":"Postprocessor/Decode/transpose/sub_1","shape":[2],"dtype":"int32"},{"name":"Postprocessor/Decode/get_center_coordinates_and_sizes/transpose/sub_1","shape":[2],"dtype":"int32"},{"name":"Postprocessor/Decode/transpose_1/sub_1","shape":[2],"dtype":"int32"},{"name":"ConstantFolding/Postprocessor/BatchMultiClassNonMaxSuppression/ones/packed_const_axis","shape":[],"dtype":"int32"},{"name":"Postprocessor/BatchMultiClassNonMaxSuppression/map/while/MultiClassNonMaxSuppression/mul_4/x","shape":[],"dtype":"float32"},{"name":"Postprocessor/BatchMultiClassNonMaxSuppression/map/while/MultiClassNonMaxSuppression/ones_4/Const","shape":[],"dtype":"float32"},{"name":"Postprocessor/BatchMultiClassNonMaxSuppression/map/while/MultiClassNonMaxSuppression/Slice_1/begin","shape":[2],"dtype":"int32"},{"name":"Postprocessor/BatchMultiClassNonMaxSuppression/map/while/MultiClassNonMaxSuppression/Slice_2/begin","shape":[2],"dtype":"int32"},{"name":"Postprocessor/BatchMultiClassNonMaxSuppression/map/while/MultiClassNonMaxSuppression/Slice_3/begin","shape":[2],"dtype":"int32"},{"name":"Postprocessor/BatchMultiClassNonMaxSuppression/map/while/MultiClassNonMaxSuppression/Slice/begin","shape":[2],"dtype":"int32"},{"name":"Postprocessor/BatchMultiClassNonMaxSuppression/map/while/Reshape_1/shape","shape":[2],"dtype":"int32"},{"name":"Postprocessor/BatchMultiClassNonMaxSuppression/map/while/MultiClassNonMaxSuppression/Minimum_4/x","shape":[],"dtype":"int32"},{"name":"Postprocessor/BatchMultiClassNonMaxSuppression/map/while/Slice/begin","shape":[3],"dtype":"int32"},{"name":"Postprocessor/BatchMultiClassNonMaxSuppression/map/while/stack_1/1","shape":[],"dtype":"int32"},{"name":"Postprocessor/BatchMultiClassNonMaxSuppression/map/while/Reshape/shape","shape":[3],"dtype":"int32"},{"name":"Postprocessor/BatchMultiClassNonMaxSuppression/map/while/MultiClassNonMaxSuppression/non_max_suppression/iou_threshold","shape":[],"dtype":"float32"},{"name":"Postprocessor/BatchMultiClassNonMaxSuppression/map/while/MultiClassNonMaxSuppression/non_max_suppression/score_threshold","shape":[],"dtype":"float32"},{"name":"Postprocessor/BatchMultiClassNonMaxSuppression/map/while/MultiClassNonMaxSuppression/GreaterEqual/y","shape":[],"dtype":"float32"},{"name":"Postprocessor/BatchMultiClassNonMaxSuppression/map/while/MultiClassNonMaxSuppression/ones_4/Reshape/shape","shape":[1],"dtype":"int32"},{"name":"Postprocessor/BatchMultiClassNonMaxSuppression/map/while/MultiClassNonMaxSuppression/SortByField/Gather/GatherV2_1/axis","shape":[],"dtype":"int32"},{"name":"Postprocessor/BatchMultiClassNonMaxSuppression/map/while/MultiClassNonMaxSuppression/Const_1","shape":[1],"dtype":"int32"},{"name":"Postprocessor/BatchMultiClassNonMaxSuppression/map/while/MultiClassNonMaxSuppression/strided_slice_9/stack_1","shape":[1],"dtype":"int32"},{"name":"Postprocessor/BatchMultiClassNonMaxSuppression/map/while/MultiClassNonMaxSuppression/Area/split/split_dim","shape":[],"dtype":"int32"}]}]}